data/perturbations/excavator/2018-07-22 15:46:53.904665/pert_model.pt (torch_old, 19915 bytes, 20 tensors)

weight f4 [3, 3, 3, 3]
000000 00 00 00 00 00 00 00 00 00 00 00 00 00 00 00 00
       0.0 0.0 0.0 0.0
000010 00 00 80 3f 00 00 00 00 00 00 00 00 00 00 00 00
       1.0 0.0 0.0 0.0
000020 00 00 00 00 00 00 00 00 00 00 00 00 00 00 00 00
       0.0 0.0 0.0 0.0
000030 00 00 00 00 00 00 00 00 00 00 00 00 00 00 00 00
       0.0 0.0 0.0 0.0
000040 00 00 00 00 00 00 00 00 00 00 00 00 00 00 00 00
       0.0 0.0 0.0 0.0
000050 00 00 00 00 00 00 00 00 00 00 00 00 00 00 00 00
       0.0 0.0 0.0 0.0
000060 00 00 00 00 00 00 00 00 00 00 00 00 00 00 00 00
       0.0 0.0 0.0 0.0
000070 00 00 00 00 00 00 00 00 00 00 00 00 00 00 00 00
       0.0 0.0 0.0 0.0
000080 00 00 00 00 00 00 00 00 00 00 00 00 00 00 00 00
       0.0 0.0 0.0 0.0
000090 00 00 00 00 00 00 00 00 00 00 00 00 00 00 00 00
       0.0 0.0 0.0 0.0
0000a0 00 00 80 3f 00 00 00 00 00 00 00 00 00 00 00 00
       1.0 0.0 0.0 0.0
0000b0 00 00 00 00 00 00 00 00 00 00 00 00 00 00 00 00
       0.0 0.0 0.0 0.0
0000c0 00 00 00 00 00 00 00 00 00 00 00 00 00 00 00 00
       0.0 0.0 0.0 0.0
0000d0 00 00 00 00 00 00 00 00 00 00 00 00 00 00 00 00
       0.0 0.0 0.0 0.0
0000e0 00 00 00 00 00 00 00 00 00 00 00 00 00 00 00 00
       0.0 0.0 0.0 0.0
0000f0 00 00 00 00 00 00 00 00 00 00 00 00 00 00 00 00
       0.0 0.0 0.0 0.0
000100 00 00 00 00 00 00 00 00 00 00 00 00 00 00 00 00
       0.0 0.0 0.0 0.0
000110 00 00 00 00 00 00 00 00 00 00 00 00 00 00 00 00
       0.0 0.0 0.0 0.0
000120 00 00 00 00 00 00 00 00 00 00 00 00 00 00 00 00
       0.0 0.0 0.0 0.0
000130 00 00 80 3f 00 00 00 00 00 00 00 00 00 00 00 00
       1.0 0.0 0.0 0.0
000140 00 00 00 00
       0.0

bias f4 [3]
000000 00 00 00 00 00 00 00 00 00 00 00 00
       0.0 0.0 0.0

weight f4 [3, 3, 3, 3]
000000 c3 de ec bc 62 5e 93 bd 4c 1e a9 bc 2b d1 9c bd
       -0.028914815 -0.071957365 -0.02064433 -0.07657083
000010 41 4a 56 3f 76 4d bf bd 46 9d 5e bd 41 8a 99 bd
       0.8370705 -0.093409464 -0.054349206 -0.07497073
000020 fd d4 5f bd 3b 23 79 3d eb a2 dc 3c 78 38 6b 3d
       -0.05464648 0.060824614 0.026933154 0.0574269
000030 a6 a6 16 3d e4 46 f3 bc 89 8a 53 3d 82 95 16 3d
       0.036780022 -0.02969689 0.05164579 0.036763676
000040 13 a2 a2 3c bc 70 5e 3d 31 46 59 bc c4 5f 16 bd
       0.019852674 0.05430673 -0.013261364 -0.036712423
000050 c1 63 bb bc 50 2e 82 bc 46 00 7c bd 80 8c b0 bc
       -0.022874715 -0.015891224 -0.0615237 -0.02155137
000060 8d 6e 38 bc f2 e1 1e bd 56 53 06 bd b4 2f 9e bd
       -0.011256826 -0.038789697 -0.03279432 -0.077239424
000070 69 56 4f 3c d4 c8 69 bc e7 65 8d bd ad 64 a2 bc
       0.012654879 -0.014269073 -0.06904202 -0.019823397
000080 67 9d cb bc 8e 62 35 bd 8f 80 c9 3c 5e f5 4a bd
       -0.024855329 -0.044283442 0.024597434 -0.049550407
000090 8a fb 82 bd 39 28 51 bd ce 7e 12 bd 0d 9e 6c bd
       -0.063956335 -0.05106375 -0.03576546 -0.057767916
0000a0 9b 9b 6e 3f 52 7b 0b bd 81 fb 94 bd a7 ac a6 bc
       0.93206185 -0.034053154 -0.07274533 -0.020345999
0000b0 9d 7f 13 bd 78 0c 08 3b 1d 5a 2a bd 13 00 f9 bc
       -0.036010373 0.0020759385 -0.041589845 -0.030395543
0000c0 37 46 ad 3c 8b 48 1b bd d9 8c ea bc c3 3d 8c bc
       0.021151645 -0.03791098 -0.028631615 -0.017119294
0000d0 e6 e4 c0 bc ef 68 21 bd 03 7a 09 bc 34 37 48 bd
       -0.023546647 -0.039406713 -0.008390906 -0.04888077
0000e0 47 f8 43 bc 25 11 1c bd ac 2a 42 bd 48 ef c0 bc
       -0.011961049 -0.038102288 -0.047403976 -0.023551598
0000f0 69 29 94 3c 77 26 e9 bc c6 1b 8e bc 13 dc 1b 3d
       0.018086152 -0.028460724 -0.017347228 0.038051676
000100 7e ea e1 bb b1 18 fb 3c ca 60 d0 bc 85 ae 15 bd
       -0.0068944087 0.030651422 -0.025436778 -0.036543388
000110 97 5f c8 3b e8 90 96 bb 68 5c 15 bc ed d2 b6 3c
       0.006114911 -0.004594911 -0.00911627 0.022317374
000120 e1 ac 54 3c e6 53 38 bd 53 1a a1 bc 4a d4 30 bd
       0.012980671 -0.045001887 -0.019665873 -0.043171205
000130 54 cd 70 3f 90 a6 23 bd 60 59 e7 bc a9 cd 10 bd
       0.94063306 -0.03995377 -0.02824086 -0.035352383
000140 6f c2 bd bc
       -0.023164002

bias f4 [3]
000000 9d dc 6a 3e 78 91 88 bd fd 58 9a 3e
       0.2293572 -0.06668371 0.30146018

weight f4 [3, 3, 3, 3]
000000 af e1 da 38 1b 98 21 bc c0 b5 1e 3c 55 23 0f bd
       0.00010437087 -0.009862925 0.009686887 -0.034945805
000010 f2 f5 66 3f 5b a1 33 bd b5 2c d0 bc 4f 73 65 bc
       0.9021903 -0.043855052 -0.025411943 -0.0140045425
000020 53 54 8a bc b7 aa 24 3b 0c 31 0f bc d7 2c af 3a
       -0.016885912 0.0025126168 -0.008739721 0.0013364804
000030 a5 39 8c bb be af 3b bd 4e 55 0c 3c e9 3d de bb
       -0.0042793327 -0.045821898 0.00856526 -0.0067822826
000040 af f3 c4 bb 06 c0 0e bb 94 80 43 3c 15 e3 81 ba
       -0.0060104947 -0.0021781935 0.011932511 -0.0009909595
000050 c2 d7 8b bc 45 b3 96 3c 2a 83 7a bc ed f5 cf 3b
       -0.017070655 0.01839603 -0.015290061 0.0063464553
000060 ac e5 58 3b dc a1 8a 39 63 57 ae bc e6 da f5 bc
       0.003309588 0.00026442006 -0.021281904 -0.030011605
000070 75 21 2f 3d 85 12 ba 3c d4 57 31 bd a9 c5 a1 bb
       0.042756516 0.022713909 -0.04329665 -0.004936893
000080 d1 5f a9 3b 6a 4b 14 bb 10 af 7d 3d f8 9b ac bc
       0.005168893 -0.0022627958 0.06193453 -0.021070465
000090 35 1a 12 bc 85 dc 09 bb b6 55 af 3c 2e f6 a9 bc
       -0.008917381 -0.002103598 0.021403175 -0.02074727
0000a0 1f 43 71 3f 6c e4 64 3c d1 87 5f bd f9 0b 4e bc
       0.94243044 0.013970476 -0.054572884 -0.012576097
0000b0 f3 92 da 3b a3 29 18 3d 6b 25 1e bd 63 9f b2 bc
       0.0066703497 0.037149083 -0.038609903 -0.021804517
0000c0 e6 2f 31 3d b6 e5 07 bd f0 63 db bb da 28 80 bc
       0.04325857 -0.033178054 -0.006695263 -0.01564448
0000d0 8e d9 ba bc 32 6d ce bc 52 68 8a bc f5 66 a5 bc
       -0.022808816 -0.025198553 -0.016895447 -0.020190695
0000e0 59 d8 8f 3c e6 c1 70 bc dc 83 76 bc 02 14 57 ba
       0.017559217 -0.0146946665 -0.015046086 -0.00082045805
0000f0 fa cc 3b 3d bb 3e 85 3b 05 02 11 bb 4b eb 51 3a
       0.045849778 0.004066316 -0.0022126448 0.00080077787
000100 4e 89 c4 bc 90 60 b0 3c bb 77 b4 bc 4e 40 30 bd
       -0.023991253 0.02153042 -0.022029748 -0.043030076
000110 cd 69 08 bc d1 8a 55 3c 90 a7 42 bc d4 56 ad 3b
       -0.008326006 0.013033585 -0.01188077 0.0052898917
000120 51 5e c7 3c a2 ae a6 bc 36 f6 19 3c 92 b3 ad bc
       0.024336966 -0.020346943 0.00939708 -0.02120379
000130 55 a9 77 3f 4f 77 64 bc 61 6a 81 ba a1 64 06 bc
       0.96742755 -0.013944461 -0.0009873622 -0.008202703
000140 f6 f9 06 bc
       -0.008238306

bias f4 [3]
000000 51 29 78 3e 3c a4 2f 3d 4e de 98 3e
       0.24234511 0.042881235 0.29857105

weight f4 [3, 3, 3, 3]
000000 30 be a3 3c ae a4 06 3d 73 bc 03 3d f3 43 ec ba
       0.01998815 0.032871895 0.03216214 -0.0018025622
000010 72 97 72 3f f2 aa 0a bc ab c3 06 bb e5 16 b1 3c
       0.9476234 -0.008463608 -0.0020563405 0.021617362
000020 26 5e ca 3b 67 c4 ae bc b7 ef 22 3b d2 1d d5 bc
       0.006175774 -0.021333886 0.002486212 -0.026015196
000030 2a 0c 96 bc 33 a2 eb bc 9d a4 39 bc dd 3c 18 bd
       -0.018316347 -0.028763866 -0.011330751 -0.03716742
000040 0e 09 25 bc 8b b2 37 bd 29 06 e4 3c e9 12 31 3d
       -0.01007296 -0.044848006 0.027834969 0.043230925
000050 65 c0 30 3b f1 e4 48 3d 1d 19 19 3d 8f 12 40 3d
       0.0026970145 0.04904646 0.037377466 0.0468927
000060 1a ec b1 3c 4a 42 45 3d 6f f5 d8 ba 3a 09 52 3a
       0.021719027 0.04815892 -0.0016552637 0.0008012239
000070 78 cb 62 3d 5a cc 22 3d 94 3a 9e bc 0e 20 13 3b
       0.055369824 0.039745666 -0.019315042 0.0022449526
000080 b5 5d 05 3d 87 cb 8a 3c 48 ad a9 3d fe cd 68 3c
       0.03256007 0.016942753 0.08285004 0.014209269
000090 ad 67 1a 3d af 7b 52 3c f1 d1 6a 3d a5 de 98 3c
       0.03769653 0.012846871 0.057329122 0.018660853
0000a0 c8 d9 71 3f c0 ed 81 3d c7 2e c5 bc 97 0b 83 bb
       0.9447293 0.06344175 -0.024070157 -0.0039991844
0000b0 91 73 54 3d a3 6d 92 3d c3 5e 72 bc cb ab 70 bb
       0.051868025 0.07149818 -0.014793101 -0.003672349
0000c0 bb de af 3d f9 6c 91 bc 8c a5 05 3d 0b 7d 9a 3c
       0.08587404 -0.017752158 0.03262858 0.018858453
0000d0 2a 55 bb 3b d0 fc 4e 3a cd be 70 bc 1c f7 20 3b
       0.0057169395 0.00078959484 -0.014693928 0.0024561351
0000e0 8d b4 9c 3c e1 fc 3d 3c b5 ba 1f 3c 36 e8 e5 3b
       0.019129062 0.011595936 0.009749104 0.007016207
0000f0 86 77 5b 3d 6e 27 95 3c 46 3d e9 bb f4 02 f2 bc
       0.053580783 0.018207278 -0.0071179 -0.029542424
000100 da 4c 88 bc 4c 94 2b 3c 7f eb 1f bb d5 22 2a bd
       -0.016638208 0.010472368 -0.0024401841 -0.041537125
000110 cb e2 c9 bc 7c ef 8e 3c 37 33 b3 bc 43 71 b4 bc
       -0.024644276 0.01744818 -0.021875007 -0.022026664
000120 ad 3d c0 3c a1 ac 4e ba 3f 96 00 3d 49 64 b3 bb
       0.02346691 -0.0007884 0.031393286 -0.0054746014
000130 90 60 7d 3f 09 15 99 3b 9e fc be 3c 8b c5 80 3c
       0.9897547 0.004671697 0.023313817 0.015719196
000140 d7 c7 b4 ba
       -0.0013792467

bias f4 [3]
000000 8d 0c 6f 3e ba 53 15 3e b8 4a 81 3e
       0.23344631 0.1458272 0.25252318

weight f4 [3, 3, 3, 3]
000000 93 0e 35 3d 4c c2 03 3d 69 6f ee 3c 81 55 31 3c
       0.044203352 0.032167718 0.029105859 0.010823608
000010 73 8f 7b 3f 7b fb cc 3a 8c e2 0d 3d fa 34 11 3d
       0.9826576 0.0015638912 0.03463988 0.035450913
000020 7e 13 33 3d f6 31 88 bd 3b db 5f bd fc a5 b9 bd
       0.04371976 -0.06650154 -0.054652434 -0.09064862
000030 e8 e3 d7 bc f4 e1 c8 3c 0c a8 71 bc 78 fc 27 bd
       -0.026353791 0.024521805 -0.014749538 -0.041012257
000040 7a 43 7f 3c 7d 45 2b 3c 2a c4 eb bc d7 d7 ac bc
       0.0155800525 0.010453579 -0.028780062 -0.021099014
000050 a2 37 79 bc ca c7 c7 3c 3a f0 23 3d 77 55 3c 3c
       -0.015211018 0.024387259 0.04002402 0.011494986
000060 34 ec ff 3c 6a 9d 45 bc a2 0b 83 3c c4 e3 c3 bc
       0.03124056 -0.012061456 0.015996758 -0.023912318
000070 63 f6 a6 3a 82 09 e6 bc 6b a1 8a bd 7b 3e 75 bd
       0.0012738224 -0.028080706 -0.06769069 -0.05987404
000080 6f 3f 6f bd e7 66 22 bc af 10 7d bb 8c 7d 91 bd
       -0.058410104 -0.009912229 -0.003861468 -0.07104024
000090 fc 2f f4 3c be a9 92 bc 32 08 8b bd b8 37 bd bc
       0.029808037 -0.017903205 -0.067886725 -0.023097858
0000a0 f2 5e 75 3f 81 8e a0 3c d1 cb 8e bd 71 d3 26 bb
       0.95848 0.019599201 -0.06972469 -0.0025455619
0000b0 63 58 bb 3d 5f 9a 0a bc c6 57 23 3b d2 20 dc 3b
       0.09147718 -0.0084596565 0.0024924143 0.0067177797
0000c0 bd af 15 3c e7 87 2a 3d e4 20 89 3c fc 63 4d 3c
       0.009136138 0.041633513 0.016739316 0.012536045
0000d0 75 8d 82 3c 7a 8c 6e bc e1 ec 06 bd 2d 41 5a 3c
       0.015936593 -0.014559859 -0.03294075 0.013321203
0000e0 8b a2 0c bd 2a 0c 99 3b 1e 43 b0 3c 5e f9 9a bc
       -0.0343347 0.0046706395 0.021516379 -0.018917736
0000f0 73 93 bb bc ff 34 9a 3c d6 56 3e bc 8a 9f ab bc
       -0.022897458 0.018824099 -0.011617383 -0.020950098
000100 be 3b 2b 3c cb a6 37 3c 85 14 60 3c a9 91 aa bc
       0.010451255 0.0112092 0.013676767 -0.02082141
000110 24 c4 48 3b 5f e2 ee ba bc 10 73 bc f1 a0 3d 3b
       0.0030634487 -0.0018225423 -0.014835533 0.002893504
000120 63 27 89 bb 10 9d 89 3c db e4 c4 3c 2d 6a 20 bc
       -0.0041856035 0.016798526 0.024034908 -0.009790939
000130 28 66 81 3f 09 9d 29 bc 54 d3 f1 3b dd 54 d8 3b
       1.0109301 -0.0103523815 0.0073799286 0.0066019134
000140 f8 81 4d bc
       -0.012543194

bias f4 [3]
000000 56 e0 fe 3b 92 a7 de 3c 44 5f 50 3d
       0.007778208 0.027179513 0.050872102

weight f4 [3, 3, 3, 3]
000000 74 41 4b 3d dc d6 09 3d cd 8f e4 3c 20 3d 26 3c
       0.049622968 0.03365217 0.0279006 0.010146409
000010 0c 2a 7c 3f 22 15 5a 3b 63 31 1b 3d 90 58 23 3d
       0.9850166 0.0033276756 0.037888896 0.03987938
000020 bf 17 35 3d 52 b6 da bc a1 89 c6 bc 41 bf a2 bd
       0.0442121 -0.026698265 -0.024235548 -0.07946635
000030 09 ae a2 bc fe 0e ea 3c 8d 28 c1 bc 23 a0 3c bd
       -0.019858377 0.028571602 -0.023578906 -0.046051156
000040 d3 08 b1 bc a9 05 31 bc 79 6a 24 bd 22 0f 82 bc
       -0.021610653 -0.010804572 -0.040140603 -0.015876357
000050 4c 03 3d bc f8 23 9c 3b 34 33 3b 3d bc af 2b bb
       -0.011536431 0.00476503 0.045703128 -0.0026197275
000060 aa 64 16 3c 35 9f f7 bc 41 9f 5d bc 20 e5 12 3d
       0.009179274 -0.030227283 -0.013526739 0.035863042
000070 ed d4 af 3c e3 7d ba 3c 87 ec d6 bc 83 85 4d bd
       0.021463836 0.022765106 -0.026235832 -0.050176155
000080 d8 50 d6 bc db e2 bd 3c ee 6a 15 3b 12 f6 f4 bc
       -0.026161596 0.023179462 0.002279933 -0.029902492
000090 f2 27 25 3c 38 04 7a bc ab 5a 73 bd 84 e3 23 bd
       0.0100803245 -0.015259795 -0.05941264 -0.040011898
0000a0 96 d1 76 3f 36 8e a3 3b db d2 95 bd c2 c7 af b9
       0.9641355 0.004991318 -0.07315608 -0.00033527432
0000b0 23 76 ad 3d 11 fa ba bc 25 16 00 bc b5 94 72 ba
       0.084697984 -0.02282432 -0.00781778 -0.00092537265
0000c0 74 aa a3 3c d4 7c 47 3d 85 0e a7 3b dc 7b 25 3d
       0.01997874 0.04870303 0.0050981664 0.040401325
0000d0 e2 2b aa 3c 71 de 9f bb 51 07 53 bc 23 02 a7 3c
       0.020772878 -0.004878812 -0.012880162 0.020386761
0000e0 3e a2 87 bc 48 66 5d 3c 8d 08 dc 3c 83 7a 03 3c
       -0.016556855 0.013513155 0.026859546 0.008024815
0000f0 53 a3 8f bc 35 9f cf 3c 73 38 4d 3b 91 47 fb bb
       -0.017533934 0.02534447 0.0031314164 -0.0076684435
000100 73 4e 2f 3c 89 92 9b 3c f2 b2 91 3c e3 87 9b bc
       0.010699856 0.018990772 0.017785523 -0.018985694
000110 d2 d4 2a 3c 54 c2 6f 3c 7c fe 5d bc 26 4a 70 3b
       0.010426717 0.014633734 -0.013549443 0.003666529
000120 ac 48 38 bc 33 e1 79 3c f2 c3 9b 3c 12 23 f6 bb
       -0.011247795 0.015251446 0.019014332 -0.007511505
000130 0b 61 81 3f ca 5a f7 bb 35 df cb 3b ac 41 e1 3b
       1.010774 -0.0075486647 0.0062216767 0.006874284
000140 b9 30 2c bc
       -0.010509663

bias f4 [3]
000000 a4 28 82 3c bd f0 d0 3b 59 e3 64 3d
       0.01588852 0.0063763545 0.055880878

weight f4 [3, 3, 3, 3]
000000 49 59 0a 3d 06 9f d0 3c ee 52 d0 3c c2 b5 6e bb
       0.033776555 0.025466453 0.025430169 -0.0036424254
000010 79 3a 7c 3f aa cb 1f 39 62 35 18 3d 8a af 34 3d
       0.9852672 0.00015239292 0.037160285 0.04411272
000020 1e 23 34 3d 16 24 eb 3c f9 58 4f 3c 8a f1 d0 bc
       0.043978803 0.02870373 0.01265549 -0.0255058
000030 a9 7d e2 bb 75 89 f0 3c 03 07 71 bc c2 e4 bd bc
       -0.0069119525 0.02936242 -0.014711144 -0.02318037
000040 ef 53 27 bd 58 dc e7 bb 30 2a 49 bd b1 05 b8 3b
       -0.04085153 -0.0070758276 -0.0491125 0.005615913
000050 b4 b7 86 3c cc 9c ba bc 87 a3 68 3d 8a 06 1a bc
       0.016445018 -0.022779845 0.056796577 -0.009400973
000060 0a b3 86 bc cd 56 2e bd 16 21 23 bd ec 64 90 3d
       -0.016442794 -0.04256325 -0.039826475 0.07050499
000070 32 da 05 3d 2d d4 3a 3d 2b 26 bc bb 92 10 29 bd
       0.03267879 0.045612503 -0.0057418547 -0.04127557
000080 57 26 98 bc bf 31 28 3d f7 9d d7 3b f8 25 86 bc
       -0.01857297 0.041063067 0.00658011 -0.016375527
000090 15 5a 19 3d 00 00 46 3a fe 0b c6 bc 29 fa cb bc
       0.037439425 0.00075531006 -0.02417564 -0.02489956
0000a0 cd 1d 78 3f 8d 13 c8 3b 89 aa 4c bd 9e 42 18 bb
       0.9692047 0.0061058463 -0.049967322 -0.0023233066
0000b0 29 ba 9f 3d f2 ea 0b bd e7 f9 5c bc 70 30 08 bb
       0.07799179 -0.03415961 -0.013487316 -0.0020780824
0000c0 94 12 97 3c 44 d9 52 3d ea a8 f1 bb 95 6a 54 3d
       0.018441476 0.051476732 -0.0073748725 0.051859457
0000d0 e3 32 8d 3c 21 3d c4 bb 79 98 43 3b 51 8c d7 3c
       0.017236179 -0.0059887324 0.002984552 0.026312025
0000e0 96 db 98 bb 40 dc c1 3c 0d 0b 04 3d aa e6 ed 3c
       -0.0046648486 0.023664594 0.0322371 0.029040653
0000f0 f0 48 35 bc 6f b5 02 3d 0e 30 8a 3c 20 e1 e7 3b
       -0.011064753 0.03191131 0.016868617 0.0070763975
000100 74 9a e2 3b 82 ce 3c 3c 8d c0 91 3c f3 4c 69 bc
       0.006915385 0.011523845 0.01779201 -0.0142395375
000110 23 01 62 3c 51 04 a9 3c 4a ed 98 bb e6 a3 8e 3b
       0.013794216 0.020631941 -0.004666959 0.0043530343
000120 b6 28 83 bc 54 1d 43 3c fb de 1b 3c 6d 65 6f bb
       -0.016010623 0.011908848 0.009513612 -0.003652896
000130 92 16 81 3f 22 37 51 bb 33 a6 2d 3b c2 f1 f7 3b
       1.0085013 -0.003192373 0.0026496768 0.0075666616
000140 c3 1a ad bb
       -0.0052827313

bias f4 [3]
000000 99 52 e8 3c 82 53 16 3c c6 73 6f 3d
       0.028359698 0.009175183 0.05846002

weight f4 [3, 3, 3, 3]
000000 b9 47 22 3c cd 71 97 3c cd 1b 90 3b c1 db 15 bc
       0.009904795 0.018486882 0.0043978454 -0.009146632
000010 86 89 7d 3f 30 56 ba bb c8 87 d0 3c 17 df 5f 3d
       0.9903797 -0.005686544 0.02545537 0.054656114
000020 cc d8 e0 3c 76 5e 7a 3d 93 01 b1 bb 04 ef 40 bd
       0.027447127 0.06112524 -0.005401799 -0.047102943
000030 03 c6 07 3d bd 6a 95 bc 21 d5 94 bb d3 21 56 3c
       0.033147823 -0.018239373 -0.0045420085 0.013069588
000040 c4 12 af bb e9 40 d4 3c fe 6a 1f bd fd 10 c4 bc
       -0.005342813 0.025909858 -0.038920395 -0.023933882
000050 9b 65 1f bc 94 67 98 3a 79 8d cd 3b 2a c4 8c b9
       -0.0097288145 0.0011627548 0.0062729684 -0.00026849034
000060 5e 2a 05 3b 34 8a 52 bc a2 e1 eb b8 72 cb 58 3d
       0.0020319442 -0.012850333 -0.000112477006 0.052928396
000070 56 fd 0d 3d 0a c5 08 3d 2f 12 8f ba 08 67 10 bc
       0.034665428 0.033391036 -0.0010915453 -0.008813627
000080 b4 01 64 bc 28 9f 3f 3d 0d 44 b8 3c 9a d9 26 3b
       -0.013916422 0.046782643 0.022493387 0.002545929
000090 48 6d 8c 3d 11 27 95 3c 62 19 0f bc cd 8a 5a bc
       0.06856781 0.018207105 -0.008734079 -0.013338757
0000a0 e5 93 79 3f e7 cd f8 3b 32 ff e0 bc c2 80 9f bb
       0.97491294 0.007592905 -0.027465437 -0.004867644
0000b0 49 80 bc 3d 7b 38 53 bd 88 0f 3a bc fd 71 2a bc
       0.09204156 -0.051567536 -0.011356242 -0.0104031535
0000c0 db 4b a9 3b 97 06 79 3d c4 e2 af bc d7 17 53 3d
       0.0051665134 0.0607973 -0.021470435 0.051536407
0000d0 95 d1 d5 3b e5 d5 88 bb 72 fc 52 b9 43 58 92 3c
       0.0065252283 -0.004175889 -0.00020121204 0.017864352
0000e0 4c ba 73 bc 13 ec 8e 3c ed d3 8f 3c ce d9 60 3c
       -0.01487596 0.017446553 0.017557109 0.013723804
0000f0 9b 5d bc bc 36 a7 96 3b ea 74 b9 bb 60 e8 a1 3c
       -0.022993853 0.00459757 -0.005659689 0.019764125
000100 8b 13 9e 3b 1a 9a 20 bb 31 97 b9 3c 7e 99 e2 ba
       0.004824107 -0.0024505914 0.022655101 -0.0017288176
000110 45 2a 6e 3c cf 43 58 3c 01 99 ca 3b 60 ee 9e 3b
       0.014536445 0.013199761 0.0061827903 0.004850194
000120 6a be b5 bc 59 e7 13 3c 1c c3 c1 ba 46 9d 78 3b
       -0.022185523 0.009027326 -0.0014782879 0.003793554
000130 6b 1b 81 3f c7 a9 a2 3a 99 9a f8 ba 07 ff e4 3b
       1.0086492 0.0012410217 -0.0018966972 0.0069884094
000140 be cf 78 3a
       0.0009491405

bias f4 [3]
000000 ca ac 56 3d 27 3d c3 3c f8 a2 5d 3d
       0.05241088 0.02383287 0.054110497

weight f4 [3, 3, 3, 3]
000000 f9 7f 8d bc 1c 8a e2 3b 45 23 2e 3b 00 1c fc bc
       -0.017272936 0.0069134366 0.0026571315 -0.03077507
000010 57 8e 7d 3f e1 7f 14 bc 6c e8 af 3c c5 17 78 3d
       0.9904532 -0.009063692 0.021473132 0.060569543
000020 fb d8 01 3d ff a9 87 3d 1c a3 71 3c 79 8a 2f 3b
       0.03170107 0.06624221 0.014748361 0.0026785417
000030 b3 56 a0 3c 97 cd a5 bc a9 9a c7 ba a5 37 a3 3c
       0.019572591 -0.020239634 -0.0015228587 0.019923994
000040 12 38 8b 37 7f 30 eb 3c 48 5a 11 bd 5d 54 f7 3a
       1.6596201e-05 0.028709648 -0.03548649 0.0018869747
000050 7e e2 9e 3c df 26 38 bc f8 c2 9f 3c 09 3d 19 3b
       0.01939511 -0.011239736 0.019502148 0.0023382327
000060 68 32 87 bc eb a9 af bc e9 33 72 bc 6d 19 39 3d
       -0.016503528 -0.021443328 -0.014782884 0.045190264
000070 9e 11 20 3d 94 be 12 3d b8 01 56 bc 0b 1c be 3b
       0.0390793 0.03582628 -0.013061933 0.005801683
000080 ed ec 9d bc 42 48 5a 3d 80 51 f3 3c 04 04 ce 3b
       -0.019278014 0.053291567 0.029701948 0.0062871
000090 f3 ed c2 3d bc f3 df 3c b0 d3 ca 3c 46 8a 07 bc
       0.095180415 0.027337901 0.024759144 -0.008272713
0000a0 1f d3 7a 3f 5e a6 55 3c 9d 97 c3 ba 5f df 15 bb
       0.97978395 0.013040153 -0.0014922504 -0.0022868735
0000b0 ea a4 a5 3d 24 cf 65 bd fd 92 69 3b 72 1f 0f 3b
       0.080880955 -0.056105748 0.003564059 0.0021838811
0000c0 38 b6 4d bc 29 42 9a 3d ba 81 01 bd 40 1b 2d 3d
       -0.012555651 0.0753215 -0.031617858 0.042262316
0000d0 87 7d 48 ba 60 a5 8a bc ec 74 f5 3b 13 14 cb 3c
       -0.00076480996 -0.01692456 0.007490745 0.024789846
0000e0 ef 89 3d bc 2c ab 9a 3c 39 a6 8b 3c 8f 3c c2 3c
       -0.01156853 0.01888045 0.017047035 0.023710517
0000f0 ed a1 fb bc 00 eb 50 3b 1d 8c df 3b 06 e0 bb 3c
       -0.03071686 0.0031878352 0.0068221227 0.022933971
000100 9b 9e 10 3c b6 49 98 bc bd dd 41 3c d7 70 cd 3b
       0.008826877 -0.018589836 0.011832652 0.006269555
000110 69 55 10 3c 71 eb 11 bc f2 dc 36 3c bc ca a0 3b
       0.008809426 -0.008906231 0.011161076 0.0049069803
000120 bc b2 b2 bc 10 2a 05 3c 29 21 5c bc 86 64 4c 3c
       -0.021813743 0.008127704 -0.01343564 0.0124751385
000130 0a ce 80 3f fe b5 b8 3b e4 53 cf bb 91 03 ce 3b
       1.0062878 0.0056369295 -0.006327139 0.0062870462
000140 c2 92 03 3c
       0.008030595

bias f4 [3]
000000 51 7e 70 3d e5 52 15 3d 37 a1 66 3d
       0.058714215 0.036456008 0.05630609

weight f4 [3, 3, 3, 3]
000000 07 a9 1e bd 85 8f 84 ba 72 fc 17 3c 44 6a 3a bd
       -0.038735416 -0.0010113573 0.009276496 -0.0455115
000010 02 26 7d 3f 89 4f 12 bc c7 58 83 3c b5 e3 6f 3d
       0.9888612 -0.0089300955 0.016033543 0.058566768
000020 5a 16 0d 3d 30 77 71 3d 14 55 04 3d 63 3d 37 3d
       0.034445144 0.058951557 0.0323077 0.044736277
000030 fc 2c 12 3b 19 e3 a0 bc aa a9 72 3a 12 4e 9e 3c
       0.0022304645 -0.019639539 0.00092568493 0.019324336
000040 34 1f b6 3b 9c 84 e3 3c 35 c3 d9 bc 67 aa e6 3c
       0.005557919 0.027773194 -0.02658234 0.028157426
000050 45 87 42 3d 87 e0 8d bc 87 aa fb 3c 18 f3 07 3c
       0.047492284 -0.017318977 0.030720962 0.008297704
000060 9d 3a e8 bc 07 9e d8 bc dd 10 b6 bc fc c5 ac 3c
       -0.028348261 -0.02644254 -0.022224838 0.0210905
000070 76 e9 31 3d 60 eb e2 3c 66 ef f6 bc d6 34 fb 3c
       0.043435536 0.027700126 -0.030143451 0.030664843
000080 56 b5 ef bc 8d 76 77 3d b5 84 33 3d 59 0d 04 3c
       -0.029261272 0.060415793 0.04382773 0.008059823
000090 22 11 d3 3d ea b9 ef 3c 02 05 35 3d c7 f1 38 bc
       0.10306002 0.029263455 0.04419423 -0.011288113
0000a0 1a 19 7d 3f 90 42 4a 3c 05 dc 9a 3c f7 0e d1 3b
       0.98866427 0.012344971 0.018903742 0.006379958
0000b0 15 73 8f 3d 3d 7b 55 bd c3 e6 d0 3c b1 99 42 3c
       0.07004372 -0.052119482 0.02550066 0.011877463
0000c0 58 4d 0a bd 20 7e b4 3d d3 6d 34 bd d8 0c cc 3c
       -0.033765167 0.08813119 -0.04405005 0.024908468
0000d0 03 45 77 bb 28 93 f7 bc 9f 6a 3b 3c 28 76 cc 3c
       -0.0037730343 -0.030221537 0.011438995 0.024958685
0000e0 17 5b 84 bc 51 8a b1 3c a6 88 48 3c ba c6 e0 3c
       -0.016156716 0.0216724 0.012239611 0.02743851
0000f0 a7 50 11 bd 9c 13 28 3b e9 82 ab 3c 7c 86 95 3c
       -0.035477307 0.0025646454 0.020936446 0.018252604
000100 17 7a 66 3c 27 6e 07 bd e0 80 a5 ba 21 59 1c 3c
       0.014067194 -0.033064034 -0.0012626909 0.009542734
000110 4b f1 13 3b 00 66 02 bd 61 f3 3e 3c 18 72 55 3c
       0.0022574242 -0.031835556 0.011654706 0.01302769
000120 f2 5c 8d bc e1 28 d3 3b 69 90 e2 bc 08 69 a9 3c
       -0.017256234 0.006444082 -0.02765675 0.020679966
000130 f8 2b 80 3f 96 1a 08 3c 8c 7f 2d bc bd 90 bc 3b
       1.0013418 0.00830712 -0.010589492 0.005754559
000140 e0 41 74 3c
       0.014908284

bias f4 [3]
000000 01 50 70 3d f4 9f 3a 3d 68 e4 75 3d
       0.058670048 0.0455627 0.06003228
