data/video_perturbations/drinking_beer/2018-07-22 22:01:41.900350/pert_model.pt (torch_old, 37575 bytes, 54 tensors)

weight f4 [3, 3, 3, 3, 3]
000000 43 4e bc bc 97 28 e2 be bd f0 22 bd 5d 2f 3c 3d
       -0.022986537 -0.44171593 -0.039780367 0.045943607
000010 9a 5c 80 bd 6f 8b 8d 3d a2 ab f1 bd fb 16 74 bd
       -0.06267662 0.069113605 -0.118003145 -0.05959223
000020 ed ba 89 3d 62 27 1e bc f9 25 f7 be e5 f8 91 3d
       0.067251064 -0.009652944 -0.48271158 0.07127551
000030 a3 ac bb 3d c3 c6 cc 3f bc 4a 62 3e 22 83 c7 bc
       0.09163787 1.5998157 0.22098821 -0.024354521
000040 09 02 14 3e 49 eb 7b 3e 37 63 00 be 03 a7 46 be
       0.14453901 0.24601473 -0.12537847 -0.19399647
000050 d6 0b 71 bd 01 78 9e 3d e3 fa 5f 3d 90 50 f7 3d
       -0.05884918 0.07737733 0.054682624 0.12075913
000060 b0 65 9d bd 50 b4 b0 3a 27 9c 1e 3e a3 aa 69 bd
       -0.07685411 0.0013481472 0.15489255 -0.057047497
000070 eb 83 23 3c aa 69 90 bd 96 5c 5f bd e1 a9 25 bd
       0.009980182 -0.07051404 -0.054531656 -0.040445212
000080 97 29 d9 3d 52 be 30 be d7 86 c9 be 7d 83 3d be
       0.10603636 -0.17260101 -0.39360687 -0.1850719
000090 7c 60 4a 3b 4c 15 aa 3e 5d ed 55 3e 78 52 bd 3d
       0.0030880263 0.33219373 0.20891328 0.09244245
0000a0 98 7d 93 3e bf f7 2a 3f b2 52 3f 3e 66 67 31 3e
       0.28806758 0.6678428 0.1868389 0.173246
0000b0 ad 0d 8e 3e db 6a 98 bd 6e 8a a5 bd 6a 3d 9d bc
       0.2774481 -0.07442256 -0.08083044 -0.019194324
0000c0 d6 01 11 3e de fa 93 3e 6f 3e 2b 3f 2d b5 f1 bc
       0.14160857 0.28902334 0.6689214 -0.029505337
0000d0 e4 ac ce 3b 61 a9 2a 3f 96 ed 5b 3d 38 3b a0 3d
       0.0063072313 0.666647 0.053693376 0.07823795
0000e0 af f5 c5 3c 40 48 9e 3d 93 a2 1a bd 04 e5 56 3d
       0.024165003 0.07728624 -0.0377527 0.0524645
0000f0 c5 62 b7 3c 4b 2e a8 be 8f 99 ff bd d7 ae 35 bd
       0.022385964 -0.3284782 -0.12480461 -0.044356193
000100 b4 f0 94 3c cc 22 18 3d d5 18 bb bc 3e 00 03 b5
       0.018181182 0.03714256 -0.02283899 -4.8801655e-07
000110 c8 d3 46 3e f7 b4 7d 3d 08 45 c4 bd c2 c3 83 bc
       0.19416726 0.06194016 -0.09583479 -0.016084556
000120 dd 96 f9 bc c2 2f d9 bc e1 85 47 bd 36 2a ba 3d
       -0.030467445 -0.02651203 -0.04871166 0.09090082
000130 41 3e 33 ba 63 a2 64 3e 50 a7 02 3d 41 ee 4f be
       -0.00068375847 0.2232757 0.031897843 -0.2030573
000140 eb 00 44 bc e1 30 6a be 90 f6 22 3e 3e fd 9b 3e
       -0.0119631095 -0.22870208 0.15914369 0.30466646
000150 83 46 0f 3d 6a 1d 71 3e 8c 1d 00 bd 8b fb 03 3e
       0.034979355 0.23546377 -0.031278178 0.12888925
000160 d2 32 04 be b2 11 07 be 71 43 e5 3c 09 d3 13 3f
       -0.12910011 -0.13190344 0.02798626 0.5774389
000170 6b e1 63 3e 39 10 2e 3e f7 9a 34 3f 85 9d 3b be
       0.22253959 0.16998376 0.7054896 -0.18321808
000180 75 24 2e 3e 8b c0 9f 3d 79 74 b0 be 3c 15 07 bd
       0.17006095 0.078003965 -0.34463862 -0.032979235
000190 84 e6 c8 3e 93 a6 d6 3e 8f 83 f0 3d 35 02 04 3f
       0.3923837 0.4192396 0.11743843 0.5156587
0001a0 74 63 4d bd f1 96 2d 3c 5a c7 9f bd 2c 21 86 be
       -0.050143674 0.010595069 -0.07801695 -0.26197183
0001b0 4f e3 8b be 9e ab c2 bd 16 a0 5f 3d 14 eb 31 be
       -0.2732186 -0.0950539 0.05459603 -0.17374831
0001c0 f6 26 af bc 57 8f 82 bd e8 95 00 3d 52 53 81 be
       -0.021380883 -0.06374996 0.03139296 -0.2525888
0001d0 db 76 8a 3e ad 1e 1a 3e ca 37 04 3f 00 31 0e 3e
       0.27043805 0.15050764 0.5164763 0.1388588
0001e0 a5 e2 22 3e ec 0f d6 3f 42 a6 07 bd c5 17 81 3e
       0.1590677 1.6723609 -0.03311754 0.25213447
0001f0 e0 e5 56 3e 3a 05 b7 3e 7e 06 49 3e b9 f2 b7 3e
       0.20986128 0.35746175 0.19631383 0.3592737
000200 9e e7 93 3e 09 a1 3b 3e 7c 5c 03 3f 2c 32 83 3d
       0.28887647 0.18323149 0.51312995 0.06406054
000210 c8 c4 ab 3d b1 af 23 3d a7 9c 86 3e 41 5e 80 be
       0.083871424 0.039962474 0.2629139 -0.2507191
000220 fb b0 aa bd 97 64 81 bd b4 d0 a4 bd e9 9b 91 3d
       -0.083345376 -0.06318014 -0.080476195 0.071098156
000230 eb 65 cc 3c 49 00 48 3e 8a 4a 2e 3a be da 8f 3e
       0.024950942 0.19531359 0.00066486804 0.28096575
000240 a8 7f 80 be 1c ef 5f 3d de 5f 7b be 53 ea c7 bd
       -0.25097394 0.05467139 -0.24548289 -0.09761491
000250 b5 18 ba 3e 45 68 31 be ff 1b 2b 3e 3a 48 4d 3e
       0.36346975 -0.17324932 0.16709898 0.20047083
000260 da 5a 79 3d fd cf 2f be ed e6 c0 ba 38 7e 06 be
       0.06087766 -0.17169185 -0.0014717259 -0.13134086
000270 66 cb 1c 3d bf f7 80 3e ec 70 19 bd ec f9 a3 3d
       0.038279913 0.25189015 -0.037461206 0.08006653
000280 61 3c 28 3d 42 55 83 3d 32 c1 90 3d 3a 16 85 3d
       0.041073207 0.06412746 0.07068099 0.0649838
000290 cb ab 77 3d 48 b7 98 3d cf 56 98 3d d7 13 75 3d
       0.06046657 0.07456833 0.074384324 0.059833374
0002a0 3e 99 8d 3d 14 a2 8a 3d 2b 24 6d 3d aa 58 91 3d
       0.06913994 0.06769195 0.05789582 0.070969895
0002b0 a8 34 90 3d 1b 5b 87 3d 50 f0 98 3d 41 74 9f 3d
       0.070412934 0.06609174 0.07467711 0.077858455
0002c0 be 25 85 3d 04 17 8f 3d 3a c8 91 3d 26 91 7c 3d
       0.065013394 0.06986812 0.07118268 0.06166186
0002d0 d9 a5 90 3d 9a 4f 88 3d e1 7c 76 3d 41 cd 8b 3d
       0.07062883 0.06655808 0.060177688 0.068262585
0002e0 a8 73 94 3d 64 47 71 3d 55 31 82 3d fd ec 84 3d
       0.07248622 0.058905974 0.063570656 0.064905144
0002f0 d6 99 69 3d eb 31 11 3d 49 9f 61 3d 00 95 57 3d
       0.057031475 0.035447996 0.055083547 0.05263233
000300 74 2d 24 3d 23 b7 73 3d fb 65 4f 3d 42 c8 54 3d
       0.04008241 0.059500825 0.050634366 0.051948793
000310 d2 76 55 3d 03 3d 54 3d e7 f8 55 3d e3 6e 94 3d
       0.05211527 0.051815998 0.052239325 0.072477125
000320 e8 4a 83 3d b1 a2 70 3d 12 b4 9b 3d 09 1c 7f 3d
       0.064107716 0.058748905 0.07602705 0.062282596
000330 61 97 82 3d aa f7 8b 3d d0 50 7c 3d cc fb 37 3d
       0.063765295 0.068343475 0.061600506 0.044917867
000340 d2 6d 84 3d fb 8c 63 3d f3 52 38 3d e2 59 8d 3d
       0.06466259 0.05555437 0.04500098 0.069019094
000350 c4 42 67 3d 22 ae 5e 3d 0d fa 7b 3d 31 3e 70 3d
       0.056460157 0.054365285 0.061517764 0.05865306
000360 67 79 08 bd 38 6e 4f bd 8e 57 ea bd 2f 67 7b bd
       -0.033318903 -0.050642222 -0.11442481 -0.0613777
000370 45 ae a4 bd ce f5 a6 bc 5e 21 b6 3d 66 5f 66 be
       -0.08041052 -0.02038088 0.08893083 -0.22497329
000380 39 ca 40 bb 90 e0 8b bd 77 79 0f bd f3 22 55 3d
       -0.002941741 -0.06829941 -0.035027947 0.052035283
000390 55 74 f7 bd f4 f9 3f 3f 45 87 fc 3c f4 04 97 3d
       -0.120827354 0.74990773 0.03082622 0.073739916
0003a0 b2 04 00 3d 04 99 02 3d 9f 64 5f bd 6b 92 80 bd
       0.031254478 0.03188421 -0.05453932 -0.06277927
0003b0 ce c1 e8 3b db 48 44 be 76 c5 12 be 1c f8 11 3c
       0.0071031814 -0.19168417 -0.14333138 0.008909252
0003c0 96 e4 0e 3d 6d c3 90 bd a1 9f 9a 3c
       0.034885965 -0.070685245 0.018874945

bias f4 [3]
000000 bc be 7d 3d 72 3c 5c bd 8f 97 75 3d
       0.061949477 -0.053768583 0.05995899

weight f4 [3]
000000 3e 37 29 3f 63 75 26 3f 58 75 85 3f
       0.6609992 0.6502287 1.0426435

bias f4 [3]
000000 ef f9 37 3e 11 0f 04 3e 93 f6 6e 3e
       0.17966436 0.12896372 0.23336248

running_mean f4 [3]
000000 35 26 02 c0 d1 8c 8a c0 e8 32 b8 bf
       -2.033582 -4.3296895 -1.4390535

running_var f4 [3]
000000 24 ba 5a 40 61 05 4b 41 86 e4 00 40
       3.4176111 12.688813 2.013948

weight f4 [3, 3, 3, 3, 3]
000000 b8 87 8f 3d 38 c1 fd bc 11 34 d1 bd df 6a 3b bd
       0.07008308 -0.030975923 -0.10215009 -0.045756217
000010 96 6d 12 3e 81 5f 55 bd 49 34 ab 3d e8 92 45 bd
       0.14299616 -0.052093033 0.08359582 -0.048235804
000020 4c d2 56 be 3c 4a ef 3c a5 94 c8 3d dd 78 a8 be
       -0.2097866 0.029210202 0.09793977 -0.3290471
000030 0b 27 08 bb e5 6f f3 3f 5a dc b1 bd 73 05 46 3e
       -0.0020775225 1.9018523 -0.08684607 0.19338016
000040 b7 cc 80 3e a6 4a 42 be d0 ff 12 3b 14 7e da bd
       0.25156185 -0.18973789 0.0022430308 -0.10668579
000050 a9 03 54 be 8a 12 4d be c7 63 bb bd 49 ff 16 be
       -0.20704521 -0.20026603 -0.091498904 -0.14745821
000060 86 9f c6 bd 3a d1 42 be 3e ad 36 be 61 38 36 be
       -0.096983954 -0.19025126 -0.17839524 -0.17794944
000070 d3 4d 6d 3c 1c d7 ff bc 9c fb ce bc 06 b0 0e bd
       0.014483887 -0.031230502 -0.025266461 -0.034835838
000080 6e 10 28 3e 53 c7 07 3d d7 39 5c be 23 e7 ae 3e
       0.16412517 0.033149075 -0.21506439 0.34160718
000090 b1 c1 84 bd 1e 67 ce 3d 95 00 11 be c0 bb 5d 3d
       -0.06482256 0.10078262 -0.14160378 0.05413413
0000a0 dd d5 1b 3e a0 a4 1f 3e 82 24 41 3d 48 1a a9 3c
       0.15218301 0.15590143 0.047153957 0.020642415
0000b0 09 b4 dc 3e 90 ac 46 3d 0d 3b e4 bc ae 41 b9 bd
       0.43106106 0.048504412 -0.027860189 -0.090457305
0000c0 e5 7d 16 3e 67 03 8c 3d 57 b3 f6 3d 3c 28 64 be
       0.14696462 0.068365864 0.12045925 -0.22280973
0000d0 d3 bf ce be 5f 43 6e 3e a3 3d 59 3d 09 7d 36 3d
       -0.40380725 0.23267888 0.053037297 0.044552837
0000e0 b0 6f 85 bd f5 ea cc 3c fe 81 9b 3d c1 c7 31 bd
       -0.06515443 0.02501438 0.075931534 -0.04340339
0000f0 b0 d0 9c 3c 9e 2b eb 3c d7 55 86 3c 2b dd 70 3d
       0.019142479 0.028707322 0.016398354 0.058804672
000100 ab f2 f3 3d 7d 6c 65 bd 69 27 9f 3d 4b ee 31 3e
       0.119115196 -0.056011666 0.07771189 0.17376058
000110 f2 c7 be 3d f1 a2 36 3e 23 3d 46 3e 22 c6 22 3e
       0.0931548 0.17835595 0.1935926 0.15895894
000120 39 3f 56 3d 3d 4a 97 3c ec ee ba bd 9e 07 15 3d
       0.052306388 0.018468017 -0.09127602 0.036384217
000130 4d eb c0 3d 39 9a 42 bd 58 f3 a0 3d 93 43 83 3d
       0.0941988 -0.04751036 0.07858914 0.06409373
000140 da 04 49 3d 28 dc 32 3d e9 74 2c 3e 5e d5 9f 3e
       0.049076892 0.04366699 0.16841473 0.31217474
000150 62 85 08 3e be 17 17 3e a5 25 62 bd b2 06 09 bd
       0.13332132 0.1475515 -0.055211682 -0.03345365
000160 68 ac cb bd 27 2e 58 bd 59 a9 b7 bd 31 7c 5a 3d
       -0.09944993 -0.05277839 -0.089678474 0.053341094
000170 2f 99 f9 3d 1c 5c 1f 3d be 6b e8 3d c1 5b 1c bd
       0.121874206 0.0389062 0.11348675 -0.03817344
000180 9c 69 79 bc df 80 d5 bd 9c 44 c6 3d c2 eb c0 be
       -0.015222933 -0.10424971 0.09681055 -0.3767987
000190 09 bb 87 bd 16 76 7d 3d 3a 11 7b be 83 80 02 be
       -0.06627471 0.061880194 -0.2451829 -0.12744336
0001a0 bc f2 4f bd b3 1d 16 be 45 a2 23 be b3 fb 8b 3e
       -0.0507686 -0.14659767 -0.1597987 0.2734047
0001b0 8c 1e 30 bf ef a3 2d bf 88 86 2d bf 99 9f 19 3c
       -0.6879661 -0.6782827 -0.67783403 0.00937643
0001c0 72 9e ef 3c 6c 5d 4c be d2 ea 2f 3e a4 ed 9b 3d
       0.029250357 -0.19957513 0.1717942 0.07613686
0001d0 5f a4 3a be 34 1e e6 be 1e 66 b2 be 12 f9 0d bf
       -0.18226765 -0.44944918 -0.34843534 -0.55458176
0001e0 8e 6c 90 bd 78 a3 a0 3f ef c3 6d be 2f bf 4a 3c
       -0.07051955 1.2549887 -0.23219274 0.012374683
0001f0 82 d5 47 3e 87 24 65 be 7b 67 fc be 3d 49 5d be
       0.1951504 -0.22377215 -0.492977 -0.2160997
000200 61 90 54 be f9 25 8d be 56 05 2b bd ee 85 65 be
       -0.20758201 -0.27568033 -0.041753136 -0.22414371
000210 56 87 77 be b7 c1 64 be ac b9 e1 be 36 52 36 bc
       -0.2417272 -0.22339521 -0.4408697 -0.011127999
000220 9c af 0c bd a6 b9 9e 3d 71 b9 06 3e 2f 7b 4d 3e
       -0.03434716 0.077502534 0.13156678 0.20066522
000230 a0 7d a8 3d 61 93 e3 bd 3c 30 65 be 75 a1 ca bd
       0.08227086 -0.11112095 -0.22381681 -0.09894077
000240 1e 7d df 3d 3e 18 96 3c e1 61 07 3c 4c b9 8e 3e
       0.10912536 0.018322106 0.008263082 0.27875745
000250 4b 99 4b 3f d8 07 f7 3d 20 65 46 bd b9 f4 16 bd
       0.7953078 0.12062043 -0.048436284 -0.03685448
000260 7d ba 28 be ba 94 b8 bb d4 6d 93 3c 86 ee b3 3d
       -0.1647739 -0.005632964 0.017996706 0.08785729
000270 d9 c8 eb 3d 7a 9c 8c 3e 37 44 27 3e 64 da f2 bc
       0.11512918 0.27463132 0.16334616 -0.029645152
000280 bf 76 a2 bd a1 dc bb 3d 56 be 8e 3d a8 a2 8a 3d
       -0.07932805 0.09172941 0.069698974 0.067693055
000290 bd 48 7d 3d 95 a4 8f 3d d4 60 8b 3d 8f 12 77 3d
       0.061836947 0.070138134 0.06805578 0.060320433
0002a0 22 3f 6f 3d 55 13 6f 3d 60 9c 6c 3d 20 79 71 3d
       0.058409818 0.058368046 0.05776632 0.058953404
0002b0 7a b2 78 3d 34 b3 72 3d 40 82 81 3d 99 be 83 3d
       0.060717084 0.059252933 0.06323671 0.06432838
0002c0 a3 e8 7a 3d b4 c8 70 3d c0 90 72 3d ee 7b 78 3d
       0.061257016 0.058785155 0.059220076 0.060665064
0002d0 b9 e2 45 3d c4 30 61 3d e5 a2 65 3d 1e b2 49 3d
       0.048311923 0.054978147 0.05606355 0.04924213
0002e0 e8 19 6a 3d fa c4 71 3d 71 de 4d 3d d9 89 5a 3d
       0.057153612 0.059025742 0.050260965 0.053354118
0002f0 91 ca 80 3d 01 f4 af 3c e0 ef 36 3d 55 9c 1c 3d
       0.062886365 0.021478655 0.044662356 0.038235027
000300 28 f8 5b 3d 2f 19 84 3d 08 05 55 3d c8 4f 85 3d
       0.053703457 0.06450116 0.05200675 0.06509358
000310 86 1d 72 3d 96 ce 47 3d 93 4c 18 3d ad c7 73 3d
       0.059110187 0.048781 0.037182402 0.059516598
000320 54 cc 46 3d bb 8f 51 3d 2b 55 87 3d 88 33 60 3d
       0.048534706 0.051162463 0.066080414 0.054736644
000330 7f 4c 6b 3d 10 7c 6b 3d 74 3f 4b 3d 5a 64 13 bb
       0.057446 0.057491362 0.04962106 -0.0022490234
000340 90 b6 13 3d 70 61 1e 3d 4d 60 36 3c df f9 40 3d
       0.036062777 0.038667142 0.011131358 0.047113296
000350 ef af 34 3d 2d a6 22 3d bc 76 21 3d 43 1a 17 3d
       0.044113096 0.03970926 0.039419875 0.03689028
000360 51 e5 81 bd fc db 53 bd 28 1f 82 3d e3 01 49 bd
       -0.06342567 -0.051723465 0.06353599 -0.049074065
000370 f3 ae 0c bd 20 2d a6 3d 25 a2 39 3d 82 76 39 3d
       -0.034346532 0.08114076 0.04532065 0.045279033
000380 7d 2e 75 3d cf 19 14 be ea 1c 31 bd 86 58 8f 3d
       0.059858788 -0.1446297 -0.043240465 0.069993064
000390 c7 cc 3c 3e 12 1f 09 40 b7 27 93 3d 20 d5 5f 3d
       0.18437491 2.1425214 0.071853094 0.05464661
0003a0 01 f5 6c 3d cc ed 76 3d 79 60 8f bd 89 e5 64 bd
       0.05785084 0.060285375 -0.070008226 -0.055882964
0003b0 5e 22 07 3c 43 cc 67 bd 4b 39 2c bd 44 25 ad 3d
       0.00824794 -0.056591284 -0.042046826 0.084543735
0003c0 de b4 33 3d 9a 5f 2e 3d 7e 88 7d 3d
       0.04387366 0.04257164 0.061897747

bias f4 [3]
000000 7b 14 41 bd ad ec 9f 3d fa ae 77 3d
       -0.047138672 0.07808814 0.060469605

weight f4 [3]
000000 65 41 a8 3f 7e ca 9f 3e cb 4e 28 3f
       1.3144957 0.31209177 0.6574523

bias f4 [3]
000000 d6 25 0d 3f f7 fe 5b be 7b 5d a5 be
       0.5513586 -0.2148398 -0.32297882

running_mean f4 [3]
000000 c4 48 e2 3e af 20 93 bd 2d fd 88 3f
       0.4419614 -0.07183968 1.0702263

running_var f4 [3]
000000 62 ed ac 40 48 9b d9 3f ec 85 9b 41
       5.4039774 1.7000513 19.440392

weight f4 [3, 3, 3, 3, 3]
000000 7d 2c 3e 3d db 5d 2f bd 60 5c 16 3e 97 59 ea 3d
       0.046429146 -0.042814117 0.14683676 0.11442869
000010 92 0d 41 3e 8c d9 ca 3d 59 75 11 be eb a7 49 be
       0.18852833 0.09904775 -0.14204921 -0.19692962
000020 d7 49 06 3e 5d 18 00 bd 16 14 f4 3d 8c 24 26 bd
       0.13114105 -0.031273235 0.119178936 -0.040562198
000030 bc 33 a7 3d 37 95 ee 3f 2d ef c7 3c 43 3b 0c be
       0.081641644 1.8639287 0.02440604 -0.13694482
000040 e7 64 08 3c f2 0e 68 3e e0 34 09 3d 4f 99 c2 bd
       0.008324838 0.22661951 0.03349769 -0.095018975
000050 b3 d3 76 3d 2c 90 82 bd fd cf 88 3d 9b 9e 20 bc
       0.060260486 -0.06375155 0.066802956 -0.0098034395
000060 53 0a 1e be c4 38 38 be 6a 83 32 3e 21 14 42 3e
       -0.15433626 -0.17990404 0.17432943 0.18952991
000070 e9 8d fd 3c 73 8c 09 3c 27 32 69 bd a3 f9 1f be
       0.030951457 0.008395302 -0.056932595 -0.15622573
000080 83 12 15 3e fe e7 17 3e 2b fd 9a 3c 6f 51 03 3e
       0.14557843 0.14834592 0.018919548 0.12824033
000090 3c 20 74 3e d7 ef b0 3d 30 0d 5f 3d 27 49 a2 bd
       0.23840421 0.08639496 0.054455936 -0.07924109
0000a0 3e 1c bd bd b4 0a f7 3d 4b c8 4c 3e 92 d8 3d 3e
       -0.092339024 0.12062588 0.1999828 0.18539646
0000b0 82 78 29 3e ba 16 80 3d 1b 53 5b be dd 61 4b be
       0.16549876 0.06254335 -0.21418421 -0.1986155
0000c0 b6 df eb bd 33 6e 47 be 02 83 0b bd ff 1c 37 3e
       -0.11517279 -0.19475631 -0.034060486 0.17882155
0000d0 07 5a 18 3d 4c e8 86 3d 6c 5a 48 3d 6d df 60 3e
       0.03719523 0.06587276 0.048914358 0.2196023
0000e0 ff f9 ff 3d 7b 0d ca 3d 58 1d 98 3e c9 13 95 3e
       0.12498855 0.098658524 0.29709888 0.29116657
0000f0 bd 30 07 3d 40 d4 42 3e 7f d3 80 3e b8 2a 60 3d
       0.033005465 0.1902628 0.2516136 0.05472824
000100 b2 97 9b 3e 9b be 22 3e 82 de f6 3d a7 9b b9 3e
       0.30389172 0.15893023 0.12054159 0.36251566
000110 a9 8d e0 3e 14 37 dd 3d 6d ec 94 3e bf b3 c7 3e
       0.43858078 0.10801521 0.2908663 0.39004323
000120 04 0e 9f bc cf 20 03 3e d1 99 ac 3d 4b 31 bb bd
       -0.019415863 0.12805484 0.08427776 -0.09140261
000130 01 8d 1f 3e 56 a9 1a 3e 1f c4 19 be cc 02 da 3c
       0.15581132 0.15103659 -0.1501622 0.026612662
000140 ff b5 1e 3e 3b c8 76 bd 09 4f 76 bd c8 ac 72 bd
       0.15499114 -0.06024955 -0.060133968 -0.05924681
000150 12 3d 77 bd 5f 8a 76 bd bc 4c 74 bd b6 77 78 bd
       -0.060360976 -0.060190555 -0.059643492 -0.06066104
000160 9b 28 78 bd a3 d3 75 bd 68 b1 6d 3d 2a bd 86 bd
       -0.0605856 -0.060016286 0.058030516 -0.06579049
000170 1a c8 76 bd dd 2e 7a bd 25 74 7f bd 60 16 76 bd
       -0.060249425 -0.06107985 -0.062366623 -0.060079932
000180 c5 aa 7a bd bc bb 80 bd b5 0e 78 bd d7 65 82 bd
       -0.061198015 -0.062858075 -0.0605609 -0.06367081
000190 ec 85 7c bd c8 87 7b bd 53 27 7a bd 92 4e 7c bd
       -0.061651155 -0.061408788 -0.06107266 -0.061598368
0001a0 05 f4 77 bd 59 34 7a bd 6b 07 7c bd 6c 58 79 bd
       -0.06053545 -0.06108508 -0.06153051 -0.06087534
0001b0 4b de 72 bd 66 a2 81 bd ee d0 7a bd e9 b9 74 bd
       -0.059294026 -0.06329803 -0.061234407 -0.05974761
0001c0 c6 c5 7f bd bd 64 72 bd 85 37 79 bd e3 e4 87 bd
       -0.06244447 -0.059178103 -0.060843963 -0.066354536
0001d0 6c ad 78 bd b2 ab 88 3d fe 92 87 bd 33 05 75 bd
       -0.060712263 0.06673373 -0.066198334 -0.05981941
0001e0 b0 a5 64 bd 2c ee 6d 3f cf e2 6e bd 3f e9 5f bd
       -0.055822074 0.92941546 -0.05832177 -0.0546658
0001f0 e5 64 75 3d 5c 73 37 bd 50 7a 67 bd 52 96 81 bd
       0.059910674 -0.04478775 -0.05651313 -0.063274994
000200 db b4 79 bd 03 5d 73 bd bd 32 82 bd 7b 88 72 bd
       -0.060963493 -0.059414875 -0.06357334 -0.05921219
000210 3b 38 76 bd b4 3a 86 bd e7 a1 77 bd c0 13 75 bd
       -0.06011222 -0.065541655 -0.060457136 -0.05983329
000220 8a c6 74 bd 07 d8 71 bd c1 33 76 bd 8d fd 74 bd
       -0.059759654 -0.05904391 -0.06010795 -0.059812117
000230 e8 79 73 bd e8 ee 77 bd 51 17 79 bd 9e 02 74 bd
       -0.05944243 -0.060530573 -0.060813252 -0.05957281
000240 99 7f 63 bd bb e6 76 bd 18 c6 73 bd b5 62 77 bd
       -0.05554161 -0.060278635 -0.05951509 -0.06039687
000250 3d 7d 5e 3d db 82 74 bd 04 c7 7a bd 4e 07 72 3d
       0.054318655 -0.059695106 -0.061224952 0.059088998
000260 46 9d 74 bd 53 ef 78 bd cb c9 78 bd 39 bf 76 bd
       -0.0597203 -0.060775112 -0.06073932 -0.060240958
000270 f2 4c 78 bd 0e af 7a bd 22 70 76 bd cc 33 79 bd
       -0.060620256 -0.0612021 -0.060165532 -0.060840413
000280 cf 2d 7f bd 12 4a 78 bd 91 a6 86 3d f7 c6 75 3d
       -0.062299546 -0.060617514 0.06574739 0.0600042
000290 c8 18 57 3d fb 7e 93 3d 8d c8 74 3d 46 39 60 3d
       0.052513868 0.07201954 0.059761573 0.05474212
0002a0 95 94 91 3d e7 b3 58 3d 69 dd 58 3d aa 1c 8c 3d
       0.07108418 0.052905943 0.05294553 0.06841405
0002b0 d0 62 83 3d 02 b3 6c 3d 3d 46 97 3d 5c d5 82 3d
       0.06415331 0.057787903 0.07386444 0.06388351
0002c0 fe 1b 72 3d 8c d5 92 3d f2 9b 66 3d 58 73 62 3d
       0.059108727 0.07169637 0.056301065 0.05528578
0002d0 a3 5d 92 3d 66 e7 8a 3d 50 4d 75 3d 91 cc 9a 3d
       0.07146766 0.06782417 0.059888184 0.07558549
0002e0 6e fc 81 3d db 08 73 3d e8 91 94 3d 48 01 56 3d
       0.06346975 0.059334617 0.07254392 0.052247316
0002f0 b0 37 59 3d 57 86 4a 3d f6 d8 78 3d b9 a7 86 3d
       0.053031623 0.049444523 0.060753785 0.06574959
000300 b5 c4 22 3d e7 b4 46 3d 73 3a 68 3d 6a e8 49 3d
       0.039738376 0.048512366 0.056696367 0.049293913
000310 ec ae 5b 3d 2a aa 61 3d c8 37 5d 3d 2e 0f 88 3d
       0.053633615 0.05509392 0.054008275 0.0664352
000320 b2 ba 8d 3d 1e 0a 42 3d 6d e6 69 3d af e6 79 3d
       0.06920375 0.04737293 0.057104517 0.061011013
000330 02 54 56 3d a3 23 6f 3d 7d 70 70 3d 47 ad 05 3d
       0.05232621 0.058383595 0.058701027 0.032635953
000340 c4 8f 5b 3d bc 3b 82 3d 9c 35 0f 3d e7 a3 4f 3d
       0.053603902 0.0635905 0.034963235 0.05069342
000350 4a dc 6b 3d 2a e9 56 3d 7a 6e 6f 3d 2b 25 69 3d
       0.05758313 0.052468456 0.058454968 0.05692021
000360 60 69 64 bd 65 dd 70 bd 3b c2 0e 3c 2c 5b d9 bc
       -0.055764556 -0.05880489 0.0087133 -0.026532732
000370 3a be 24 bd cb ba 8e 3d 36 dd a1 3d 48 34 8d 3d
       -0.040220477 0.06969222 0.07903521 0.068947375
000380 5d 8e 6e 3d d0 fd 1a be cf b3 8e bd 36 76 3f 3d
       0.058241237 -0.15135884 -0.069678895 0.046743594
000390 0b ee 57 3e 77 03 d1 3f 4f 5b 78 3d 1f 4a 8c 3d
       0.210869 1.6329182 0.060633954 0.06850075
0003a0 98 a6 6d 3d 18 2e 62 3d ae ef 7c bd 60 16 78 bd
       0.058020204 0.05521974 -0.061752014 -0.060568213
0003b0 c4 67 c9 bd 4c f1 50 bd d7 a2 5c bd 61 a1 84 3d
       -0.09834245 -0.05101137 -0.053866234 0.06476093
0003c0 56 08 94 3d 68 9b 1b 3d 58 4f 56 3d
       0.072281525 0.037990004 0.05232176

bias f4 [3]
000000 29 f8 84 3d 84 ea 72 bd 58 0d 78 bd
       0.06492645 -0.059305683 -0.0605596

weight f4 [3]
000000 0e 44 0a 3f 3d 9c 34 3b 34 86 99 3d
       0.54010093 0.0027558946 0.074963

bias f4 [3]
000000 d7 df 01 3f 1e 0f 7c bd 5e 8c f2 3d
       0.5073218 -0.061537854 0.11843179

running_mean f4 [3]
000000 5a 34 b7 be c9 f1 9b be f9 b7 10 be
       -0.3578213 -0.30457905 -0.1413268

running_var f4 [3]
000000 ba c5 ef 41 76 65 e3 40 81 fc 07 41
       29.971546 7.1061354 8.499146

weight f4 [3, 3, 3, 3, 3]
000000 af ba 9e bd 2e 14 a7 bd f8 a3 bf bc c8 0b a9 3d
       -0.07750451 -0.08158146 -0.023393616 0.082542
000010 fe 01 96 3d 0a e5 ce bd 49 f2 63 bd 43 f0 d8 bd
       0.07324599 -0.101022795 -0.055650983 -0.10592701
000020 49 d3 3f 3d a3 1a f5 bd c8 46 25 3e 10 ab 8e 3d
       0.046832357 -0.11967971 0.16140282 0.06966221
000030 70 0a f4 bc e6 30 b7 3f 9c 36 94 bd fa 87 81 be
       -0.029790133 1.4311798 -0.072369784 -0.25299054
000040 7a 93 19 be f1 d6 ac bd ac 15 98 bd 48 1e a8 bd
       -0.14997664 -0.08439434 -0.074260086 -0.08208901
000050 09 fc 51 3d b6 a9 12 3e 70 f5 7b 3d b8 08 1c bd
       0.05126575 0.14322552 0.061513364 -0.038094252
000060 ae 28 5d 3d f2 ba 2a be 65 43 4c bd 20 2b 73 3d
       0.053993873 -0.16672876 -0.04986896 0.0593673
000070 34 90 18 bc 19 3c d0 39 a2 4d 4c 3d 7f 06 69 3c
       -0.009311724 0.00039717628 0.049878724 0.01422274
000080 3b 79 90 bd 29 4d 10 3c 6d e8 b6 bb f6 d2 d0 3c
       -0.07054373 0.008807459 -0.0055819065 0.025491219
000090 c0 8e 74 3d e8 5e 30 bc d4 5c 3a bd 62 e1 59 3d
       0.05970645 -0.010764815 -0.045498684 0.053193457
0000a0 7f 2b e5 3c f6 39 11 bd 96 a9 f8 3c 73 d6 3b 3d
       0.027974842 -0.035455666 0.030354302 0.04585881
0000b0 d1 cb a2 3d ba e8 8b 3d a2 66 b2 bd 83 4d 4d 3d
       0.07949031 0.068314984 -0.08710982 0.05012275
0000c0 30 14 7f 3d d9 b5 32 3c 0a 4e b9 bd d4 4e a0 bd
       0.06227511 0.010907614 -0.09048088 -0.07827535
0000d0 c3 49 98 3c 01 b3 68 3d f5 b6 87 3d 35 e9 86 3e
       0.01858986 0.056811336 0.06626693 0.26349798
0000e0 10 3f 2c 3e a3 66 32 3e f9 53 25 3e 37 10 13 3e
       0.16820931 0.17421965 0.16145314 0.14361654
0000f0 38 f2 8d 3e 2e f1 b0 39 b3 db 0a 3d 05 06 fe 3d
       0.2772386 0.0003374903 0.033900928 0.12403492
000100 46 e3 d7 3e 55 b2 8f 3e bf f3 af 3e 5d 48 97 3e
       0.42165583 0.28065744 0.3436565 0.29547396
000110 72 85 95 3e a8 1c f4 3e 82 b3 c0 3d ae e9 b0 3d
       0.29203373 0.47678113 0.094092384 0.08638321
000120 bd bd 58 3d 82 ab 67 3e d2 18 09 3e a5 75 65 3e
       0.052915324 0.22624019 0.13388374 0.22408159
000130 e5 db fb 3d 64 db 94 3d de 0c 98 3e ea f7 65 bd
       0.12297801 0.07268408 0.29697317 -0.056144632
000140 0f 5f 8e bd 4d a5 0a be 84 d1 f9 bd 85 17 2a be
       -0.06951725 -0.1353962 -0.12198165 -0.16610534
000150 12 79 83 bd bc fa 79 bd 1f af 90 bd f3 f1 56 bd
       -0.06419577 -0.061030135 -0.07064652 -0.052476835
000160 29 5c 90 bd a2 14 b1 bc 46 0e 4e be f2 d9 2c be
       -0.07048828 -0.021616284 -0.20122632 -0.16880015
000170 11 3c da bd 1a 81 86 bd e2 c4 c0 bb af 55 52 bd
       -0.10655988 -0.06567593 -0.0058828453 -0.051351245
000180 74 0b 96 bd be e6 04 be 89 59 0a bd a9 a9 2e be
       -0.07326403 -0.12978646 -0.033776794 -0.17056908
000190 b4 90 85 bd 1a 38 b4 bd 0f 21 3f bd 79 a4 62 bc
       -0.065217406 -0.08799763 -0.046662387 -0.013833159
0001a0 3d 39 21 bd d2 bc 55 bd b8 b6 b8 bd 7d 19 86 bd
       -0.039361227 -0.052182026 -0.09019226 -0.0654783
0001b0 29 1d 7d bd 8b 68 82 bd 9a 47 82 bd 61 af 78 bd
       -0.061795387 -0.06367596 -0.06361313 -0.06071413
0001c0 00 07 86 bd 51 bf 7b bd c1 6d 79 bd 6d 37 8b bd
       -0.06544304 -0.06146175 -0.060895685 -0.06797681
0001d0 91 72 8c bd 85 48 82 39 9f 04 8f bd bf ab 81 bd
       -0.06857789 0.00024849563 -0.06983303 -0.06331586
0001e0 db 54 7c bd e4 56 6e 3f 4c c9 7b bd de 82 7b bd
       -0.061604362 0.93101335 -0.06147127 -0.0614041
0001f0 fa bc 68 3d ff a3 51 3d c1 a0 7e bd 7a 70 81 bd
       0.056820847 0.05118179 -0.062165026 -0.06320281
000200 8c f7 80 bd b8 b7 77 bd 4a 19 84 bd f6 b5 79 bd
       -0.06297216 -0.060477942 -0.06450136 -0.060964547
000210 39 38 77 bd a5 e0 80 bd 9d 21 7b bd ad 52 d6 bd
       -0.060356352 -0.062928475 -0.061311353 -0.10464988
000220 81 63 a2 bd 4c d9 e3 bd 02 93 92 bd 1c b8 82 bd
       -0.07929135 -0.111254305 -0.07156946 -0.06382772
000230 22 09 a4 bd 43 af ee bc d7 99 af bc 77 0e 30 bd
       -0.080095544 -0.029136306 -0.021435661 -0.042982545
000240 6a 6b 07 be 96 68 64 bd 79 58 c4 bd 4e fd 80 bd
       -0.13224569 -0.055763803 -0.09587187 -0.06298314
000250 7c d4 84 3f 4a 8a a1 bd 62 45 1a bc 1c c6 b1 3d
       1.0377345 -0.07887705 -0.009415956 0.086803645
000260 d7 04 d1 3d 4b 82 d4 bd 49 3e 9f bd 9c f3 c1 bd
       0.10206001 -0.10376414 -0.07775552 -0.09470293
000270 69 47 89 bd 10 e9 88 bd e3 2e 9f bd 9f 96 32 bd
       -0.067030735 -0.06685078 -0.07772615 -0.043600675
000280 c2 7f 8b bd de 49 c5 bd 83 5b 75 3d f5 a6 75 3d
       -0.06811477 -0.0963323 0.059901726 0.059973676
000290 18 10 72 3d bc b9 73 3d 31 b7 75 3d 44 79 73 3d
       0.05909738 0.059503302 0.059989158 0.05944182
0002a0 ef 5b 70 3d 3c ce 73 3d e3 39 71 3d f4 af 7a 3d
       0.058681425 0.059522852 0.058893096 0.06120296
0002b0 a8 5d 7c 3d 57 32 77 3d be 54 79 3d 3a f2 7b 3d
       0.061612755 0.060350742 0.060871832 0.061510302
0002c0 44 94 78 3d f2 00 74 3d 98 e8 77 3d 72 b1 74 3d
       0.060688272 0.059571214 0.060524553 0.059739538
0002d0 09 df 77 3d 87 f5 78 3d 74 ab 71 3d 21 49 75 3d
       0.060515437 0.060781028 0.0590014 0.059884194
0002e0 df 28 79 3d dd 8f 76 3d c4 21 71 3d 63 6c 75 3d
       0.060829993 0.060195792 0.058870092 0.05991782
0002f0 51 50 74 3d 8f 43 75 3d 3f 42 74 3d e4 8f 75 3d
       0.05964691 0.059878882 0.05963349 0.059951678
000300 c4 12 75 3d f2 14 75 3d ec eb 75 3d 37 7d 75 3d
       0.05983235 0.059834428 0.060039446 0.059933867
000310 34 8f 75 3d b0 07 76 3d a9 30 75 3d af 96 74 3d
       0.059951022 0.060065925 0.05986086 0.059714016
000320 4b 78 75 3d 5c 2a 75 3d 90 3d 75 3d 58 d8 75 3d
       0.059929173 0.05985485 0.059873164 0.060020775
000330 cc b2 75 3d 9c bf 75 3d 05 12 76 3d 86 fd 74 3d
       0.059984967 0.059997186 0.06007578 0.05981209
000340 34 ac 73 3d 10 9b 75 3d b5 fc 74 3d 0a f5 74 3d
       0.059490398 0.059962332 0.059811313 0.059804
000350 30 e4 75 3d d3 bb 75 3d a6 bd 75 3d 54 21 76 3d
       0.06003207 0.059993576 0.059995316 0.060090378
000360 c1 b2 64 bd 9f 75 6e bd 5c 7f 42 3d d6 17 6b bd
       -0.055834536 -0.05821764 0.04748474 -0.05739578
000370 9a 3b 6e bd 58 96 70 3d 8e 9e 6e 3d b3 4c 6e 3d
       -0.05816231 0.05873713 0.05825668 0.058178615
000380 19 99 71 3d 31 b9 c0 3d 82 8f 5f bd 01 2b 74 3d
       0.058983896 0.094103225 -0.05458022 0.059611324
000390 f6 96 ad 3d a3 35 93 3f 97 f5 75 3d 7f ff 73 3d
       0.08476059 1.1500744 0.060048666 0.059569832
0003a0 f9 f2 75 3d 6d 7b 74 3d a3 c3 6c bd e2 c5 70 bd
       0.06004617 0.05968802 -0.05780376 -0.058782466
0003b0 82 9f 8b bd fb 4d 71 bd 12 89 71 bd 3c 2d 72 3d
       -0.06817533 -0.05891226 -0.05896861 0.05912517
0003c0 b8 4f 6c 3d cc 6a 61 3d 08 3f 72 3d
       0.057693213 0.05503349 0.059142143

bias f4 [3]
000000 5f b2 a4 3d e9 db 75 3d 55 fd 76 bd
       0.08041834 0.060024176 -0.06030019

weight f4 [3]
000000 2f dd 6a 3f 87 06 3f 3e 73 c6 60 3e
       0.9174375 0.18654834 0.21950702

bias f4 [3]
000000 d1 32 e8 3d d6 2f aa 3e d6 b2 ff bd
       0.113378175 0.3323962 -0.12485282

running_mean f4 [3]
000000 d9 0b 68 3f 37 a7 8e bf a7 b8 6f 3f
       0.9064308 -1.114478 0.9364113

running_var f4 [3]
000000 21 cf d4 3e 7f 53 b6 3f 14 20 69 3f
       0.41564277 1.4244231 0.9106457

weight f4 [3, 3, 3, 3, 3]
000000 1d f9 b1 bd 65 27 f5 bd 75 f3 ef bc 69 18 35 bb
       -0.08690093 -0.119704045 -0.029290894 -0.0027632958
000010 c9 f3 01 3e fc 4d 26 be 4d 18 9b 3d 70 5f 62 bd
       0.12690653 -0.16240686 0.075729944 -0.055266798
000020 c3 20 02 be a3 27 69 3d 36 e9 72 3e 59 2f 0e bd
       -0.1270781 0.056922566 0.23721775 -0.034713123
000030 f6 ee fd bb bb 87 f9 3f 68 6f 64 be 2d b0 80 bc
       -0.0077494336 1.9494547 -0.22308123 -0.015709007
000040 52 93 77 bd dd 38 ab be 7d e3 75 bc d3 e0 81 bd
       -0.06044323 -0.3344182 -0.015007851 -0.0634171
000050 29 fd bc 3c c0 d8 02 bd a2 c1 04 3e 09 98 61 bd
       0.023069935 -0.03194499 0.1296449 -0.055076633
000060 3d 33 7a 3c 2a 8d 23 be f5 5d 88 bd d2 0f c4 3d
       0.015271005 -0.15971819 -0.06658546 0.0957333
000070 5c 3f e8 bc 1b de 0d bd 6d 9a 0f 3e 1f 00 4a bd
       -0.028350525 -0.034635644 0.14023753 -0.04931652
000080 de 06 2d be cd 9c 9b 3e a4 e8 96 3d 97 06 46 bd
       -0.16897151 0.30393067 0.073685914 -0.04834613
000090 5d 7e 97 3d e3 7f 47 be 2a 60 37 be 2e 36 56 3d
       0.07397149 -0.19482379 -0.17907777 0.052297764
0000a0 ee da 20 be 54 5a 8e be 8a d1 9d 3e 34 5a 3c 3d
       -0.15708515 -0.2780329 0.30823928 0.045984462
0000b0 c9 33 61 bc 18 d6 fb 3d 50 01 3d be ed 1a 84 bb
       -0.013745257 0.122966945 -0.18457532 -0.00403153
0000c0 c7 cd a9 3b 68 64 18 be 52 82 1d be 00 ae 5c 3b
       0.0051820013 -0.14882052 -0.15381745 0.0033673048
0000d0 7a a7 2a 3e e0 ff 3e 3e 4d 60 bb 3c 0a 81 10 3d
       0.1666545 0.18652296 0.022873068 0.03527931
0000e0 6b d7 86 3c 7e 72 9d bb d2 39 18 3d ce 8c bb ba
       0.016460141 -0.0048049083 0.037164517 -0.0014308931
0000f0 ff 2f bc bd 08 58 c0 bd 51 a8 8a bc 93 ee 9a 3d
       -0.09188842 -0.09391791 -0.016925963 0.07565036
000100 3a 57 18 3e 17 13 0b 3e 20 48 db 3d 9c af 0f 3e
       0.14877024 0.13581501 0.10707116 0.14031833
000110 44 74 60 3e db 77 17 3c 2f d9 0f 3d 45 7d c0 3d
       0.21919352 0.009244884 0.03511923 0.09398893
000120 f7 e1 6c 3d 17 68 dc 3d a1 7c 83 3d ec 71 d0 3d
       0.057832684 0.10762041 0.064202555 0.10177979
000130 d1 2c d3 3d b2 86 bb 3d c5 e8 4f bd 46 88 8a bd
       0.103112824 0.091565505 -0.050759096 -0.06764273
000140 e6 79 35 bd e3 e6 24 be e5 49 e7 bd 60 13 15 3c
       -0.044305705 -0.16103701 -0.11293391 0.009098858
000150 8e 51 e9 bd 9c b2 29 be ac 91 c0 bd 07 ab cb bd
       -0.113925084 -0.1657204 -0.09402785 -0.0994473
000160 85 56 56 be 17 91 21 be 11 e8 d9 3d 72 7a 37 bc
       -0.20931442 -0.15778004 0.10639966 -0.011198627
000170 5b c1 2f 3d 13 4a 0b bc cc bf 4d bd 55 79 d8 bc
       0.042909008 -0.008501547 -0.05023174 -0.026425043
000180 1c ea 13 bc 0f 08 3a be a8 7f fd bc 79 1b 79 be
       -0.009027984 -0.18167137 -0.03094466 -0.24326886
000190 8e 4a 01 be 6a 73 03 be 17 b3 4d bd 39 d7 91 bd
       -0.12626097 -0.12836996 -0.05021962 -0.071211286
0001a0 5e c7 ac bd c7 e6 f0 bc 9a 78 e2 bd 19 72 8a bd
       -0.08436464 -0.029406918 -0.11058159 -0.06760044
0001b0 05 1c 1e bd 14 71 83 bb 89 47 ed 3c ef 03 62 bd
       -0.03860094 -0.0040112827 0.028964775 -0.055179533
0001c0 5c b7 f3 3b 49 c6 49 3c de 1d 96 bc fc 80 b7 3e
       0.0074376296 0.012315341 -0.018324789 0.35840595
0001d0 bd 45 59 3f 64 63 d3 3e a7 e3 32 3d 58 f7 42 bc
       0.8487204 0.41286767 0.043674137 -0.011899792
0001e0 89 4e 99 bd 0f b8 e4 3f 94 d6 4f bc 3a b1 96 bc
       -0.074856825 1.786867 -0.012685437 -0.018395055
0001f0 22 6a 29 3e b0 a3 1b 3f e9 5f 3e bd 32 81 66 bb
       0.16544393 0.6079664 -0.046478186 -0.0035172221
000200 62 f3 4f 3d a3 9c b2 bd c6 d2 59 bd 70 fc ad bc
       0.050769217 -0.08721282 -0.053179525 -0.021238536
000210 de c7 79 bd bd c3 9d 3d 41 76 12 3e ae e1 63 bd
       -0.060981624 0.0770335 0.14302923 -0.055635147
000220 17 81 79 bd 4a d1 56 bd 1b 7f 84 bd b5 d8 b0 bd
       -0.060914125 -0.052445687 -0.06469556 -0.086350836
000230 e0 f8 9c bd 62 3a b5 bd 3f f7 30 be 6b 73 54 be
       -0.07664657 -0.08849026 -0.17281817 -0.20747153
000240 ed 42 80 bd 34 f0 97 bd d0 2d 79 bd 48 f4 91 bd
       -0.06262765 -0.07418862 -0.060834706 -0.07126671
000250 d9 bf db be ea d5 a1 bd e3 6d e2 bd 27 51 56 bd
       -0.42919806 -0.07902129 -0.110561155 -0.052323487
000260 f9 7b 57 be 9f 0c 78 bd 96 d5 88 bd a6 56 8a bd
       -0.21043386 -0.06055891 -0.06681363 -0.06754808
000270 a5 ce 78 bd 1c ae 95 bd 39 d2 91 bd 29 a8 98 bd
       -0.060743947 -0.07308599 -0.07120175 -0.07453949
000280 d5 74 ed bd bc 5a e2 bd 45 44 61 3d c0 25 5a 3d
       -0.115945496 -0.110524625 0.054996748 0.053258657
000290 c0 7e f3 3c 7b 7d 87 3d 0b 98 7d 3d 71 3d 3f 3d
       0.029723525 0.066157304 0.061912578 0.046689454
0002a0 09 47 91 3d 84 19 94 3d 02 a9 84 3d fc cf 8a 3d
       0.07093627 0.07231429 0.06477548 0.06777951
0002b0 aa 75 8f 3d a1 6d 36 3d ad af a0 3d 30 ae 9a 3d
       0.070048645 0.044538144 0.078460075 0.07552755
0002c0 f3 51 6d 3d 0a 79 a1 3d 6a d0 a4 3d aa 28 8f 3d
       0.05793948 0.078844145 0.08047564 0.06990178
0002d0 00 51 55 3d 6f 54 61 3d 12 ff d1 3c 73 ab 90 3d
       0.0520792 0.055012163 0.025634322 0.07063951
0002e0 93 cb 87 3d f0 d0 45 3d 04 0c 9b 3d 00 87 95 3d
       0.066306256 0.04829496 0.07570651 0.0730114
0002f0 9a 80 82 3d 5d ac 74 3d 68 12 5a 3d bd 28 76 3d
       0.06372185 0.05973469 0.05324021 0.060097445
000300 86 44 4a 3d bd 94 24 3d c2 98 51 3d b4 e0 69 3d
       0.049381755 0.04018091 0.05117107 0.05709906
000310 65 8e 43 3d 76 2b 51 3d 58 20 80 3d 18 88 78 3d
       0.04774322 0.05106684 0.06256169 0.060676664
000320 86 ea 84 3d fb d2 58 3d 8d 39 4b 3d 74 c3 69 3d
       0.06490044 0.05293558 0.04961543 0.057071164
000330 9e 73 70 3d 14 2f 5f 3d 77 01 6d 3d 19 aa 87 3d
       0.05870401 0.054488257 0.057862725 0.066242404
000340 04 0e 7b 3d 4f 35 87 3d ab c5 4e 3d a1 00 3b 3d
       0.061292663 0.06601965 0.05048148 0.045654897
000350 87 8a 69 3d a2 42 70 3d 31 87 64 3d ea b7 75 3d
       0.057016876 0.058657296 0.05579299 0.059989847
000360 39 25 76 bd 12 0b 78 bd 3e 59 56 bd 9a 50 61 bd
       -0.060094092 -0.060557432 -0.0523312 -0.05500851
000370 e3 e9 60 bd b9 29 6d 3d 05 a5 65 3d cd 4d 76 3d
       -0.05491055 0.057901118 0.056065578 0.06013279
000380 46 e0 77 3d 3a ca 46 bd 68 d8 7e bd 87 a4 40 3d
       0.06051662 -0.048532702 -0.0622181 0.047031906
000390 e4 00 c8 3d ab 31 89 3f 0f 42 6b 3d 06 81 6b 3d
       0.09765795 1.0718282 0.057436045 0.057496093
0003a0 99 00 6c 3d f8 71 6d 3d eb 57 7e bd 6c 26 7d bd
       0.057617757 0.057970017 -0.062095564 -0.06180422
0003b0 b1 dc 63 be e7 6d 6f bd 00 9f 72 bd 4b 59 59 3d
       -0.22252156 -0.05845442 -0.059233665 0.053063672
0003c0 33 51 53 3d 20 77 11 3d f3 91 5f 3d
       0.05159111 0.035513997 0.054582547

bias f4 [3]
000000 58 19 80 bd bc a7 74 3d 27 02 76 3d
       -0.06254834 0.059730276 0.060060646

weight f4 [3]
000000 67 95 cc 3f 9b 04 7a be 71 f9 03 3f
       1.5983094 -0.2441582 0.5155249

bias f4 [3]
000000 0f 08 c9 3e 47 a9 93 be 64 20 bb 3b
       0.3926396 -0.28840086 0.0057106484

running_mean f4 [3]
000000 61 8e cd bd 1f 09 b7 3f 85 6b 2a 3f
       -0.10036922 1.4299659 0.6657031

running_var f4 [3]
000000 69 16 be 3f 83 37 27 41 1c 57 00 40
       1.4850589 10.451053 2.0053167

weight f4 [3, 3, 3, 3, 3]
000000 98 46 10 3c 7e 3e a0 be ec c2 82 bc 57 8c 09 3c
       0.008805893 -0.31297678 -0.015962087 0.008395276
000010 30 bf a3 bd a7 fb 92 be 80 16 71 3e 23 07 88 bc
       -0.079954505 -0.2870762 0.2354374 -0.016604966
000020 7c 51 57 be 09 17 3a 3e f0 70 be ba d2 68 ca bd
       -0.21027178 0.1817285 -0.0014529508 -0.09883274
000030 55 be ce 3d fc cd 15 40 df 3b 9f be ec 36 45 3e
       0.10094897 2.3406973 -0.31100366 0.19259232
000040 51 e9 c3 3d 9b 36 a0 be 0b e7 07 bc e8 ea 85 be
       0.09565986 -0.3129166 -0.008294831 -0.26155782
000050 4d c1 cf bd d7 a0 21 3d 49 97 18 ba cf 03 1d be
       -0.10144291 0.03946003 -0.0005820883 -0.15333484
000060 a8 c5 1c 3e 93 95 a4 3b 29 d8 05 3d 55 8d 6c 3d
       0.15309775 0.0050227134 0.03267685 0.057751972
000070 92 f7 19 3e bb cf 9f bc d2 ff 7d 3d 47 08 70 3e
       0.15035847 -0.019508233 0.062011547 0.23440658
000080 0a b2 24 bd 1e f6 b7 bd 8a 89 84 3e d1 9f 0d 3e
       -0.040208854 -0.0898249 0.25886184 0.13830496
000090 3f 73 b1 bc 97 7b 10 bd c6 cc fb be f1 29 66 bc
       -0.021661399 -0.035274114 -0.49179667 -0.014048086
0000a0 1c cb 37 3e e7 ab a5 be 87 5e c8 be cc 2d 0d 3e
       0.17948574 -0.32357714 -0.3913462 0.13787001
0000b0 a1 df f5 bc ae e3 69 bd 89 a9 90 3d 10 84 5f be
       -0.030013861 -0.057101898 0.07063586 -0.21827722
0000c0 14 32 cc 3a a1 c6 ad 3e 4a c8 12 be c4 a1 42 be
       0.0015578889 0.33940604 -0.14334217 -0.19007021
0000d0 83 c8 8e 3e 86 8f 8c 3d b9 4d 35 3d 2b 73 fe 3c
       0.27887353 0.068633124 0.044263575 0.031060776
0000e0 72 35 2d bd 55 7b 4f 3d 90 7e 4d 3d 32 01 f3 bd
       -0.042287298 0.050654728 0.050169528 -0.11865462
0000f0 7b cb ad 3d 36 15 88 3d 9e 80 7f bc 38 04 8f 3d
       0.084860764 0.06644671 -0.01559463 0.069832265
000100 d3 de fa 3d 82 41 7c 3d be d2 c6 3d bf 82 f7 3d
       0.122495316 0.06158591 0.09708165 0.12085485
000110 2e 36 bd 3d 6b 65 94 3d 95 0d b8 3d a9 9f c2 3d
       0.092388496 0.072459064 0.089869656 0.09503109
000120 3d 78 20 3d 7b d0 7b 3d aa 63 22 bd ab 03 83 3d
       0.03917717 0.06147812 -0.03964583 0.06397184
000130 40 01 c5 3d c8 45 ea bc f8 70 6d bd 0f 18 5f 3d
       0.09619379 -0.028597727 -0.057969064 0.054466303
000140 b9 ee 8c 3d 89 ef 22 be 50 f8 1f be bd 20 9c bd
       0.0688147 -0.15911688 -0.15622067 -0.07623432
000150 e8 25 a7 bd 4e 1f 06 bd df 7f 99 bd c0 a7 ed bd
       -0.08161527 -0.0327447 -0.074950926 -0.116042614
000160 19 fb d9 bc 60 ac 71 be e8 63 72 be 3a ca ba be
       -0.02660899 -0.23600912 -0.23670924 -0.36482412
000170 bd 99 dc 3c 1f c7 5d bd e0 18 57 3e 33 dd 7a bc
       0.026928777 -0.054144975 0.21005583 -0.015311527
000180 88 97 1a be ef e3 2a 3e d9 40 67 be 6a 74 e7 bd
       -0.15096867 0.16688512 -0.22583331 -0.11301501
000190 bc fb 12 be 6c 63 a2 3e 80 60 b0 bd 46 d8 88 3d
       -0.14353842 0.31716478 -0.08612156 0.06681876
0001a0 a3 0c 80 3d 95 d1 17 be d1 8a e0 3b b8 ef 1c be
       0.0625241 -0.14826043 0.0068524857 -0.1532582
0001b0 a8 bc 42 be dd 5a 5d be be be c2 be ce db 3e bd
       -0.19017279 -0.21616693 -0.3803615 -0.04659634
0001c0 d0 15 f7 bd fb 35 35 be 56 05 d9 3d 57 43 dc 3e
       -0.12064707 -0.17696373 0.10596721 0.43020126
0001d0 70 d6 32 be 6f 66 5b 3e f7 be 41 be 97 75 6f be
       -0.17464614 0.21425794 -0.18920504 -0.233847
0001e0 08 03 c3 3c 13 b7 a1 3f b3 50 fd bd b1 b3 7b 3e
       0.023805156 1.2633995 -0.12368908 0.24580266
0001f0 aa a4 bc 3e 7b 52 4c 3e 6b af b8 bc 75 c6 69 bd
       0.3684438 0.19953339 -0.022544583 -0.05707403
000200 ef fe 32 be 10 b2 b9 3b 31 d3 59 3d bd 45 cc bd
       -0.17480062 0.0056669787 0.053179923 -0.09974239
000210 fc 92 ba 3d 4f 06 fb 3e 52 4f a1 3d f8 cd 5b bd
       0.09110066 0.4902825 0.07876457 -0.053663224
000220 1a 43 c5 bc f4 76 ae 3c b5 57 61 bd 10 9a d4 bd
       -0.024079848 0.021296956 -0.055015285 -0.103809476
000230 5e ba a4 bd 79 82 84 3d 06 a2 7a 3e c1 22 f1 3d
       -0.08043359 0.06470198 0.2447587 0.11774207
000240 52 4d 08 bd 88 3e 80 3d a7 37 80 3d 3b 82 6f bd
       -0.033276863 0.06261927 0.06260615 -0.058473807
000250 6f 01 0c bf 88 b0 ac bd 78 99 f6 3d 12 a3 a9 3e
       -0.5468969 -0.08432108 0.120409906 0.33132225
000260 f3 a4 8d 3e f3 1f 73 bd 2d 98 bd bc ed 09 0e 3d
       0.2766491 -0.05935664 -0.023143852 0.034677435
000270 ad 18 9c bd d3 0e f3 bd 40 aa a6 bd 99 2f ff ba
       -0.07621894 -0.11868062 -0.08137941 -0.0019469141
000280 31 7d be 3d 01 9f 32 3c c3 25 35 3d cc 87 8d 3d
       0.09301222 0.010902167 0.044225466 0.06910667
000290 83 f0 8a 3d b1 75 62 3d f0 22 8a 3d 35 8c 94 3d
       0.06784155 0.05528802 0.06744945 0.07253305
0002a0 9e 41 40 3d c8 aa 80 3d 0d 56 8c 3d c6 75 52 3d
       0.046937577 0.06282574 0.068523504 0.05138185
0002b0 d6 90 ac 3d 8a e3 9a 3d 18 a2 6d 3d dd 9e a5 3d
       0.08426063 0.07562931 0.058015913 0.080869414
0002c0 a3 e1 a1 3d 71 73 5e 3d d5 ee 9b 3d e0 41 9b 3d
       0.07904365 0.054309312 0.07613913 0.07580924
0002d0 dc 24 27 3d d2 ec 84 3d 9e a4 75 3d f7 54 19 3d
       0.040806636 0.064904824 0.059971444 0.037434544
0002e0 db 8b 5e 3d f2 92 7b 3d 7a 4d 26 3d 28 b3 4d 3d
       0.054332595 0.061419435 0.04060123 0.050219685
0002f0 a8 56 66 3d 27 f7 72 3d e0 a3 62 3d 78 c6 8c 3d
       0.056234986 0.059317734 0.055332065 0.068737924
000300 de 65 8c 3d b7 b2 8c 3d aa f9 93 3d 1b 7b 91 3d
       0.06855367 0.06870025 0.07225354 0.07103559
000310 2f dd 98 3d 47 7b 9f 3d 33 a5 84 3d f1 4d 80 3d
       0.074640624 0.07787185 0.06476822 0.06264866
000320 f4 35 91 3d 07 5d 97 3d 4e f4 92 3d 69 88 95 3d
       0.07090369 0.073907904 0.07175504 0.07301409
000330 1c a9 98 3d ba 82 9a 3d 24 7c 9d 3d a7 17 6d 3d
       0.0745413 0.07544465 0.076896936 0.057883885
000340 f8 7b 51 3d 94 be 87 3d 9f b4 8d 3d 0f 31 88 3d
       0.051143616 0.06628147 0.06919216 0.06649982
000350 c1 e9 8d 3d 9b e5 93 3d 53 a7 93 3d fc bd 97 3d
       0.06929351 0.07221528 0.07209649 0.074092835
000360 3e 63 80 bd cb 4d 65 bd e8 25 6a bd 09 66 87 bd
       -0.06268929 -0.055982392 -0.057165056 -0.066112585
000370 df 02 5a bd 17 20 2b 3d 95 a9 6c 3d 2a 0f 89 3d
       -0.053225394 0.04177865 0.057778914 0.066923454
000380 1c b2 4f 3d 20 78 0c be c8 d2 2c bd e5 a0 74 3d
       0.050706968 -0.13717699 -0.042193204 0.059723753
000390 6a 35 8f 3d 20 f1 8a 3f e2 a2 58 3d bd 5d 7a 3d
       0.0699261 1.0854836 0.052889712 0.061124552
0003a0 7f 06 87 3d c9 83 5e 3d 40 50 38 bd dc 0f 3a bd
       0.06593036 0.0543249 -0.044998407 -0.04542528
0003b0 c0 ee d3 3d d0 1b 6a bd 14 c0 38 bd be 58 67 3d
       0.10348272 -0.05715543 -0.045105055 0.056481116
0003c0 2e f4 75 3d c6 68 a7 3d 6b db 61 3d
       0.06004732 0.08174281 0.055140894

bias f4 [3]
000000 02 ce 92 3d cf 46 77 3d ca ba 7c 3d
       0.07168199 0.060370263 0.061701573

weight f4 [3]
000000 99 a9 5d 3e 87 9e f5 3e 15 1e 91 3d
       0.21646728 0.4797251 0.07085816

bias f4 [3]
000000 2c 1a a7 3e 7c 9a fc be a7 9a d1 3d
       0.32637155 -0.49336612 0.10234576

running_mean f4 [3]
000000 e4 98 07 3f da 03 87 bf 59 0e f9 3d
       0.5296767 -1.054805 0.1216094

running_var f4 [3]
000000 98 30 f3 40 c1 01 c4 40 45 06 4d 41
       7.599682 6.125214 12.814031

weight f4 [3, 3, 3, 3, 3]
000000 94 1a 3d 3d 09 f8 1a be b0 7c f9 bd d6 10 c7 bd
       0.046167925 -0.1513368 -0.121819854 -0.09720008
000010 09 09 e3 3d 26 bc f9 bc 04 3c db bd d7 55 d2 bd
       0.11085708 -0.030485224 -0.107048064 -0.10270279
000020 5e 90 b1 bd c7 85 ab ba 7d d2 d1 3c c3 c9 be bd
       -0.08670114 -0.0013086133 0.025613064 -0.09315827
000030 91 18 78 be e9 58 cf 3f bf b8 dd 3d cf af 07 be
       -0.24228121 1.6199008 0.10826253 -0.1325066
000040 77 a5 42 3e dc 4d cb 3d 24 ed 77 bc 5f 19 73 be
       0.19008432 0.0992696 -0.015132222 -0.23740147
000050 dd 13 f6 bd e5 2d 89 be d1 9e 33 bd 41 04 45 bd
       -0.12015507 -0.26792827 -0.04385263 -0.04809976
000060 35 f5 e8 bd 60 9c 06 be 83 89 ab bd ee f7 e2 ba
       -0.113748945 -0.1314559 -0.08375838 -0.001731632
000070 17 af 05 3d 90 73 f4 3d 5b f6 a1 3c ca 0a 8c 3c
       0.03263768 0.11936104 0.019770792 0.017094988
000080 64 79 92 be 2d 4a c0 3e 84 c9 f3 3d 17 ca 90 bc
       -0.2860824 0.37556592 0.119036704 -0.017674489
000090 b2 b7 3c bd 5b 0f e5 3c be 4b e0 3d 26 21 66 bd
       -0.046073623 0.027961424 0.10951947 -0.056183957
0000a0 8e 4c 05 3d 7d f7 04 be 5a 2a 5b 3e db 2d 19 3e
       0.03254371 -0.12985034 0.21402875 0.14958899
0000b0 93 48 af 3d db 54 f6 bd c6 e7 08 be 3e 6a 84 3d
       0.08558764 -0.12027904 -0.13369665 0.064655766
0000c0 6c 6a 6d be 26 c6 62 bc 32 d6 79 be a3 5a 07 3d
       -0.23185128 -0.013841188 -0.24398115 0.033045422
0000d0 b9 0d 10 3e e6 e8 2f 3d 93 1a b2 bd 29 01 45 3d
       0.14067735 0.04294672 -0.08696475 0.04809681
0000e0 06 91 24 bd 9d cd 57 3d c8 f7 3d 3e a3 5c c6 bc
       -0.040177368 0.052686322 0.18551552 -0.024214095
0000f0 63 c2 a0 3d 74 d3 16 3e 68 8e 93 bd 46 cb 5e bd
       0.07849576 0.147291 -0.07204896 -0.054393075
000100 9c 6d fa 3d 11 18 e5 bc 27 0e 33 3e fa a4 a1 3e
       0.122279376 -0.027965577 0.17485867 0.3157118
000110 50 fb 67 3d a8 1f 72 3e cd 6e 81 3e a2 75 08 bd
       0.056636155 0.23644888 0.25279847 -0.03331531
000120 21 da 99 3d 48 ee 61 3e c5 dc ab 3c 58 79 fb 3d
       0.07512308 0.22063553 0.020979295 0.12279004
000130 81 2f 86 3e 5b 3c 45 bc 8d 07 de 3b 7b 66 fc 3d
       0.26208118 -0.012038316 0.0067758025 0.12324234
000140 0a 78 14 be bb 5e 39 3d 2e 37 1e be bc aa ae bd
       -0.14498916 0.045256358 -0.15450737 -0.08528659
000150 5b af a1 bc 3a 62 7f bb 37 60 5f 3d e8 bb 58 bd
       -0.019736936 -0.003896846 0.054535117 -0.052913576
000160 21 c0 d9 bc 19 2e e8 3d d1 d4 9c 3e e4 2c e1 3d
       -0.026580872 0.113369174 0.30631116 0.1099489
000170 a8 07 80 3d 37 c9 67 bd 24 da af 3d 2a 86 fa 3d
       0.0625146 -0.056588378 0.08586529 0.12232621
000180 55 8c 38 be 6d b8 92 3b 2e da 0c 3e 88 83 f9 3d
       -0.18022282 0.0044775517 0.13755104 0.12183291
000190 4f 9c 2d bd ef 1e 85 3d 8b 33 80 bd 64 e1 fa bd
       -0.042385396 0.06500041 -0.06259831 -0.12250021
0001a0 e4 2d 59 3d bf 75 1f 3c 91 64 b4 bd 42 98 59 3c
       0.05302228 0.009732663 -0.08808244 0.01328093
0001b0 99 d9 03 bf fb af d3 be 21 fe 0c 3d 3e 27 8f be
       -0.515039 -0.413452 0.034422044 -0.27959627
0001c0 47 e6 75 bf 6a 43 e3 be 00 a4 d0 3b c3 d5 81 bf
       -0.960545 -0.4438737 0.0063672066 -1.014336
0001d0 b3 3c ba bf a8 4f 5e bf 76 ed 06 bf 8e fa dd 3d
       -1.4549774 -0.86840296 -0.52706087 0.10838805
0001e0 eb 13 ae be 1d be 49 be 38 b6 8e be 16 2e dc 3b
       -0.3399957 -0.19701429 -0.27873397 0.006719361
0001f0 cc e6 ae be 4f ae 63 bf 36 a1 00 bf ff c8 94 be
       -0.3416046 -0.8893785 -0.5024599 -0.29059598
000200 48 49 38 3e 07 b4 61 be 74 70 1e bf b3 59 85 be
       0.17996705 -0.22041331 -0.6189034 -0.26044998
000210 09 6a bb bc 7b 9a f0 be 1a 1c 51 bf c0 74 79 be
       -0.02287771 -0.4699286 -0.81683505 -0.24360943
000220 fc 61 51 be 8f f0 ef be 42 d9 d5 bd 54 df 4b 3d
       -0.20447534 -0.4686322 -0.10441829 0.04977353
000230 0c b2 99 be b6 f9 17 be c2 2d 03 be 84 42 10 be
       -0.3001865 -0.14841351 -0.12810424 -0.14087874
000240 5c 37 33 be f6 db 82 bd 12 8e f4 be 3f b6 36 be
       -0.17501587 -0.063896105 -0.4776464 -0.17842959
000250 d5 22 4e 3e 1b ca b3 be 67 ac 72 be e2 c6 30 be
       0.20130475 -0.35115132 -0.23698579 -0.17263368
000260 be 7c 67 be 53 64 40 3a ae fb ea 3d 5f 9c df bd
       -0.22606179 0.0007339168 0.11473785 -0.10918497
000270 4b a7 d4 bc 33 01 b9 3d 4f da 82 bd b3 1b 4c bd
       -0.025958678 0.09033432 -0.06389295 -0.049831104
000280 33 da 1f be f3 3e 33 be d8 63 69 3d 86 d3 4e 3d
       -0.1561058 -0.17504482 0.056979984 0.050494693
000290 f9 0d 6d 3d 2f dc 69 3d ff 33 5a 3d 7d 8f 6a 3d
       0.057874653 0.05709475 0.053272244 0.057265747
0002a0 6a de 61 3d 9b 86 63 3d e4 c1 71 3d 5f 43 83 3d
       0.05514375 0.05554829 0.0590228 0.064093344
0002b0 92 34 82 3d c5 ec 81 3d 0d 47 76 3d 92 8b 81 3d
       0.06357683 0.06343988 0.060126353 0.06325449
0002c0 88 43 80 3d 6f 76 6f 3d fd 88 82 3d 8f 90 84 3d
       0.062628806 0.058462556 0.06373785 0.06472885
0002d0 89 c4 6d 3d 0c 68 5c 3d d2 f6 66 3d b7 b7 6b 3d
       0.05804876 0.053810164 0.05638773 0.05754825
0002e0 88 78 5e 3d cd 30 66 3d 48 87 71 3d 5b 8b 66 3d
       0.054314166 0.056198884 0.058966905 0.056285243
0002f0 e2 4d 71 3d 55 85 74 3d ed 51 75 3d 5f 5a 7a 3d
       0.058912165 0.059697468 0.059892584 0.06112134
000300 83 6b 74 3d 9b 06 72 3d 3a ec 76 3d 70 f6 76 3d
       0.059672844 0.05908833 0.060283877 0.060293615
000310 a2 ae 74 3d 9b 93 75 3d 40 94 72 3d c4 6e 74 3d
       0.059736855 0.05995522 0.059223413 0.059675947
000320 05 77 79 3d cd 02 73 3d 09 b0 72 3d 1e 0d 77 3d
       0.06090452 0.059328843 0.05924991 0.060315244
000330 02 8d 76 3d bf 2b 75 3d de fe 75 3d 4c 72 71 3d
       0.06019307 0.059856173 0.060057513 0.058946893
000340 f5 33 73 3d 56 c4 79 3d 8c 78 71 3d aa bc 70 3d
       0.059375722 0.060978256 0.058952853 0.058773674
000350 b7 05 77 3d df d1 75 3d 9a 6e 74 3d 1b de 75 3d
       0.060308184 0.0600146 0.05967579 0.06002627
000360 a8 60 5a bd f9 81 61 bd 9d 9a af 3d 50 15 90 bc
       -0.053314835 -0.055055592 0.08574412 -0.017588288
000370 9c b5 35 bd 5f 21 68 3d 6a 7a a0 3d 91 c3 c3 3d
       -0.04436265 0.05667245 0.07835849 0.09558786
000380 55 15 86 3d 09 78 2f 3e 14 a7 3c bd ba 96 83 3d
       0.065470375 0.17135634 -0.046057776 0.06425233
000390 c4 fa 26 3e 44 ca ff 3f 56 e5 72 3d 50 7e 91 3d
       0.16306597 1.9983602 0.059300743 0.0710417
0003a0 d4 f7 96 3d 80 c6 81 3d bf 30 4c bd 93 b6 59 bd
       0.07371488 0.06336689 -0.049851175 -0.053152632
0003b0 6d b4 86 3b 9c 99 35 bd 48 5f 51 bd d9 c1 6e 3d
       0.004110864 -0.044335946 -0.051116258 0.058290336
0003c0 03 d1 a2 3d d5 3d d5 3d a2 f4 85 3d
       0.07950022 0.10412184 0.06540801

bias f4 [3]
000000 5b 31 7b 3d 2d 2c 74 bd 04 eb 75 3d
       0.061326366 -0.05961244 0.06003858

weight f4 [3]
000000 9f 45 8c 3f a1 39 01 3f a9 77 5b 3f
       1.0958747 0.5047856 0.8572946

bias f4 [3]
000000 c6 a2 b9 bf 25 6a 03 bf fb 07 0d 3f
       -1.45028 -0.5133384 0.550903

running_mean f4 [3]
000000 07 ee 7c 3e 10 a8 9f be 85 d5 60 3f
       0.24700175 -0.3118291 0.87825805

running_var f4 [3]
000000 17 b5 65 3d d4 1b 29 3d 0f f1 77 3e
       0.056080904 0.041286305 0.2421305
