data/video_perturbations/mowing_lawn/2018-07-23 01:15:10.280387/pert_model.pt (torch_old, 37649 bytes, 54 tensors)

weight f4 [3, 3, 3, 3, 3]
0	0x3d9b93f6	0.07596581
1	0x3de62dd1	0.112392075
2	0x3e51fe9c	0.20507282
3	0x3dc9f2f6	0.09860794
4	0x3c6be252	0.014397221
5	0x3ddfb8dd	0.10923932
6	0x3df3349e	0.1187527
7	0xbdd6e826	-0.104934976
8	0xbc63be61	-0.01390037
9	0x3d0ef8c6	0.034905218
10	0xbd729847	-0.059227254
11	0xbdc9831a	-0.09839459
12	0x3e7bcd54	0.24590045
13	0x3f95d494	1.1705499
14	0x3e19a570	0.15004516
15	0x3e5d7199	0.21625365
16	0x3e58bb7f	0.21165274
17	0x3dd93ab2	0.10606898
18	0x3d66cd12	0.056347914
19	0xbc049db5	-0.008094241
20	0x3c1c0979	0.009523743
21	0x3e2fda1f	0.1717305
22	0x3e17c23d	0.1482019
23	0x3e132522	0.14369634
24	0x3d84e3b8	0.064887464
25	0x3d3286a7	0.043585446
26	0x3d141f1b	0.036162477
27	0x3d98cdec	0.074611515
28	0x3d6340b0	0.055481613
29	0x3df5ab8f	0.11995613
30	0x3d833dcc	0.06408271
31	0x3b87b8a3	0.0041418835
32	0x3d6e6cb6	0.058209144
33	0x3d89897c	0.06715676
34	0xbd35ebe4	-0.044414416
35	0x3a11b11c	0.00055577024
36	0xbc669bb5	-0.014075209
37	0xbd81b56f	-0.06333434
38	0xbd6a10e2	-0.057145007
39	0x3da98933	0.08278122
40	0x3d2f3a85	0.042780418
41	0x3d984a66	0.074360654
42	0x3db11064	0.086457044
43	0x3dc60482	0.096688285
44	0x3d9a8a42	0.07545902
45	0x3ac15999	0.0014751434
46	0xbd59b264	-0.053148642
47	0xbd2ee38b	-0.04269747
48	0x3d848b52	0.06471886
49	0x3d2105ff	0.03931236
50	0x3ce6e1e8	0.028183892
51	0x3ced8544	0.02899421
52	0x3cb37262	0.021905128
53	0x3c13f3a0	0.009030253
54	0x3da04ac2	0.07826759
55	0x3d6850bb	0.056717616
56	0x3e105417	0.14094578
57	0x3e23824f	0.15967678
58	0x3d91e38e	0.07123481
59	0x3deaf356	0.11472194
60	0x3e61bfd0	0.22045827
61	0x3dbc91e2	0.092075124
62	0x3df7cc66	0.12099533
63	0x3e093205	0.13397987
64	0xbb3bc73c	-0.0028652688
65	0xbd465a4d	-0.04842596
66	0x3ede83d7	0.4345996
67	0x3f055ce5	0.5209487
68	0x3ebd3b41	0.3695927
69	0x3ecb0fb4	0.39660418
70	0x3f0d1edc	0.5512521
71	0x3ed8db18	0.42354655
72	0x3e20d033	0.15704422
73	0xbba65479	-0.005075988
74	0xbd89c8c8	-0.06727749
75	0x3ead04b6	0.33792657
76	0x3e8abae8	0.27095723
77	0x3e266352	0.16248825
78	0x3e487e28	0.19579375
79	0x3e594c9d	0.21220632
80	0x3e081784	0.1329022
81	0x3d8dc83c	0.06922957
82	0x3e0a3350	0.13496137
83	0x3e761dd5	0.24034818
84	0xbe05bdb2	-0.13060644
85	0xbe0af975	-0.13571723
86	0xbde619d5	-0.11235396
87	0xbe331da8	-0.17491782
88	0xbe743a58	-0.23850381
89	0xbe3efd6a	-0.18651357
90	0xbe496ebb	-0.19671147
91	0xbe335f5a	-0.17516842
92	0xbe1da30a	-0.15394226
93	0x3e0ecdf4	0.13945752
94	0x3f539ffe	0.82666004
95	0x3e779f95	0.2418197
96	0xbdf57851	-0.11985839
97	0x3f043c9b	0.51654977
98	0xbd066ec6	-0.032820486
99	0x3e6be29c	0.23035663
100	0x3db84961	0.08998371
101	0x3e9d4f19	0.3072441
102	0x3e4a4cec	0.19755906
103	0x3e3943c4	0.18092257
104	0x3e4a87b6	0.19778332
105	0x3d265636	0.04060956
106	0xbd46243c	-0.0483744
107	0xbe2ff0b0	-0.17181659
108	0x3e823e99	0.25438383
109	0x3e646a23	0.22306113
110	0x3e8f7e4c	0.28026044
111	0x3dbdd787	0.09269624
112	0xbc20394e	-0.0097792875
113	0xbcecd4b1	-0.028910013
114	0x3cb2e925	0.021839688
115	0xbe0a7c31	-0.13523938
116	0xbe096f23	-0.13421302
117	0xbe8484aa	-0.25882465
118	0xbe451ae1	-0.19248535
119	0xbe3e4cd8	-0.18584001
120	0x3e046448	0.1292888
121	0x3ffeb974	1.9900346
122	0x3ea3a5fc	0.31962574
123	0xbe0f1c10	-0.13975549
124	0x3f2d6808	0.67736864
125	0x3e028ace	0.12748262
126	0x3e10930d	0.14118595
127	0xbdd94d1f	-0.10610413
128	0x3c9aed31	0.01891193
129	0x3da96f93	0.08273234
130	0xbc8c0978	-0.017094359
131	0xbdb44c99	-0.08803672
132	0xbde94634	-0.11390343
133	0xbe7e6d62	-0.24846414
134	0xbed61e93	-0.418202
135	0x3d9b916a	0.07596095
136	0x3d7d05bc	0.061773047
137	0x3ce36e25	0.027762482
138	0xbc39b519	-0.011334681
139	0xbd31456f	-0.043279108
140	0xbdeef4c6	-0.116677806
141	0xbdb3a52c	-0.087717384
142	0xbdb740aa	-0.089478806
143	0xbda11551	-0.07865394
144	0x3bd9ef05	0.006650808
145	0xbdc859b0	-0.097827315
146	0xbe91c4b1	-0.28470376
147	0x3e82d5f0	0.25553846
148	0x3f13996a	0.57655966
149	0x3d72f094	0.059311464
150	0xbd2f9931	-0.042870704
151	0x3ea2ce7b	0.31798157
152	0xbdbebfea	-0.093139485
153	0x3dacea16	0.08443086
154	0xbd701bb9	-0.05862019
155	0xbbd241d5	-0.006416539
156	0x3d296e00	0.04136467
157	0x3d219e34	0.039457515
158	0x3c6618da	0.014044011
159	0xbd31cb0f	-0.043406542
160	0xbdaf084e	-0.08546506
161	0xbe2ba4ee	-0.16762134
162	0xbd75fcf5	-0.06005569
163	0xbd762542	-0.060094126
164	0xbd7652db	-0.06013761
165	0xbd760937	-0.06006738
166	0xbd762177	-0.06009051
167	0xbd762076	-0.06008955
168	0xbd75da3d	-0.06002258
169	0xbd75da90	-0.06002289
170	0xbd75ed7e	-0.060040943
171	0xbd767e6f	-0.06017917
172	0xbd76b8bf	-0.06023478
173	0xbd75faad	-0.060053516
174	0xbd76b90b	-0.060235064
175	0xbd79db53	-0.06100018
176	0xbd767168	-0.060166746
177	0xbd76225d	-0.060091365
178	0xbd769deb	-0.060209196
179	0xbd765358	-0.060138077
180	0xbd768947	-0.06018951
181	0xbd7657b3	-0.06014223
182	0xbd75e390	-0.060031474
183	0xbd761a15	-0.060083468
184	0xbd7605fe	-0.06006431
185	0xbd7573dc	-0.059924945
186	0xbd75df90	-0.06002766
187	0xbd75c9f3	-0.060007047
188	0xbd754928	-0.05988422
189	0xbd769f7e	-0.060210697
190	0xbd76def7	-0.06027123
191	0xbd771a99	-0.0603281
192	0xbd769bf6	-0.06020733
193	0xbd76d082	-0.060257442
194	0xbd76e5c9	-0.060277734
195	0xbd763742	-0.06011129
196	0xbd765ed8	-0.060149044
197	0xbd768916	-0.06018933
198	0xbd76f6c2	-0.06029392
199	0xbd77986b	-0.06044809
200	0xbd76d214	-0.06025894
201	0xbd770708	-0.06030944
202	0xbd799d59	-0.060941074
203	0xbd773696	-0.06035479
204	0xbd7640c2	-0.06012035
205	0xbd76fbdd	-0.06029879
206	0xbd76cdd6	-0.060254894
207	0xbd76bad4	-0.060236767
208	0xbd76c88e	-0.060249858
209	0xbd76a17b	-0.060212594
210	0xbd764e66	-0.06013336
211	0xbd768414	-0.060184553
212	0xbd765315	-0.060137827
213	0xbd75f904	-0.060051933
214	0xbd762d98	-0.060102075
215	0xbd75fd98	-0.0600563
216	0xbd74b968	-0.05974713
217	0xbd74b857	-0.059746113
218	0xbd74b67e	-0.05974435
219	0xbd74677b	-0.059669
220	0xbd749191	-0.059709135
221	0xbd748192	-0.05969388
222	0xbd740a38	-0.059580058
223	0xbd743afd	-0.059626568
224	0xbd74628a	-0.059664287
225	0xbd760052	-0.0600589
226	0xbd74f424	-0.059803143
227	0xbd744f4c	-0.059645936
228	0xbd75dc9b	-0.06002484
229	0x3f664e27	0.89963
230	0xbd74a618	-0.05972871
231	0xbd750a14	-0.059824064
232	0xbd74634e	-0.059665017
233	0xbd74e39a	-0.05978737
234	0xbd76476d	-0.06012671
235	0xbd75cd16	-0.06001004
236	0xbd74c14b	-0.05975465
237	0xbd759ba7	-0.059962895
238	0xbd7546fb	-0.059882145
239	0xbd74159a	-0.059590913
240	0xbd752339	-0.059848044
241	0xbd74dace	-0.05977898
242	0xbd73f72c	-0.059561893

bias f4 [3]
0	0xbda7c863	-0.081925176
1	0x3d621d48	0.055203706
2	0x3d75fcdf	0.06005561

weight f4 [3]
0	0x3ebb41d9	0.36573675
1	0x3f4fc80e	0.81164634
2	0x3f0864ad	0.5327862

bias f4 [3]
0	0xbf61351e	-0.87971675
1	0x3f45fa0a	0.77334654
2	0xbdd382dc	-0.10327694

running_mean f4 [3]
0	0xbfc30410	-1.5235615
1	0x3dc88af3	0.097921275
2	0x3e31b1a2	0.17352918

running_var f4 [3]
0	0x41160412	9.375994
1	0x40236d3a	2.5535417
2	0x3fcdca27	1.6077317

weight f4 [3, 3, 3, 3, 3]
0	0x3db2fd44	0.08739713
1	0xbd8ba270	-0.06818092
2	0xbe5004e8	-0.20314372
3	0x3d9cb33d	0.076513745
4	0xbdb621de	-0.088931784
5	0xbe0b0e48	-0.13579667
6	0xbe6beaf3	-0.23038845
7	0xbed3c3ae	-0.4136023
8	0xbea2b34e	-0.31777424
9	0x3e11ac9b	0.14226
10	0x3d8edf0c	0.069761366
11	0xbd80fbdc	-0.06298038
12	0x3e067796	0.13131556
13	0x3f80d141	1.0063859
14	0x3c88454b	0.016634604
15	0xbde3e682	-0.1112795
16	0xbe4693fd	-0.1939239
17	0xbe515e41	-0.20446111
18	0x3c139213	0.009006995
19	0xbd6643c9	-0.05621699
20	0xbdedecd6	-0.116174385
21	0xbbb0cc0c	-0.005395418
22	0xbce91e79	-0.028456913
23	0xbd9112eb	-0.070836864
24	0x3d678aa2	0.056528695
25	0x3cae7bad	0.021299208
26	0xbd3c5b10	-0.04598528
27	0x3ef80f3d	0.48449126
28	0x3f34c70e	0.70616233
29	0x3f3b5d7b	0.73189515
30	0x3ecf5788	0.4049647
31	0x3f1c0bb0	0.60955334
32	0x3f48a32c	0.7837398
33	0xbe1d995f	-0.15390538
34	0x3d04c69c	0.03241597
35	0x3edb6df9	0.4285734
36	0x3f037c8e	0.5136193
37	0x3f5a1ee9	0.85203415
38	0x3f550dc9	0.8322416
39	0x3f02a5eb	0.5103442
40	0x3f8c05d0	1.0939274
41	0x3f9b1eb5	1.2118746
42	0xbd44816b	-0.047974985
43	0x3ec0abe2	0.37631136
44	0x3f25a0a2	0.6469823
45	0xbdfda8c5	-0.12385706
46	0xbdbb5581	-0.09147168
47	0xbadf5fa4	-0.0017042053
48	0xbdaa9ddd	-0.08330891
49	0x3d5aa2a4	0.053377762
50	0x3e4b047c	0.1982593
51	0x3d89195c	0.0669429
52	0x3e116b81	0.14201166
53	0x3e6a3376	0.22871193
54	0xbe97c9cd	-0.2964615
55	0xbe7229d7	-0.23648773
56	0xbe32edaf	-0.17473482
57	0xbeba5a32	-0.3639694
58	0xbe90ca79	-0.28279474
59	0xbe668c53	-0.22514467
60	0xbe590e24	-0.211968
61	0xbe254c70	-0.1614244
62	0xbe0d068f	-0.13772033
63	0xbe85c772	-0.26128727
64	0xbe3b6ae9	-0.18302502
65	0xbdb3c8e0	-0.08778548
66	0xbea08392	-0.3135038
67	0xbe835f25	-0.25658527
68	0xbe272d05	-0.16325767
69	0xbe39d3f4	-0.1814726
70	0xbdd69983	-0.10478499
71	0xbdd30de3	-0.10305383
72	0xbe7ed53e	-0.24886033
73	0xbe919ac1	-0.2843838
74	0xbe54a02a	-0.20764223
75	0xbe2fb151	-0.17157485
76	0xbe7b9542	-0.24568656
77	0xbe88301f	-0.26599213
78	0xbd3d6559	-0.04623923
79	0xbe0e80a2	-0.13916257
80	0xbe262ce3	-0.1622806
81	0xbe1774ce	-0.14790651
82	0xbca73d8b	-0.020415088
83	0xbe09581f	-0.13412522
84	0x3e30a873	0.17251758
85	0x3e3c0703	0.1836205
86	0x3dfec44b	0.12439784
87	0x3cdb6d3e	0.02678549
88	0x3c71765f	0.0147376945
89	0x3e330ddc	0.17485756
90	0x3e71be8f	0.23607849
91	0x3edf9f0f	0.4367604
92	0xbdae4b11	-0.085104115
93	0x3ea8ad04	0.329445
94	0x3f146663	0.5796873
95	0x3e39b577	0.1813563
96	0xbe37d857	-0.17953621
97	0xbe097bca	-0.13426128
98	0xbe814cb4	-0.25253832
99	0xbe590b94	-0.21195823
100	0xbe9f5037	-0.31115887
101	0xbea58c1d	-0.3233346
102	0xbe295343	-0.16535668
103	0xbe937a1f	-0.28804109
104	0xbea72819	-0.3264778
105	0xbd2463e3	-0.040134322
106	0xbe701d89	-0.23448767
107	0xbea7f948	-0.32807374
108	0xbd0b314c	-0.03398256
109	0xbc990c92	-0.018682752
110	0xbd14d0dc	-0.036331996
111	0xbd66788e	-0.056267314
112	0xbe2f6590	-0.17128587
113	0xbe35c7d8	-0.17752016
114	0xbccb692c	-0.024830423
115	0xbe0bce47	-0.13652907
116	0x3d5f6b74	0.054545835
117	0xbe01e4ff	-0.12685011
118	0x3f2d2675	0.67636806
119	0xbde72153	-0.11285653
120	0xbdbc964d	-0.09208355
121	0x4002887c	2.0395803
122	0x3ddc79bd	0.10765407
123	0xbf16bc14	-0.58880734
124	0xbe922db9	-0.2855051
125	0xbeb121ff	-0.3459625
126	0x3cf8928f	0.030343322
127	0xbdf9e1a3	-0.1220124
128	0x3d692261	0.056917552
129	0xbd76cf2c	-0.06025617
130	0xbddc4942	-0.1075616
131	0xbd24a3f3	-0.040195417
132	0x3d8ad4a0	0.06778836
133	0xbd4eb92b	-0.05046956
134	0x3d86c24e	0.065800294
135	0x3c4166c6	0.011804288
136	0xbe2b7480	-0.1674366
137	0xbecde7c7	-0.40215895
138	0xbcb8ec8d	-0.022573734
139	0xbde752c2	-0.11295082
140	0xbe72e9bf	-0.2372198
141	0xbe1164c9	-0.14198603
142	0xbdf0204b	-0.117249094
143	0xbe0238c1	-0.12716962
144	0xbd932599	-0.071849056
145	0x3d2b395f	0.04180276
146	0x3c924756	0.017856281
147	0xbdbf9cd3	-0.09356084
148	0x3e1c7f1b	0.15282862
149	0x3c99186b	0.018688401
150	0xbe8bf602	-0.27336127
151	0xbe0a1598	-0.134848
152	0xbe81957f	-0.2530937
153	0xbe87d935	-0.26532903
154	0xbea0045d	-0.3125333
155	0xbe02403f	-0.1271982
156	0xbe8766c1	-0.26445583
157	0xbe9d27b7	-0.30694363
158	0xbdc5fff3	-0.09667959
159	0xbe2fb953	-0.1716054
160	0xbe64e9cf	-0.22354816
161	0xbd4d5239	-0.05012724
162	0xbd785d6e	-0.060635976
163	0xbd77b16b	-0.060471933
164	0xbd774b13	-0.06037433
165	0xbd797075	-0.060898263
166	0xbd786bc4	-0.06064965
167	0xbd77cb2d	-0.060496498
168	0xbd78ef4b	-0.060775083
169	0xbd77f444	-0.060535684
170	0xbd777736	-0.060416423
171	0xbd787798	-0.06066093
172	0xbd7a253e	-0.061070673
173	0xbd7843a8	-0.060611397
174	0xbd7a46f1	-0.06110281
175	0xbd84e509	-0.064889975
176	0xbd79b9f8	-0.06096837
177	0xbd790344	-0.06079413
178	0xbd7a3760	-0.061087966
179	0xbd782a71	-0.06058735
180	0xbd76a337	-0.060214248
181	0xbd76ab28	-0.06022182
182	0xbd76be4a	-0.060240068
183	0xbd771a78	-0.060327977
184	0xbd7722cb	-0.060335916
185	0xbd7736ed	-0.060355116
186	0xbd76d422	-0.0602609
187	0xbd766c1f	-0.060161706
188	0xbd76410b	-0.060120624
189	0xbd76d28f	-0.060259398
190	0xbd761ffe	-0.060089104
191	0xbd7622ff	-0.06009197
192	0xbd76e49a	-0.060276605
193	0xbd75de2b	-0.06002633
194	0xbd758afb	-0.059946995
195	0xbd76cb5e	-0.06025254
196	0xbd758a78	-0.059946507
197	0xbd754d75	-0.059888322
198	0xbd766893	-0.060158323
199	0xbd7686db	-0.060187202
200	0xbd769284	-0.060198322
201	0xbd76653e	-0.060155146
202	0xbd7737e3	-0.060356032
203	0xbd7630e9	-0.060105238
204	0xbd762024	-0.060089245
205	0xbd759a3c	-0.059961542
206	0xbd759ed8	-0.05996594
207	0xbd75f376	-0.060046636
208	0xbd7556ec	-0.05989735
209	0xbd75d64d	-0.060018826
210	0xbd75eeb5	-0.060042102
211	0xbd754ccd	-0.059887696
212	0xbd7583d2	-0.059940167
213	0xbd75ea70	-0.06003803
214	0xbd74a717	-0.05972966
215	0xbd74a5ba	-0.05972836
216	0xbd744104	-0.059632316
217	0xbd74e9b6	-0.059793197
218	0xbd74c018	-0.059753507
219	0xbd74224e	-0.059603028
220	0xbd7502b0	-0.059817016
221	0xbd74d55c	-0.059773788
222	0xbd746be4	-0.059673205
223	0xbd7534d6	-0.05986484
224	0xbd74fe6d	-0.05981295
225	0xbd73ff07	-0.059569385
226	0xbd73b293	-0.059496474
227	0xbd74a55a	-0.059728004
228	0xbd7368ca	-0.059426107
229	0x3fabda63	1.3426021
230	0xbd74674f	-0.059668835
231	0xbd73fed9	-0.059569214
232	0xbd741ad6	-0.059595905
233	0xbd74ea4f	-0.059793767
234	0xbd74585a	-0.05965457
235	0xbd749353	-0.05971081
236	0xbd743b1d	-0.059626687
237	0xbd745cf5	-0.059658963
238	0xbd74b8e6	-0.059746645
239	0xbd746374	-0.05966516
240	0xbd748984	-0.059701458
241	0xbd750a66	-0.05982437
242	0xbd74e6a8	-0.059790283

bias f4 [3]
0	0x3d7043ee	0.058658533
1	0x3d9d64b3	0.076852225
2	0x3d75eada	0.060038425

weight f4 [3]
0	0x3ef7c674	0.48393595
1	0x3f89e00f	1.0771502
2	0x3e8dd1b4	0.27699053

bias f4 [3]
0	0x4017874c	2.3676329
1	0x3fc6893c	1.5510631
2	0x3f756f52	0.95872986

running_mean f4 [3]
0	0x41121460	9.129974
1	0x3fcb7652	1.5895483
2	0x3e79eb31	0.24406125

running_var f4 [3]
0	0x42c9f709	100.98249
1	0x40b3c6a3	5.6179976
2	0x402521e0	2.5801926

weight f4 [3, 3, 3, 3, 3]
0	0x3ead5fda	0.3386219
1	0x3eb05e85	0.34447113
2	0x3f009c4a	0.5023848
3	0x3eaeb6e2	0.34123904
4	0x3e813b5a	0.25240594
5	0x3ea679d9	0.32514837
6	0x3eef4f0f	0.46740004
7	0x3e53d953	0.20688371
8	0x3e88400c	0.26611364
9	0x3eb4831f	0.35256287
10	0x3ebc66af	0.3679709
11	0x3e95f7ed	0.29290715
12	0x3f2bf6a8	0.6717324
13	0x3fdbb454	1.7164407
14	0x3f3ac9d6	0.7296423
15	0x3ef8e543	0.48612413
16	0x3f169a5f	0.588293
17	0x3f08c60c	0.53427196
18	0x3efde957	0.49592087
19	0x3eefe0be	0.46851152
20	0x3efd7a9e	0.49507612
21	0x3ed21cb6	0.4103753
22	0x3f15068b	0.5821311
23	0x3f42cfba	0.76098216
24	0x3e9abeaf	0.30223605
25	0x3ee1d577	0.44108173
26	0x3f265dbb	0.6498677
27	0x3dae2576	0.08503239
28	0x3da009f2	0.07814397
29	0x3daba64a	0.083813265
30	0x3e8fa3e4	0.28054726
31	0x3ec12a59	0.3772762
32	0x3eb64e33	0.35606536
33	0x3eaa39d0	0.33247232
34	0x3e990f14	0.29894316
35	0x3eb52ddb	0.35386547
36	0x3ee25ba4	0.4421054
37	0x3f04f24d	0.5193222
38	0x3eaae079	0.33374384
39	0x3f097a9e	0.53702724
40	0x3f76ddaa	0.9643198
41	0x3f66858b	0.9004752
42	0x3e91940b	0.2843326
43	0x3f19a4a7	0.60016865
44	0x3f0d5494	0.5520718
45	0x3ed16b55	0.409022
46	0x3e75c18f	0.23999618
47	0x3e874cc7	0.26425764
48	0x3cb923d1	0.022600086
49	0x3d0633df	0.032764312
50	0x3e471294	0.1944068
51	0x3d92c793	0.07166972
52	0x3df161d0	0.117862344
53	0x3e7a00e0	0.24414396
54	0x3e0dce78	0.13848293
55	0x3e46d08f	0.19415496
56	0x3e9a2f23	0.30114087
57	0x3e2b1ff3	0.16711406
58	0x3e915f86	0.2839319
59	0x3e9b649b	0.30350193
60	0x3ef80d62	0.4844771
61	0x3f19f95e	0.6014613
62	0x3ed568c4	0.41681492
63	0xbcbee088	-0.023300424
64	0xbb398cb4	-0.0028312625
65	0x3c0de064	0.008659456
66	0x3d0acc2f	0.03388613
67	0x3b7a8896	0.0038228384
68	0xbdfbd389	-0.122962065
69	0x3e126bd8	0.14298952
70	0x3e11b727	0.14230023
71	0xbd937452	-0.07199921
72	0x3e462786	0.19351014
73	0xbc99c96a	-0.0187728
74	0x3cf3ca73	0.029759621
75	0x3eb1986f	0.3468661
76	0x3dae3a1d	0.08507178
77	0xbe436841	-0.19082738
78	0x3e69f8b7	0.22848783
79	0x3d2dbbc3	0.04241539
80	0xbe16c42b	-0.1472327
81	0xbd5f496e	-0.054513387
82	0x3d64b072	0.055832334
83	0x3dcdbbf7	0.10045617
84	0x3d895dad	0.0670732
85	0x3d85837e	0.06519221
86	0x3d93960d	0.07206354
87	0x3e21a980	0.15787315
88	0x3dbd554c	0.09244785
89	0x3d9a4ccd	0.0753418
90	0x3e7af63d	0.24507995
91	0x3ea28311	0.3174062
92	0x3d5288bd	0.051399935
93	0x3ee8d6dd	0.45476428
94	0x3f15f401	0.58575445
95	0x3e86ac8c	0.26303518
96	0x3e96237c	0.29323947
97	0x3eab60f5	0.3347241
98	0x3dbfbb3a	0.093618825
99	0x3ce5cff4	0.028053261
100	0xbc2ca063	-0.010536286
101	0xbe67b7c0	-0.22628689
102	0x3e01edb6	0.12688336
103	0x3e34cf9a	0.17657319
104	0xbc705b91	-0.014670269
105	0x3cb6d2e5	0.02231736
106	0x3cc4240a	0.023942966
107	0xbdf3db5c	-0.11907074
108	0x3da2b262	0.0794418
109	0x3e57ef51	0.21087386
110	0x3e5c9e6f	0.21544813
111	0xbbc0dfc3	-0.0058860495
112	0x3d3f5cbe	0.046719305
113	0x3d248c60	0.040172935
114	0x3d64b3f7	0.05583569
115	0x3db66de2	0.08907677
116	0x3d4f4605	0.050603885
117	0xbc85ae34	-0.016318418
118	0x3e8a982c	0.27069223
119	0xbd025eb6	-0.031828605
120	0x3e0d70e7	0.138126
121	0x4017a268	2.3692875
122	0x3f0727c2	0.5279504
123	0xbe5c9bb8	-0.21543777
124	0x3e8ebdd3	0.278792
125	0xbe02c538	-0.12770545
126	0x3ed00656	0.40629834
127	0x3e8971ae	0.26844543
128	0x3dda8787	0.10670381
129	0x3dae9349	0.08524186
130	0x3e404808	0.18777478
131	0x3e43cd1b	0.1912121
132	0x3c2a8848	0.010408469
133	0x3e1ef854	0.15524417
134	0x3e035170	0.12824035
135	0xbe11b6c0	-0.1422987
136	0xbe2c6a35	-0.1683739
137	0xbe1d3e89	-0.15355887
138	0xbecab579	-0.39591578
139	0xbed0dbff	-0.40792844
140	0xbea39ebc	-0.31957042
141	0xbea0797b	-0.31342682
142	0xbe6d0fb2	-0.23150519
143	0xbdf7eaeb	-0.12105354
144	0xbe41c876	-0.18924126
145	0xbe654dd7	-0.22392975
146	0xbe5a8fc3	-0.21343903
147	0xbe984f1c	-0.29747856
148	0xbe95e4a5	-0.29276004
149	0xbe9a46cc	-0.3013214
150	0xbe6cd9bf	-0.23129939
151	0xbe0565ac	-0.13027066
152	0xbe00a18a	-0.12561622
153	0xbc57c72a	-0.013170043
154	0xbdbd89d3	-0.092548035
155	0xbe37c665	-0.17946775
156	0xbe000162	-0.12500528
157	0xbe83d1d8	-0.25746036
158	0xbea606c4	-0.32427037
159	0xbe44f26e	-0.19233105
160	0xbe32a705	-0.17446525
161	0xbe0300c7	-0.12793265
162	0xbd767749	-0.060172353
163	0xbd764e5c	-0.060133323
164	0xbd761b7a	-0.060084797
165	0xbd764c03	-0.060131084
166	0xbd7621fe	-0.06009101
167	0xbd75fe04	-0.0600567
168	0xbd763e34	-0.060117915
169	0xbd762dbd	-0.060102213
170	0xbd76231a	-0.06009207
171	0xbd76243b	-0.060093146
172	0xbd75f7b5	-0.060050685
173	0xbd75a553	-0.05997212
174	0xbd75e862	-0.06003607
175	0xbd7483c1	-0.059695963
176	0xbd755aa8	-0.05990091
177	0xbd75bcb7	-0.059994426
178	0xbd756c37	-0.059917655
179	0xbd7597e9	-0.059959326
180	0xbd7625ef	-0.06009477
181	0xbd760107	-0.060059574
182	0xbd75d2bd	-0.06001543
183	0xbd76230a	-0.06009201
184	0xbd760e53	-0.060072254
185	0xbd75ee19	-0.06004152
186	0xbd761501	-0.060078625
187	0xbd761b5a	-0.06008468
188	0xbd7625ca	-0.060094632
189	0xbd776813	-0.060401987
190	0xbd76db9a	-0.060268022
191	0xbd759337	-0.05995485
192	0xbd76d44b	-0.060261052
193	0xbd764f6c	-0.060134336
194	0xbd754db5	-0.05988856
195	0xbd767f7f	-0.060180184
196	0xbd761027	-0.060073998
197	0xbd75b451	-0.059986416
198	0xbd7666a3	-0.060156476
199	0xbd76ee2e	-0.06028574
200	0xbd75bfb5	-0.05999728
201	0xbd76d01d	-0.060257066
202	0xbd784dfa	-0.06062124
203	0xbd75738d	-0.05992465
204	0xbd769410	-0.060199797
205	0xbd76cbc9	-0.06025294
206	0xbd75c5a7	-0.06000295
207	0xbd75a1f3	-0.0599689
208	0xbd7592ff	-0.05995464
209	0xbd75026b	-0.05981676
210	0xbd757889	-0.059929404
211	0xbd75d8ad	-0.06002109
212	0xbd754f76	-0.059890233
213	0xbd755e54	-0.05990441
214	0xbd75d24a	-0.060015
215	0xbd75c8c9	-0.060005937
216	0xbd75ec62	-0.060039885
217	0xbd760aaa	-0.060068764
218	0xbd75f3de	-0.060047023
219	0xbd75e830	-0.060035884
220	0xbd760c0c	-0.060070083
221	0xbd75e390	-0.060031474
222	0xbd75d0f8	-0.06001374
223	0xbd75dcfb	-0.060025197
224	0xbd75a7cf	-0.059974488
225	0xbd7611c2	-0.06007553
226	0xbd76fe52	-0.060301133
227	0xbd76a6c9	-0.060217652
228	0xbd7603b5	-0.06006213
229	0x3f297634	0.6619599
230	0xbd766f0f	-0.060164507
231	0xbd75cf4c	-0.060012147
232	0xbd75ff7b	-0.0600581
233	0xbd75dda4	-0.060025826
234	0xbd762e24	-0.060102597
235	0xbd765850	-0.060142815
236	0xbd765a47	-0.06014469
237	0xbd76290f	-0.06009775
238	0xbd76511e	-0.060135953
239	0xbd7646bd	-0.060126055
240	0xbd75f270	-0.06004566
241	0xbd760542	-0.060063608
242	0xbd75f20e	-0.060045294

bias f4 [3]
0	0x3ef94c64	0.48691094
1	0x3ef1aa7b	0.4720038
2	0xbd75d9a1	-0.060022

weight f4 [3]
0	0xbe9ba73e	-0.30401033
1	0x3f304f5a	0.6887108
2	0x3e5d15ef	0.21590398

bias f4 [3]
0	0x3f95ac7a	1.1693261
1	0x3f51dbf9	0.81976277
2	0x3d537a4a	0.051630296

running_mean f4 [3]
0	0x4244252f	49.036312
1	0x41374f33	11.456836
2	0xc0e57502	-7.170533

running_var f4 [3]
0	0x434b33e5	203.20271
1	0x428ddc05	70.929726
2	0x409231fa	4.5686007

weight f4 [3, 3, 3, 3, 3]
0	0x3e9d9247	0.30775663
1	0x3ec18f73	0.37804756
2	0x3e8f1f0d	0.27953377
3	0x3f03b272	0.5144416
4	0x3f10aad3	0.5651066
5	0x3f036672	0.51328194
6	0x3ec1fd03	0.37888345
7	0x3ee20c2e	0.44149917
8	0x3edb33cd	0.42812958
9	0x3f1809af	0.59389776
10	0x3f12b0cc	0.5730102
11	0x3f087899	0.5330902
12	0x3f62ee21	0.88644606
13	0x3fed5209	1.854066
14	0x3f45bb3c	0.7723882
15	0x3f2881dd	0.65823156
16	0x3f1d55b2	0.61458886
17	0x3f0bf641	0.5467263
18	0x3e89d639	0.2692125
19	0x3e993930	0.29926443
20	0x3e3c69a9	0.18399681
21	0x3ef752b7	0.48305294
22	0x3f07d08a	0.5305258
23	0x3eda07b1	0.42583993
24	0x3e933842	0.2875386
25	0x3ea9ae16	0.3314063
26	0x3e5d641f	0.21620224
27	0x3d036f23	0.03208841
28	0x3e15e022	0.14636281
29	0x3e34ff54	0.17675525
30	0x3e02b831	0.12765576
31	0x3e3cc175	0.18433173
32	0x3e636e52	0.22210053
33	0x3e5b0345	0.21387966
34	0x3e72a883	0.23697095
35	0x3e3165f2	0.17324045
36	0x3e04e92d	0.12979575
37	0x3e4b650b	0.19862764
38	0x3e673287	0.22577868
39	0x3e500e2d	0.20317908
40	0x3e848ace	0.2588715
41	0x3e85cfa6	0.26134986
42	0x3e5ad918	0.21371877
43	0x3e838c71	0.25693086
44	0x3e74b96f	0.23898862
45	0x3d41d2f3	0.047320317
46	0x3dc59548	0.09647614
47	0x3e1dcb16	0.15409502
48	0x3db33eb4	0.08752194
49	0x3e187eb2	0.1489208
50	0x3e496749	0.19668306
51	0x3de4ec74	0.11177912
52	0x3e27f352	0.16401413
53	0x3e3b4d73	0.18291263
54	0xbe295f77	-0.16540323
55	0xbdc72057	-0.09722965
56	0xbdddcaef	-0.10829722
57	0xbc2514c9	-0.010075756
58	0xbc5d4634	-0.013505507
59	0xbd9d1509	-0.07670028
60	0xbde07f1c	-0.10961744
61	0xbe3346f6	-0.17507538
62	0xbe8c1401	-0.27359012
63	0x3de824bb	0.11335131
64	0x3e5e4eeb	0.21709792
65	0x3e169bbb	0.14707844
66	0x3ea26c66	0.31723326
67	0x3e81c318	0.25344157
68	0x3e6867f4	0.22695905
69	0x3e294a47	0.16532241
70	0x3e48d139	0.19611062
71	0x3d1db11c	0.038498983
72	0xbda1a565	-0.07892875
73	0xbe0d0d4c	-0.13774604
74	0xbe7973f3	-0.24360637
75	0x3e183228	0.14862883
76	0x3d0a2fba	0.03373692
77	0xbe004a4b	-0.1252834
78	0xbd2e8129	-0.042603645
79	0xbde74898	-0.11293143
80	0xbe939e0b	-0.28831515
81	0xbbeb5d43	-0.0071827485
82	0xbe1433da	-0.14472905
83	0x3e2e11ee	0.16999027
84	0xbe53275e	-0.20620486
85	0xbea69f8a	-0.32543594
86	0xbdc56db5	-0.096400656
87	0x3d00f1bd	0.03148054
88	0xbe760761	-0.24026252
89	0xbe94fd99	-0.2909973
90	0xbef24cf4	-0.47324336
91	0xbf6ba3ce	-0.9204682
92	0xbe55b5ce	-0.20870134
93	0xbf1819af	-0.5941419
94	0xbf979870	-1.1843395
95	0xbf281eb6	-0.6567186
96	0x3eb19cd2	0.34689957
97	0xbe888bdc	-0.26669204
98	0xbe8830e2	-0.26599795
99	0xbdef7a2e	-0.11693226
100	0xbef7ee76	-0.4842412
101	0xbdba8465	-0.091072835
102	0xbdc56e91	-0.096402295
103	0xbef1c73e	-0.47222322
104	0xbe262977	-0.16226755
105	0x3e879f2e	0.26488632
106	0xbb144401	-0.0022623541
107	0x3dcae38e	0.09906684
108	0xbd2993c1	-0.041400675
109	0xbe038081	-0.12841989
110	0xbec8a9df	-0.391921
111	0x3e5644aa	0.20924631
112	0x3d54da57	0.051966038
113	0xbd89e47f	-0.06733035
114	0xbec05a25	-0.37568775
115	0xbe93b61e	-0.28849882
116	0x3e9c0a7a	0.30476743
117	0xbe7dc22d	-0.24781103
118	0x3f3095ad	0.6897839
119	0xbf0454e8	-0.51692057
120	0x3e8ec722	0.278863
121	0x402acaee	2.6686358
122	0x3df73468	0.120705426
123	0xbf1c515b	-0.6106164
124	0xbd183200	-0.03715706
125	0xbf0a2b81	-0.5397263
126	0xbeb3aed9	-0.35094336
127	0xbeb36efb	-0.3504561
128	0xbe477d0a	-0.19481292
129	0xbe40dba6	-0.18833789
130	0xbe25ffb2	-0.16210821
131	0xbe30d106	-0.17267236
132	0x3e96662c	0.29374826
133	0x3dbda241	0.09259463
134	0x3d31788b	0.04332785
135	0x3e847fe8	0.25878835
136	0x3d6b260c	0.05740933
137	0xbd90c13e	-0.07068108
138	0xbe09c48e	-0.13453886
139	0xbe6ed099	-0.23321761
140	0xbdf94517	-0.12171381
141	0xbe16c40a	-0.1472322
142	0xbe00c81c	-0.12576336
143	0x3e112530	0.14174342
144	0x3e93c96c	0.2886461
145	0x3e72fa7d	0.23728366
146	0x3e80a2b7	0.25124142
147	0x3de62a73	0.11238565
148	0x3bbcad2f	0.00575795
149	0x3da97e17	0.08276003
150	0x3db386c5	0.087659396
151	0xbcf06e49	-0.029349463
152	0x3dd8c225	0.10583905
153	0xbe889a5c	-0.26680267
154	0xbe1ac4dc	-0.15114158
155	0x3e21c83b	0.15799038
156	0x3c870231	0.016480537
157	0xbe117b4a	-0.14207187
158	0xbc9e6e5d	-0.019339735
159	0x3e2942b3	0.1652935
160	0xbe18aef5	-0.14910491
161	0xbe2058d1	-0.15658881
162	0xbd838fd5	-0.06423918
163	0xbd885143	-0.066561244
164	0xbd84d9e4	-0.06486872
165	0xbd824420	-0.0636065
166	0xbd868de3	-0.065700315
167	0xbd81ec1c	-0.063438624
168	0xbd7ed80e	-0.062217765
169	0xbd83fcbb	-0.06444689
170	0xbd7e972a	-0.06215588
171	0xbd881139	-0.0664391
172	0xbd995501	-0.07486916
173	0xbd8c6f11	-0.06857122
174	0xbd8809a0	-0.06642461
175	0xbdb465ec	-0.088085026
176	0xbd882327	-0.0664733
177	0xbd84bc7e	-0.064812645
178	0xbd8efcc9	-0.06981809
179	0xbd823977	-0.06358617
180	0xbd7c740b	-0.061634105
181	0xbd838421	-0.06421686
182	0xbd7933c0	-0.06084037
183	0xbd7aa1cc	-0.061189458
184	0xbd81665c	-0.063183516
185	0xbd6fd5c9	-0.05855349
186	0xbd75caa1	-0.060007695
187	0xbd7b2d02	-0.06132222
188	0xbd65a0bf	-0.056061503
189	0xbd74e73d	-0.05979084
190	0xbd7551af	-0.059892353
191	0xbd746cce	-0.059674077
192	0xbd753ee7	-0.05987444
193	0xbd75e923	-0.06003679
194	0xbd74ee33	-0.059797477
195	0xbd752ac5	-0.05985524
196	0xbd75a27b	-0.059969407
197	0xbd74eb69	-0.059794817
198	0xbd7641bd	-0.060121287
199	0xbd76c128	-0.060242802
200	0xbd74d52b	-0.059773605
201	0xbd771fb0	-0.060332954
202	0xbd79e90b	-0.061013263
203	0xbd7605a7	-0.060063984
204	0xbd76be19	-0.060239885
205	0xbd77993d	-0.060448874
206	0xbd76145d	-0.060078014
207	0xbd7487f9	-0.059699986
208	0xbd7521d6	-0.05984672
209	0xbd74918b	-0.059709113
210	0xbd74e134	-0.059785083
211	0xbd760917	-0.060067263
212	0xbd75924a	-0.059953965
213	0xbd755cae	-0.05990284
214	0xbd768a5a	-0.060190536
215	0xbd7667d1	-0.0601576
216	0xbd75ac61	-0.059978846
217	0xbd75fc67	-0.060055163
218	0xbd75f33c	-0.06004642
219	0xbd751221	-0.059831742
220	0xbd75759b	-0.05992661
221	0xbd7597d2	-0.05995924
222	0xbd74f56f	-0.059804376
223	0xbd755baa	-0.05990187
224	0xbd759491	-0.059956137
225	0xbd75bdf6	-0.059995614
226	0xbd76764e	-0.060171418
227	0xbd766f73	-0.06016488
228	0xbd75435d	-0.059878696
229	0x3fa5c26d	1.2949959
230	0xbd75dcbe	-0.06002497
231	0xbd752b1d	-0.05985557
232	0xbd74e1fb	-0.059785824
233	0xbd759ed8	-0.05996594
234	0xbd754315	-0.059878428
235	0xbd758cc2	-0.05994869
236	0xbd7585a4	-0.059941903
237	0xbd754b0d	-0.059886027
238	0xbd755b60	-0.059901595
239	0xbd751a5b	-0.059839588
240	0xbd753cae	-0.05987232
241	0xbd752d0b	-0.05985741
242	0xbd74ef46	-0.0597985

bias f4 [3]
0	0x3c078104	0.008270506
1	0xbcd8b59b	-0.026453784
2	0x3d760836	0.060066424

weight f4 [3]
0	0x3f164b22	0.58708394
1	0x3f20ccee	0.628127
2	0x3e6f5f65	0.23376234

bias f4 [3]
0	0xbf8c6dee	-1.0971048
1	0xbf6b1049	-0.91821724
2	0x3e616b85	0.22013672

running_mean f4 [3]
0	0x419f4e0e	19.913113
1	0xc0e79628	-7.2370796
2	0xc05514f3	-3.3294036

running_var f4 [3]
0	0x3ff9a113	1.9502281
1	0x407a2486	3.9084792
2	0x3e99119a	0.2989624

weight f4 [3, 3, 3, 3, 3]
0	0xbeb33783	-0.3500329
1	0xbefe876d	-0.49712697
2	0xbf0d64bc	-0.55231833
3	0xbe2d3342	-0.16914085
4	0xbe9006a1	-0.28130057
5	0xbea70203	-0.32618722
6	0x3d9b798d	0.07591543
7	0xbcd15e5b	-0.025557688
8	0xbd65b127	-0.05607715
9	0xbeef8f70	-0.46789122
10	0xbf0f8a94	-0.5607083
11	0xbf168bb2	-0.5880691
12	0xbe88f2ba	-0.26747686
13	0x3ed32ea6	0.41246527
14	0xbeeb8dfc	-0.46006763
15	0xbca5fa9e	-0.020261105
16	0xbe1d7bbc	-0.15379232
17	0xbe542c2d	-0.20719977
18	0xbea25d18	-0.3171165
19	0xbefa10bd	-0.48840895
20	0xbedc8f5e	-0.4307813
21	0xbe574ea7	-0.21026097
22	0xbeb04c34	-0.34433138
23	0xbea32a4f	-0.31868216
24	0xbcb2a1a1	-0.021805586
25	0xbdf66df0	-0.12032688
26	0xbe08eb26	-0.13370952
27	0x3c6b4e19	0.014361882
28	0xbcca595f	-0.024700819
29	0x3d50389f	0.050835248
30	0x3d58b5e1	0.05290783
31	0xbd2b46e0	-0.04181564
32	0x3d7ba08a	0.0614324
33	0x3e424edc	0.18975395
34	0x3ddec9d1	0.10878337
35	0x3e16c9c7	0.1472541
36	0xbe03fad4	-0.12888652
37	0xbe68d994	-0.2273925
38	0xbe1ee7d2	-0.1551812
39	0xbda73709	-0.08164794
40	0xbe82d3e0	-0.25552273
41	0xbe1db33d	-0.15400405
42	0x3c4ef41b	0.0126314415
43	0xbe1e3b10	-0.15452218
44	0xbda4ae6e	-0.08041082
45	0x3d3d2538	0.046178073
46	0xbc1e2cf8	-0.009654276
47	0x3d5a8602	0.053350456
48	0x3e1aa79c	0.15103
49	0x3d4b8edf	0.0496968
50	0x3db2fa2b	0.08739122
51	0x3e60ba3f	0.21946047
52	0x3dd82b3f	0.105551235
53	0x3de41103	0.11136057
54	0x3e73a672	0.23793963
55	0x3e62445e	0.22096393
56	0x3e8162be	0.25270647
57	0x3e60aa12	0.21939877
58	0x3e5242cc	0.20533293
59	0x3e58c128	0.21167433
60	0x3e9ba8fb	0.3040236
61	0x3e888e1f	0.2667093
62	0x3e93e76a	0.28887492
63	0x3e6e578c	0.23275584
64	0x3e8d3c6e	0.27585167
65	0x3e7fae1b	0.2496876
66	0x3e56ef20	0.20989656
67	0x3e60f078	0.21966732
68	0x3e667321	0.22504856
69	0x3e917a42	0.28413588
70	0x3eb1e7c1	0.34747127
71	0x3eb43fcf	0.35204932
72	0x3e0504f1	0.12990166
73	0x3e0aa1ef	0.13538335
74	0x3e56de24	0.20983177
75	0x3d949d20	0.07256532
76	0x3de39096	0.11111562
77	0x3e07f4ff	0.13277052
78	0x3e652a37	0.22379385
79	0x3e7fc1f7	0.24976335
80	0x3e8b64d4	0.27225363
81	0x3e1bd441	0.15217687
82	0xbbdebee3	-0.006797658
83	0xbe103cd3	-0.14085703
84	0xbd8daaa9	-0.069173165
85	0xbe3bc453	-0.1833661
86	0xbe1cd193	-0.15314321
87	0xbdee7c51	-0.11644805
88	0xbe06253c	-0.13100141
89	0x3e14a3cb	0.14515607
90	0xbda8df60	-0.082457304
91	0xbe181512	-0.14851788
92	0xbe43e5be	-0.19130608
93	0xbe009315	-0.12556107
94	0xbe44ca6b	-0.19217841
95	0xbe15e92b	-0.14639728
96	0xbe199a09	-0.15000166
97	0xbe3eaf3d	-0.18621536
98	0x3ca7b7b0	0.020473331
99	0xbe00285f	-0.125154
100	0xbe481796	-0.19540247
101	0xbdd16f5e	-0.1022632
102	0x3c1edb84	0.009695891
103	0xbe28b730	-0.1647613
104	0xbdf1db11	-0.11809362
105	0x3e9270d7	0.28601715
106	0x3a855732	0.0010173081
107	0x3daa5dd8	0.083186805
108	0xbec41e86	-0.38304538
109	0xbdff1f3c	-0.12457129
110	0xbe1cde3c	-0.1531915
111	0x390dc910	0.0001352171
112	0x3d45f01d	0.048324693
113	0xbde6dd24	-0.11272648
114	0xbe32c283	-0.17457013
115	0xbe4297ea	-0.19003263
116	0xbe3ccbc5	-0.18437107
117	0xbeb83baf	-0.35983035
118	0x3eb5dfe0	0.35522366
119	0xbeb49808	-0.3527224
120	0x3ec86e2c	0.39146554
121	0x401a6ce3	2.412896
122	0x3ebc8792	0.36822182
123	0xbdcfacfb	-0.10140415
124	0x3f0d7993	0.5526363
125	0xbe13bdf6	-0.14427933
126	0xbed9761a	-0.42472917
127	0xbe0df5fe	-0.1386337
128	0xbe57b9b7	-0.21066938
129	0xbe0e1777	-0.13876139
130	0x3e7b2fb6	0.24529919
131	0x3de01554	0.10941568
132	0xbe135201	-0.14386751
133	0x3d34dc63	0.04415549
134	0xbdaafcdc	-0.0834901
135	0x3df6f19f	0.12057804
136	0x3c5420d0	0.012947276
137	0x3e5a8d71	0.21343018
138	0x3ce56e14	0.02800659
139	0xbd57b07c	-0.052658543
140	0x3e227d6d	0.15868159
141	0x3dda3a6a	0.10655673
142	0x3c8b6023	0.017013615
143	0x3e13ac23	0.14421134
144	0x3e1d43d6	0.15357909
145	0xbd0939ff	-0.033502575
146	0x3e269ca3	0.1627069
147	0xbd0c9af9	-0.03432748
148	0xbe1323c2	-0.1436911
149	0x3bc42814	0.005986223
150	0x3da6ff84	0.081542045
151	0xbdaa26cd	-0.08308182
152	0x3d7958c6	0.060875677
153	0x3e624ebb	0.22100346
154	0x3df1aeec	0.11800942
155	0x3e930afc	0.28719318
156	0x3dfc3566	0.123148724
157	0x3cb33a16	0.021878283
158	0x3e02a93f	0.12759875
159	0x3e31a0d2	0.17346504
160	0x3d8e9d1c	0.0696356
161	0x3e1c1d6e	0.15245602
162	0xbd76fbcb	-0.060298722
163	0xbd7718d0	-0.060326397
164	0xbd7704ed	-0.060307432
165	0xbd7705d4	-0.060308293
166	0xbd770680	-0.060308933
167	0xbd76d7f4	-0.060264543
168	0xbd75dcf7	-0.06002518
169	0xbd75e159	-0.06002936
170	0xbd75e34e	-0.060031228
171	0xbd75b031	-0.059982482
172	0xbd75f510	-0.060048163
173	0xbd761e17	-0.06008729
174	0xbd75fe6e	-0.060057096
175	0xbd769c28	-0.060207516
176	0xbd760424	-0.060062543
177	0xbd74c45f	-0.059757587
178	0xbd741974	-0.059594586
179	0xbd748e3c	-0.059705958
180	0xbd75f09d	-0.06004392
181	0xbd75dcbd	-0.060024966
182	0xbd76340c	-0.06010823
183	0xbd765d3a	-0.0601475
184	0xbd76406a	-0.060120024
185	0xbd7648fe	-0.060128205
186	0xbd75cb6e	-0.06000846
187	0xbd756652	-0.059912033
188	0xbd752ff7	-0.059860196
189	0xbd74b755	-0.05974515
190	0xbd763d6e	-0.060117178
191	0xbd765836	-0.06014272
192	0xbd7547f4	-0.059883073
193	0xbd76d004	-0.060256973
194	0xbd76767c	-0.06017159
195	0xbd75836f	-0.059939798
196	0xbd768e75	-0.06019445
197	0xbd7600e7	-0.060059454
198	0xbd75cb53	-0.06000836
199	0xbd76daa8	-0.06026712
200	0xbd754332	-0.059878536
201	0xbd7645d1	-0.060125176
202	0xbd7a086c	-0.061043188
203	0xbd766a0d	-0.06015973
204	0xbd75b916	-0.059990965
205	0xbd77e8e7	-0.060524847
206	0xbd766d9c	-0.060163125
207	0xbd759c1e	-0.059963338
208	0xbd7640c0	-0.060120344
209	0xbd7628f4	-0.06009765
210	0xbd758bb3	-0.05994768
211	0xbd768b9b	-0.060191732
212	0xbd764bcd	-0.060130883
213	0xbd75b1e6	-0.05998411
214	0xbd76c658	-0.06024775
215	0xbd766db5	-0.06016322
216	0xbd737d43	-0.05944563
217	0xbd7358c4	-0.059410825
218	0xbd73583c	-0.05941032
219	0xbd72bb01	-0.059260372
220	0xbd72e21f	-0.059297677
221	0xbd73401f	-0.059387323
222	0xbd73aadb	-0.059489112
223	0xbd73e13a	-0.059540965
224	0xbd743a1c	-0.05962573
225	0xbd73dacf	-0.059534844
226	0xbd7198bd	-0.058983553
227	0xbd7392b2	-0.05946607
228	0xbd732923	-0.059365403
229	0x3fd4baf2	1.6619551
230	0xbd72d180	-0.059281826
231	0xbd74cf76	-0.059768163
232	0xbd735a82	-0.059412487
233	0xbd74bb4b	-0.05974893
234	0xbd7428cd	-0.059609223
235	0xbd73dbba	-0.05953572
236	0xbd7339b3	-0.0593812
237	0xbd744891	-0.059639517
238	0xbd73d873	-0.059532594
239	0xbd73338b	-0.059375327
240	0xbd74ee42	-0.059797533
241	0xbd74be60	-0.05975187
242	0xbd748c49	-0.0597041

bias f4 [3]
0	0xbd4d5f99	-0.050139997
1	0x3dcd6402	0.100288406
2	0xbd75eb77	-0.06003901

weight f4 [3]
0	0x3ed53923	0.41645154
1	0x3f324354	0.69633985
2	0x3ec3bf78	0.38232017

bias f4 [3]
0	0x3f878f29	1.0590564
1	0x3ea0606c	0.31323564
2	0xbdd48278	-0.103764474

running_mean f4 [3]
0	0x410740b5	8.453298
1	0x3fdca308	1.7237253
2	0x404c54fd	3.1926873

running_var f4 [3]
0	0x40f13c94	7.538645
1	0x400491b5	2.0713933
2	0x3e346600	0.17617035

weight f4 [3, 3, 3, 3, 3]
0	0x3e72b1c2	0.23700622
1	0x3e16eee4	0.14739567
2	0x3e3b0cdf	0.18266629
3	0x3d24ccad	0.040234257
4	0xbce88794	-0.028384961
5	0x3d73c36c	0.05951254
6	0x3cf83afc	0.030301563
7	0xbbd1b6cc	-0.006399965
8	0x3e40b760	0.18819952
9	0x3e12bf4b	0.14330785
10	0x3cc59148	0.024117127
11	0x3d51a0fc	0.051178917
12	0x3e099743	0.13436608
13	0x3f893698	1.0719786
14	0xbc855e2f	-0.016280262
15	0x3d3a6cbb	0.04551385
16	0x3b27b376	0.0025589145
17	0x3dccc84b	0.0999914
18	0x3ebc39bc	0.36762798
19	0x3e735584	0.2376309
20	0x3e86af2e	0.26305526
21	0x3e89a71f	0.26885316
22	0x3e471f61	0.19445564
23	0x3e6fd658	0.2342161
24	0x3e9421ef	0.2893214
25	0x3e4f7287	0.20258532
26	0x3e98cb67	0.29842684
27	0x3e1f5cf8	0.15562809
28	0x3e482c75	0.19548209
29	0x3e60e1f6	0.21961197
30	0x3e197dec	0.14989442
31	0x3e25cfc0	0.16192532
32	0x3e837600	0.25675964
33	0x3e46e5d2	0.19423607
34	0x3e6f4584	0.23366362
35	0x3eb5a0fd	0.35474387
36	0x3dc39add	0.09551022
37	0x3e11bfc8	0.14233315
38	0x3e2173c5	0.15766819
39	0x3df805fe	0.12110518
40	0x3d90ec4b	0.07076319
41	0x3e1ec2e3	0.15504031
42	0x3dba43a2	0.09094931
43	0x3dadb571	0.08481873
44	0x3e4773ef	0.19477819
45	0x3e7c0dbf	0.24614619
46	0x3e84dc89	0.25949505
47	0x3e5a5424	0.2132116
48	0x3ea7f07b	0.3280066
49	0x3e97cc0f	0.29647872
50	0x3e659610	0.22420526
51	0x3e89951d	0.26871577
52	0x3e76c99e	0.24100348
53	0x3e637fff	0.22216795
54	0x3e445f14	0.19176894
55	0x3e22c187	0.15894137
56	0x3e2c48ea	0.1682469
57	0x3e0cb6cd	0.13741608
58	0x3df86280	0.121281624
59	0x3e29c897	0.16580425
60	0x3e5ac18c	0.21362895
61	0x3e76d3ae	0.24104187
62	0x3ebfa9d1	0.37434247
63	0x3e97b110	0.29627275
64	0x3e8e7684	0.27824795
65	0x3e433017	0.19061314
66	0x3e3466a5	0.17617281
67	0x3e2fc043	0.17163186
68	0x3dc081b3	0.09399738
69	0x3e7d63fd	0.24745174
70	0x3eaee9b7	0.34162685
71	0x3eeb6365	0.4597427
72	0x3e9a67e8	0.301574
73	0x3e465d22	0.19371465
74	0x3e2bf49a	0.16792527
75	0x3e38ff08	0.18066037
76	0x3b8e053c	0.00433412
77	0x3d47177e	0.04860639
78	0x3e8d0092	0.27539498
79	0x3e6999f7	0.22812639
80	0x3e88b512	0.26700646
81	0x3cc42a6b	0.023946008
82	0xbcf2e2b4	-0.029649116
83	0x3d0e6b28	0.03477016
84	0x3d999691	0.074994214
85	0xbb84f2ad	-0.0040572495
86	0x3d9d5629	0.07682449
87	0x3db4d069	0.088288136
88	0xbd021345	-0.031756658
89	0x3c567a64	0.013090704
90	0x3d7e97f1	0.06215662
91	0x3d637f96	0.055541597
92	0x3e0c1fa8	0.13683951
93	0x3c71586f	0.014730557
94	0xbd11719f	-0.03550875
95	0x3daa824b	0.08325633
96	0x3c5bec14	0.013422985
97	0xbd7cc1a3	-0.061708104
98	0x3c79af1d	0.015239504
99	0x3ccd57b3	0.025066232
100	0x3cf0b5e7	0.029383613
101	0x3dcff4ab	0.101540886
102	0xbcc94427	-0.02456863
103	0xbd871fb3	-0.06597843
104	0x3cd904fb	0.026491633
105	0xbd890052	-0.06689514
106	0xbe14bcb3	-0.14525108
107	0xbd93f711	-0.072248586
108	0xbe90a99d	-0.28254405
109	0xbe62a02f	-0.22131418
110	0xbe438e7c	-0.19097322
111	0x3d81afa6	0.063323304
112	0x3d1d7b7e	0.03844785
113	0xbd1699b5	-0.03676768
114	0x3ddd3f9a	0.10803147
115	0x3c346a92	0.0110117365
116	0xbdb2a023	-0.0872195
117	0xbe95e397	-0.292752
118	0x3da71686	0.08158593
119	0xbf0efe50	-0.558568
120	0x3e52191c	0.20517391
121	0x4004853a	2.0706315
122	0x3e3ed201	0.18634798
123	0xbc9423cd	-0.018083477
124	0x3f30eeea	0.69114554
125	0xbcb97bed	-0.0226421
126	0xbd3f17f8	-0.046653718
127	0xbe34202d	-0.17590399
128	0xbdcbe7d5	-0.09956328
129	0xbe393983	-0.18088345
130	0xbdbb297c	-0.09138772
131	0x3d3f4dc2	0.046705015
132	0xbdad5662	-0.08463742
133	0x3d8dc697	0.06922644
134	0x3d29649c	0.041355714
135	0xbad833c8	-0.0016494924
136	0xbdf55675	-0.11979381
137	0xbd577f54	-0.052611664
138	0xbc49196a	-0.012274126
139	0xbde48bfd	-0.11159513
140	0x3c2b54a8	0.010457195
141	0x3e0cd0b1	0.13751484
142	0x3d493bc2	0.049129255
143	0x3dd58fe2	0.10427834
144	0xbda39e15	-0.07989136
145	0xbe41929c	-0.18903583
146	0xbd2c42f3	-0.042056035
147	0xbdcde93e	-0.10054253
148	0xbe8b6e12	-0.27232414
149	0xbdca817f	-0.09887981
150	0x3d6a0d02	0.05714131
151	0xbe0d23bb	-0.13783161
152	0xbcd935dd	-0.026514942
153	0xbcdaa23c	-0.026688688
154	0xbd8458e2	-0.064622656
155	0xbd290dc1	-0.041272882
156	0xbd105279	-0.035234902
157	0xbe05eb76	-0.13078102
158	0xbd45eef6	-0.048323594
159	0x3cc0bc9f	0.023527442
160	0xbd23bf62	-0.03997744
161	0x3d60c5c1	0.054876093
162	0xbd7564c7	-0.059910562
163	0xbd76355d	-0.060109485
164	0xbd7650a3	-0.060135495
165	0xbd7647d6	-0.0601271
166	0xbd76ed32	-0.0602848
167	0xbd769e5c	-0.060209617
168	0xbd770105	-0.060303707
169	0xbd77313f	-0.0603497
170	0xbd76713f	-0.060166594
171	0xbd75796d	-0.059930254
172	0xbd762878	-0.060097188
173	0xbd764e77	-0.060133424
174	0xbd76781a	-0.06017313
175	0xbd78da5a	-0.06075511
176	0xbd76ae73	-0.06022496
177	0xbd77334e	-0.060351662
178	0xbd77bf34	-0.06048508
179	0xbd767a92	-0.060175486
180	0xbd76e658	-0.060278267
181	0xbd77e234	-0.06051846
182	0xbd781e9b	-0.060576063
183	0xbd77ae92	-0.060469218
184	0xbd78b567	-0.060719874
185	0xbd78aab8	-0.060709685
186	0xbd785775	-0.06063028
187	0xbd78fed6	-0.060789905
188	0xbd7860d3	-0.060639214
189	0xbd74d07c	-0.05976914
190	0xbd75180a	-0.05983738
191	0xbd74983d	-0.0597155
192	0xbd7436d9	-0.05962262
193	0xbd746eed	-0.0596761
194	0xbd7407fd	-0.05957793
195	0xbd73c082	-0.05950976
196	0xbd740565	-0.059575457
197	0xbd73fc97	-0.05956706
198	0xbd751c26	-0.059841298
199	0xbd759af8	-0.059962243
200	0xbd763aa6	-0.060114525
201	0xbd7481f8	-0.05969426
202	0xbd747da2	-0.059690125
203	0xbd75aa8f	-0.05997711
204	0xbd747319	-0.05968008
205	0xbd74c485	-0.059757728
206	0xbd751dad	-0.059842754
207	0xbd753dad	-0.05987327
208	0xbd753f9f	-0.059875127
209	0xbd744830	-0.059639156
210	0xbd74be1e	-0.059751622
211	0xbd74d334	-0.05977173
212	0xbd73dec0	-0.059538603
213	0xbd745c71	-0.05965847
214	0xbd746362	-0.05966509
215	0xbd73ac56	-0.059490524
216	0xbd784e45	-0.06062152
217	0xbd7a4dd5	-0.061109383
218	0xbd78fdce	-0.060788922
219	0xbd7a6194	-0.061128214
220	0xbd7bc867	-0.061470415
221	0xbd795758	-0.060874313
222	0xbd7954b9	-0.060871813
223	0xbd7a130c	-0.06105332
224	0xbd777f35	-0.06042405
225	0xbd797742	-0.06090475
226	0xbd81fab1	-0.06346644
227	0xbd7b8fd1	-0.06141645
228	0xbd7d011f	-0.061768647
229	0xbee11cc4	-0.4396726
230	0xbd7d23e1	-0.061801795
231	0xbd7a6636	-0.061132632
232	0xbd812cb7	-0.06307357
233	0xbd78afb6	-0.060714446
234	0xbd764f29	-0.060134087
235	0xbd78af4c	-0.06071405
236	0xbd78a6bc	-0.060705885
237	0xbd773678	-0.06035468
238	0xbd79b4e7	-0.060963538
239	0xbd78ff4b	-0.06079034
240	0xbd7694aa	-0.06020037
241	0xbd780e69	-0.060560618
242	0xbd7674e1	-0.06017006

bias f4 [3]
0	0x3e0526c7	0.13003074
1	0xbebf1c24	-0.37326157
2	0xbd77ca9c	-0.060495958

weight f4 [3]
0	0x3e47deba	0.19518557
1	0xbe71dee8	-0.23620188
2	0x3f3c5f7d	0.73583204

bias f4 [3]
0	0x3d3a1392	0.04542882
1	0x3f02d2cf	0.5110292
2	0x3d056896	0.032570444

running_mean f4 [3]
0	0x40ca1f4b	6.31632
1	0x3f16d97a	0.5892559
2	0xc0065a34	-2.0992556

running_var f4 [3]
0	0x41d41f4e	26.515285
1	0x3ff593ff	1.918579
2	0x402f8173	2.742276

weight f4 [3, 3, 3, 3, 3]
0	0xbeb5951b	-0.3546532
1	0xbeb782d7	-0.3584201
2	0xbe49a086	-0.19690141
3	0xbeb75b3e	-0.358118
4	0xbedd301a	-0.4320076
5	0xbeb2a67b	-0.3489264
6	0xbd9c4070	-0.07629478
7	0xbe826d5d	-0.25474063
8	0xbe6c6de1	-0.2308879
9	0xbef913bf	-0.48647878
10	0xbead3ce1	-0.3383551
11	0xbe3690e5	-0.1782871
12	0xbef9c996	-0.4878661
13	0x3f1907f5	0.59777766
14	0xbe8d1bb4	-0.27560198
15	0xbe7a8b8a	-0.24467292
16	0xbe784880	-0.24246407
17	0xbe5734b0	-0.21016192
18	0xbf0e1ff7	-0.55517524
19	0xbedc9d58	-0.43088794
20	0xbe832e01	-0.25621036
21	0xbf1870fe	-0.5954741
22	0xbee863f6	-0.45388764
23	0xbeaf5fae	-0.34252685
24	0xbeb613ad	-0.35561886
25	0xbe99c508	-0.30033135
26	0xbe811d6d	-0.25217763
27	0x3cd2a539	0.02571355
28	0x3d660a95	0.056162436
29	0xbd6f2e1c	-0.058393583
30	0x3d0f34bd	0.034962405
31	0x3d04b042	0.032394655
32	0xbd3dba26	-0.046320103
33	0xbc2251c9	-0.009907194
34	0x3a7519eb	0.00093498704
35	0xbd41c7f1	-0.04730982
36	0x3e3493e1	0.17634536
37	0x3e6408e9	0.22269024
38	0x3dd1514a	0.10220583
39	0x3e88b595	0.26701036
40	0x3ea3b6d7	0.31975433
41	0x3e4bb01b	0.19891398
42	0x3e15a79f	0.14614724
43	0x3e83b2f0	0.25722456
44	0x3e34619c	0.1761536
45	0xbdfdb9ad	-0.123889305
46	0xbdfcf222	-0.12350871
47	0xbdc4471e	-0.09583877
48	0x3b1c122a	0.0023814538
49	0xbcfd52ec	-0.03092333
50	0xbd837521	-0.06418825
51	0x3da76578	0.081736505
52	0x3d3f79e5	0.046747107
53	0xbc9870c2	-0.018608455
54	0xbd385e17	-0.045011606
55	0xbe07c4c1	-0.1325865
56	0xbe16c2fb	-0.14722817
57	0xbe26dd95	-0.16295464
58	0xbe35613b	-0.17712872
59	0xbdc56223	-0.09637859
60	0xbd910bd3	-0.070823334
61	0xbc86b4a8	-0.016443565
62	0x3e133bbe	0.14378259
63	0xbe9a49f7	-0.30134556
64	0xbedafdaf	-0.4277167
65	0xbedd920a	-0.4327548
66	0xbee02c56	-0.43783826
67	0xbef24008	-0.47314477
68	0xbeb31d0b	-0.34983096
69	0xbe9f5292	-0.31117684
70	0xbe7e8501	-0.24855424
71	0xbb95aca5	-0.0045677
72	0xbe4cacc7	-0.19987784
73	0xbe9e8ffd	-0.3096923
74	0xbe9bf88e	-0.3046307
75	0xbe82472d	-0.25444928
76	0xbea4fdf3	-0.32224998
77	0xbe573d79	-0.21019544
78	0xbdceb7f5	-0.10093681
79	0xbd53bbdc	-0.05169283
80	0x3e07261f	0.13198136
81	0x3d11de10	0.035612166
82	0xbe9911eb	-0.29896483
83	0xbefca1f8	-0.49342322
84	0x3c90eae9	0.017690139
85	0xbeb08206	-0.344742
86	0xbedd81ba	-0.43263036
87	0xbc6110ed	-0.013736946
88	0xbe7e67ff	-0.24844359
89	0xbe713b8f	-0.23557876
90	0xbe9d7743	-0.30755052
91	0xbe8a7e94	-0.27049696
92	0xbe917568	-0.28409886
93	0xbe6bf8e8	-0.23044169
94	0xbe4c4d94	-0.19951469
95	0xbe40cdef	-0.18828557
96	0xbe712c4f	-0.23552059
97	0xbe36ed76	-0.17864022
98	0xbdeab161	-0.114596136
99	0xbef09a0a	-0.46992522
100	0xbeb3e86d	-0.35138264
101	0xbe6af338	-0.22944343
102	0xbe9f43b9	-0.31106356
103	0xbe4c6494	-0.19960243
104	0xbd9e0277	-0.07715314
105	0xbe245929	-0.16049637
106	0xbc9553eb	-0.018228492
107	0x3dd4ba82	0.10387136
108	0xbdcd2374	-0.10016528
109	0xbe7379c9	-0.23776926
110	0xbd4966c2	-0.049170263
111	0x3d02cf22	0.03193582
112	0xbd06267d	-0.03275155
113	0x3ce83fe7	0.028350784
114	0xbc2022a0	-0.00977388
115	0xbe7fe2e1	-0.24988891
116	0xbeac3972	-0.33637577
117	0xbed1acbd	-0.409521
118	0xbce06907	-0.027393831
119	0xbf4067fa	-0.75158656
120	0x3deec9c4	0.116595775
121	0x40118620	2.2738113
122	0x3e7a8e2b	0.24468295
123	0xbea36bcf	-0.3191819
124	0x3f426b23	0.7594473
125	0xbdeaab66	-0.11458473
126	0x3ea0b080	0.3138466
127	0xbd6eb906	-0.05828192
128	0xbd4513bd	-0.048114527
129	0xbdcca927	-0.09993201
130	0xbe744b8c	-0.23856944
131	0x3b92c9ad	0.004479608
132	0xbe8ea14e	-0.2785744
133	0xbeac1278	-0.3360784
134	0xbdbc3938	-0.09190601
135	0xbdd71ad7	-0.10503166
136	0xbdc2682a	-0.09492524
137	0xbe5effd0	-0.21777272
138	0xbdc65dc9	-0.09685857
139	0xbddac442	-0.106819645
140	0xbe4e564f	-0.20150112
141	0x3b9ed98a	0.00484771
142	0xbbaafcc5	-0.0052181208
143	0xbd9cc4cc	-0.076547235
144	0x3d11cfca	0.035598554
145	0x3ddcab76	0.10774891
146	0x3b86b897	0.0041113603
147	0xbc798a04	-0.015230659
148	0x3ce1b507	0.02755214
149	0xbc6e3bdc	-0.014540639
150	0xbca87865	-0.020565221
151	0x3d9468c4	0.07246545
152	0x3dbcb732	0.09214629
153	0xbdcf4e9b	-0.10122415
154	0x3ca77573	0.020441746
155	0xbc064881	-0.008195997
156	0xbd98672b	-0.07441553
157	0x3d2a5659	0.041586254
158	0x3d419514	0.047261313
159	0xbe1d3b8a	-0.15354744
160	0xbaa30f5d	-0.0012440492
161	0x3d90d211	0.07071317
162	0xbd6acd59	-0.05732474
163	0xbd52b780	-0.05144453
164	0xbd4ca1a3	-0.049958836
165	0xbd4b259d	-0.049596418
166	0xbd3ba89a	-0.045815088
167	0xbd419306	-0.047259353
168	0xbd4c6f33	-0.049910735
169	0xbd4a1749	-0.049338613
170	0xbd54e5ca	-0.051976956
171	0xbd8fa71d	-0.07014296
172	0xbd94e1c1	-0.07269622
173	0xbd87e14b	-0.06634768
174	0xbd8046f0	-0.0626353
175	0xbd860d0a	-0.06545456
176	0xbd8046a1	-0.062634714
177	0xbd6e0dbd	-0.05811857
178	0xbd72867f	-0.059210297
179	0xbd80d6b0	-0.062909484
180	0xbd87fbb6	-0.06639807
181	0xbd8e477d	-0.06947229
182	0xbd8f82de	-0.07007383
183	0xbd81cf05	-0.06338314
184	0xbd8a0b3e	-0.067404255
185	0xbd8ebcf8	-0.06969637
186	0xbd7fab08	-0.062418967
187	0xbd8aed5b	-0.06783553
188	0xbd928f03	-0.071561836
189	0xbd0a393f	-0.033746
190	0xbcca129f	-0.024667082
191	0xbd17e795	-0.03708609
192	0xbd518cd9	-0.051159713
193	0xbd1c8655	-0.038214047
194	0xbd51696e	-0.051125936
195	0xbd38025e	-0.044924133
196	0xbd156efa	-0.03648279
197	0xbd3f79ba	-0.046746947
198	0xbd55fcdb	-0.052243095
199	0xbe20f030	-0.15716624
200	0xbbc6f94e	-0.0060722
201	0xbe090913	-0.13382368
202	0xbed28a7f	-0.4112129
203	0xbdcb6e70	-0.09933174
204	0xbd299b73	-0.041408014
205	0xbe214e89	-0.15752615
206	0xbd0fc505	-0.0351
207	0xbc7df491	-0.015500204
208	0xbc0b0201	-0.0084843645
209	0xbcb822cd	-0.022477532
210	0xbd09e336	-0.03366395
211	0xbd6346a1	-0.05548728
212	0xbd734ffd	-0.059402455
213	0xbd1ae777	-0.0378184
214	0xbd5672ba	-0.052355506
215	0xbd171da6	-0.03689351
216	0xbd72625a	-0.059175827
217	0xbd76119e	-0.060075395
218	0xbd727e40	-0.059202433
219	0xbd76cb36	-0.06025239
220	0xbd7ad2d5	-0.06123622
221	0xbd763894	-0.06011255
222	0xbd76604d	-0.060150433
223	0xbd789060	-0.06068456
224	0xbd7237ff	-0.059135433
225	0xbd79c15b	-0.060975414
226	0xbd85ad00	-0.06527138
227	0xbd79e88a	-0.061012782
228	0xbd7dff60	-0.062011123
229	0x3f2548c7	0.64564174
230	0xbd8220ac	-0.06353888
231	0xbd7a40f1	-0.06109709
232	0xbd8867d3	-0.06660428
233	0xbd7e3181	-0.06205893
234	0xbd71e62d	-0.059057403
235	0xbd78ea53	-0.060770344
236	0xbd75a715	-0.059973795
237	0xbd725935	-0.059167106
238	0xbd7bc0b3	-0.06146307
239	0xbd7a48c4	-0.06110455
240	0xbd6f0b70	-0.058360517
241	0xbd779566	-0.06044521
242	0xbd7541c6	-0.05987718

bias f4 [3]
0	0xbd7c79e3	-0.061639678
1	0xbd7ca874	-0.061684087
2	0x3d762560	0.060094237

weight f4 [3]
0	0x3f199ae2	0.6000196
1	0xbe9844e2	-0.29740053
2	0x3f3a1968	0.72695017

bias f4 [3]
0	0xbea507a2	-0.32232386
1	0xbf02cb3f	-0.5109138
2	0xbdf92e2b	-0.12167009

running_mean f4 [3]
0	0xbf946966	-1.1594665
1	0xbf433a29	-0.7626062
2	0xbf99cb40	-1.2015152

running_var f4 [3]
0	0x41171b8a	9.444223
1	0x3eb318e8	0.3497994
2	0x3f27eba7	0.6559395
