data/video_perturbations/punching_bag/2018-07-23 02:15:40.900206/pert_model.pt (torch_old, 37623 bytes, 54 tensors)

weight f4 [3, 3, 3, 3, 3]
00000000: 9a9e 96bd 0633 73bc c221 37be f1f2 aabd
00000010: ce70 cabb 9216 74bd 4041 7dbe dbe1 e2bd
00000020: b0c4 6dbd 3f52 013d bc90 3e3e 0a23 38bc
00000030: f91e 14bb 68cd aa3f f20e a33d ac3d 63be
00000040: 3e78 0a3d d21a 3c3c 20d3 bebd f978 843c
00000050: 6140 9c3d dc64 09be 89ad 513d b125 cd3d
00000060: a6f9 35be 89dd d23b a93c 553d a234 29bd
00000070: e657 93bd a92d 00bf 5f72 2ebe bb8b 05bd
00000080: 8944 25be 5db6 08bf b1a5 28be f2cc dcbd
00000090: 5367 383c 7886 333d ed95 88be 2553 65bd
000000a0: e559 5b3e cf23 ebbd f439 05bf f930 45be
000000b0: c788 bfbd b898 0abe bedd 9fbd de6b 41be
000000c0: 3b17 2dbe c087 66bd f986 05be 7e13 4ebe
000000d0: e101 ddbd 8e56 13be d2a5 a43d 5aeb 373d
000000e0: 2576 69bd 06ab 1d3e e94f 763d 65f2 98bc
000000f0: 4931 c33c 3cd9 6abd 0369 8fbc 69e7 c33d
00000100: 9fa0 343e d950 09bd 3254 b03d 5942 823e
00000110: 7934 d53d c1b9 f7bc 4d76 353e 7db4 253d
00000120: 23cb 5abd 4370 9ebc b364 6b3c 0103 8fbd
00000130: b602 703d 2871 873d f083 8ebd ddd8 c33d
00000140: c257 8d3d d145 763d 5a1a 763d 2efa 753d
00000150: fa64 763d ca17 763d fef3 753d d25c 763d
00000160: 0e00 763d 6cd8 753d 7cdc 763d 9936 763d
00000170: 6613 763d 0741 6fbd 6f8d 763d 1d9e 73bd
00000180: 7713 793d 7c2a 763d 7ed3 753d fc1f 763d
00000190: 130f 763d 6114 763d 3d1b 763d d809 763d
000001a0: b90f 763d b111 763d 54fe 753d a1f3 753d
000001b0: 888a 763d 8241 763d 0c0a 763d c209 773d
000001c0: 6161 763d 8113 763d ce46 773d 5f62 763d
000001d0: 9204 763d 13d7 793d b990 763d 0246 763d
000001e0: 1d61 74bd 88d2 9d3f b39d 75bd 7998 73bd
000001f0: e7be 793d 79aa 75bd 7c74 763d cc38 763d
00000200: 3423 763d d3ba 763d 905a 763d 9a40 763d
00000210: ce91 763d 564b 763d 5920 763d 6cbf 7a3d
00000220: 1fee 773d 8762 773d 801a 73bd 6a10 72bd
00000230: 946b 74bd 9fc7 73bd 90b9 73bd 7ff3 74bd
00000240: 97ce 74bd 828a 74bd b972 75bd a339 75bd
00000250: 6339 75bd 7f9e 75bd 6225 75bd 7f2f 75bd
00000260: bb9c 75bd d0cf 72bd 4a97 70bd d66d 74bd
00000270: 7956 74bd 8546 74bd cc25 75bd 64a2 71bd
00000280: d9fe 6cbd 15fa 73bd 508f 97bd fb1c d7bd
00000290: 3ec6 49bd 4e87 1bbe 291f 86bc c8df ec3d
000002a0: 8e79 643e 5c38 c03b fc20 b43c 7b78 5cbe
000002b0: 9bb0 9abd a733 30be e02a 83be 3706 023f
000002c0: 8857 0c3f e5fe c5bb 312d 913d 26b8 ac3d
000002d0: c223 d73d 795b 1c3c b2e3 ef3d acb8 2fbd
000002e0: 091e ddbc 2616 013e 5a34 c03d 36da fcbd
000002f0: 0f09 29bb b7f1 ec3d 5307 b13d d36b f83d
00000300: 8ebf b4bd 3981 ef3d 807e 2a3e 7791 cc3d
00000310: c830 5cbe c78f 0bbe 1c6a b8ba 6a5c 8d3e
00000320: fbc3 6abc b628 8ebd 9226 713f 8e86 983f
00000330: 7a82 043e ceba 553e ce6b 5a3d b9ad 3b3e
00000340: 526b 293e 3bf7 0cbd 9d05 533d 3f1b 083e
00000350: 6eaf 183b 97e6 443e 5857 a53c 1b61 23be
00000360: c59e b3b9 b67c 353b 4334 8e3d 615d 35be
00000370: 0ad3 4a3d 30f1 333e 01d2 13be 7184 5fbe
00000380: 7cb2 a6bc 744a 60be 21a9 50bd c308 25be
00000390: de60 73be 21cb c63f 816d 013f afef 15be
000003a0: b01b 6e3d 564c 7b3c 4ad6 193e ec1e 913d
000003b0: 4bda 79bd 53b4 fb3c 5814 a93d 5213 12bd
000003c0: b0fe 9b3d 4ae8 b3bd 5e30 50be
-0.073544696 -0.014843708 -0.17883971 -0.08347119 -0.006177998 -0.059591837 -0.24731922 -0.11078235
-0.058048904 0.031572577 0.186099 -0.011238823 -0.002260147 1.3343935 0.07961835 -0.22191495
0.033806078 0.011481004 -0.09317613 0.016170966 0.07629467 -0.13417381 0.051190887 0.10016955
-0.17771015 0.0064351005 0.052059803 -0.04130996 -0.071945 -0.5006967 -0.17035817 -0.03260396
-0.16139425 -0.53403264 -0.16469456 -0.10781278 0.011255103 0.04382941 -0.26676884 -0.055987496
0.21421011 -0.11481439 -0.52041554 -0.19256963 -0.0935226 -0.1353482 -0.07805966 -0.18888804
-0.16903393 -0.056281805 -0.13039769 -0.20124623 -0.10791374 -0.14388487 0.0803944 0.044902183
-0.056997437 0.15397272 0.060134802 -0.01867027 0.023827212 -0.057336077 -0.017506128 0.09565622
0.17639397 -0.033524368 0.08609809 0.25441244 0.10410399 -0.030239942 0.1772091 0.04045533
-0.053416383 -0.01934064 0.01436727 -0.06982995 0.058596335 0.0661338 -0.06958759 0.09562848
0.06901504 0.060125176 0.060083725 0.060053043 0.060154893 0.06008128 0.060047142 0.060147114
0.060058646 0.06002085 0.060268864 0.060110662 0.060077094 -0.058411624 0.060193475 -0.05947696
0.06080958 0.06009911 0.060016148 0.060089096 0.06007297 0.06007803 0.06008457 0.06006798
0.060073588 0.060075466 0.060057 0.060046796 0.060190707 0.060121067 0.060068175 0.06031204
0.06015146 0.060077194 0.06037026 0.060152408 0.060062952 0.060996126 0.060196612 0.06012536
-0.059662927 1.2329874 -0.059964847 -0.05947158 0.060973074 -0.05997703 0.060169682 0.06011276
0.060092166 0.060236763 0.06014496 0.060120203 0.060197644 0.06013044 0.060089443 0.06121771
0.060529824 0.060396697 -0.059351444 -0.059097685 -0.059672907 -0.059516545 -0.059503138 -0.05980253
-0.059767332 -0.059702404 -0.05992386 -0.05986942 -0.05986918 -0.059965607 -0.059850104 -0.05985975
-0.059963923 -0.059280217 -0.05873803 -0.05967506 -0.05965278 -0.059637565 -0.0598505 -0.05899276
-0.05786023 -0.05956467 -0.074003816 -0.105035745 -0.049261324 -0.15188333 -0.01637228 0.115661204
0.22311994 0.0058660936 0.021988384 -0.21530335 -0.07553216 -0.17207204 -0.2561865 0.50790733
0.5482106 -0.0060423487 0.07088698 0.08433561 0.10504867 0.009543293 0.11713351 -0.042900726
-0.026991861 0.12606105 0.09384985 -0.12346308 -0.0025792753 0.11569541 0.08643975 0.12129941
-0.08825599 0.11694569 0.16649818 0.09988683 -0.21502984 -0.13629065 -0.0014069709 0.2760957
-0.014328952 -0.06941359 0.9419948 1.1916063 0.12940398 0.20872042 0.053325467 0.18327989
0.16544846 -0.034415465 0.051519025 0.13291644 0.0023297924 0.19228588 0.02018325 -0.15955012
-0.00034259833 0.0027692742 0.06943562 -0.17711402 0.04951767 0.17572474 -0.14435579 -0.21827866
-0.02034878 -0.21903402 -0.050942544 -0.16116624 -0.2376742 1.553074 0.50557715 -0.14642213
0.058131874 0.015338024 0.15023151 0.07085976 -0.060999196 0.030725634 0.082558334 -0.035662957
0.07616937 -0.0878454 -0.2033095

bias f4 [3]
00000000: a227 6ebd 56fc 75bd b403 b0bd
-0.058143266 -0.0600551 -0.08594456

weight f4 [3]
00000000: 53da 453e 939a a1bc d12c 563f
0.19321565 -0.019727027 0.83662134

bias f4 [3]
00000000: 2d86 afbe a6e7 1dbd c1c3 473e
-0.34282055 -0.038550995 0.19508268

running_mean f4 [3]
00000000: ef28 133e 5028 76be e6d6 e9be
0.14371084 -0.24038815 -0.45671767

running_var f4 [3]
00000000: 5673 193f 3771 263f fa44 5940
0.59941614 0.650165 3.394835

weight f4 [3, 3, 3, 3, 3]
00000000: afbf 41be 0b91 74be a8dc 14be 89d3 68be
00000010: c941 12be d4f8 f0bd 1663 0dbe 3e45 d5bd
00000020: 11d7 c3bd 85e1 38be 8b66 f7bd 3a13 45bd
00000030: bebc 1dbe b3d8 623f 1af2 8cbd dc30 07be
00000040: dd2d 63bd a1ef adbd 3fb0 0fbe ab3f 85bd
00000050: 4651 06bd ba7e 03be 81e1 e5bc 4e10 1fbd
00000060: 0984 efbd 1cda 1ebd 219d 91bd 2ad4 69bd
00000070: 22a8 333d 641f 0f3d 5c9e c1bd 4490 88bc
00000080: 15dc 41bc b838 c8bd 9eba d7bc cf83 eabc
00000090: 167a acbd 0d91 43bc 5781 0dba 6ba4 c3bd
000000a0: 1049 99bc a79c 4bbc a2aa bbbd a22e e2bc
000000b0: d57b f0bc 6db6 cabd 5073 73bc fbdc 3fbc
000000c0: 8f7c d3bd a41e b4bc 1316 9bbc d482 d6bd
000000d0: 04e7 e9bc eb9e 0ebd a46b 9bbc a569 7f3d
000000e0: cbb5 db3d 8845 1abd 6b94 cbbd 41ef 15bd
000000f0: c386 83bd 32ca 80bd 9e38 2cbd 0779 70bd
00000100: 3248 dfbd 8599 f6bd 6a30 94bd fc69 02be
00000110: 7115 e6bd 7e9f c8bd bb1a 9ebd 7790 dfbd
00000120: 8919 86bd 0b00 59bd 5cd4 e9bc 15df 8cbd
00000130: 50ba 08bc 7cb1 89b9 ab88 9abd ea80 77bc
00000140: 1bef 84bc fef7 773d 5ba7 763d a61f 773d
00000150: 6103 783d 9a13 763d d24a 763d 6242 783d
00000160: c473 763d fbc4 753d f620 7d3d d6a0 763d
00000170: 8ba6 783d 24d3 43bd f654 753d fc30 7abd
00000180: 6db9 8a3d bca9 763d d013 6e3d fda7 793d
00000190: 4f7c 773d 08fe 773d 2369 7a3d 5a62 773d
000001a0: 529c 763d 0a5e 793d ea29 773d 5085 753d
000001b0: 90f4 753d 6bb9 753d e58e 753d 64d0 753d
000001c0: 0367 753d 9b0b 753d 4cc9 753d ea40 753d
000001d0: b8bb 743d 4c7c 743d ba00 753d e1a1 733d
000001e0: 4aab 76bd 3ebb 763f 11a7 77bd b6c3 76bd
000001f0: e17b 6f3d 958d 78bd fb4b 753d 2d4b 753d
00000200: af16 753d 57fe 743d 9705 753d 0889 743d
00000210: 077c 753d 5062 753d 2a1b 753d b3d8 723d
00000220: 7080 753d ae0c 703d 17a4 75bd 40d0 73bd
00000230: a640 79bd 6f01 76bd ca48 74bd 7fef 76bd
00000240: 01e6 75bd 601b 76bd 0f43 77bd e6c5 75bd
00000250: 56df 75bd 4f23 76bd 85ec 75bd a49f 75bd
00000260: 3ccb 75bd fc96 73bd 42d0 72bd 727c 78bd
00000270: 67d9 74bd 4cc9 74bd a23a 76bd 8bc3 74bd
00000280: 970f 6ebd e2a7 75bd 969c 8a3e d7f5 4c3e
00000290: c6e1 323e 7f16 fcbd 15c3 ccbd ee5d f03c
000002a0: 9619 2cbe d75d f7bd a6db 693e cc19 363e
000002b0: eb69 ef3c 94b8 9fbd 6cc5 09be cd44 25bd
000002c0: 6766 fb3d 56ec 3ebe ceaf c5bd 3c56 9c3e
000002d0: 44be 5a3e 5c98 f53d cdc8 bc3d 17e7 29be
000002e0: bb2c fdbd 93b5 ae3d 5f92 48bd f5a1 d2bb
000002f0: 5e6f 623e acfa ebbd 32fc 75bc 1b68 063d
00000300: 22a9 183c 5b82 133e 0c56 0c3e 8ff7 c8bd
00000310: d921 ed3c fb72 243b 5bf3 17be d7fb d8bd
00000320: 3614 c0bc cba7 00bd cf76 24bd ef97 413c
00000330: 2987 dabc 8fde d5bd b019 bdbd 214f 12be
00000340: fe91 d4bc 899c f83c 463f 91bc dd7d 493d
00000350: 0b82 ad3d 5658 47bd 8b94 7dbc 2bde 94bb
00000360: 7596 3ebd 32c2 a6bd 9934 d1bd 758f 4cbd
00000370: 3099 633e 21f8 abbc 4a78 40be 1c13 cabd
00000380: f036 f0bd 39c9 b4bd 4e1e 043e ebb5 62be
00000390: cd31 0b3e cfe9 0340 31ef d73c f968 15be
000003a0: 5b4e 913e 73f4 66be 4d62 edbc e290 ccbd
000003b0: 5cc9 43bd 2a4b 60bd f1d3 a73b 97b6 a2bd
000003c0: cbd7 ecbd 0664 9dbd 5b70 01bd
-0.18920778 -0.23883455 -0.14537299 -0.22736944 -0.14282908 -0.1176621 -0.1380733 -0.104135975
-0.09562505 -0.18054779 -0.120801054 -0.04811404 -0.1540403 0.88611907 -0.06882115 -0.13202232
-0.05546366 -0.08492971 -0.14032076 -0.06506284 -0.032792352 -0.12841311 -0.02806163 -0.03883391
-0.116951056 -0.038782224 -0.07110048 -0.0570871 0.043861516 0.034942046 -0.09454033 -0.016670354
-0.011832257 -0.09776443 -0.026334103 -0.028627304 -0.084217235 -0.011936438 -0.0005397996 -0.095528446
-0.018711597 -0.012427486 -0.09163405 -0.027610127 -0.029355923 -0.09898076 -0.014859036 -0.011710401
-0.10326492 -0.021987267 -0.018931424 -0.10474172 -0.02855254 -0.034819525 -0.018972225 0.06235661
0.10728034 -0.037663966 -0.09940418 -0.036605123 -0.06422188 -0.06288566 -0.04204618 -0.05870917
-0.10902442 -0.12041 -0.07235797 -0.12735742 -0.112345584 -0.09796046 -0.07719942 -0.10916226
-0.06547839 -0.052978557 -0.028543644 -0.06878487 -0.008345202 -0.00026262912 -0.075455986 -0.015106419
-0.016227296 0.06053924 0.060218196 0.060332917 0.060550097 0.060077287 0.060129948 0.060610183
0.060168996 0.06000231 0.061799012 0.06021198 0.060705703 -0.04780878 0.05989548 -0.06108187
0.067736484 0.060220465 0.058124363 0.06095122 0.060421284 0.060544997 0.061135422 0.06039653
0.060207672 0.0608807 0.060342707 0.05994159 0.060047686 0.05999128 0.059950728 0.06001319
0.059912693 0.05982552 0.060006425 0.05987636 0.059749335 0.05968885 0.059815146 0.05948055
-0.060221948 0.9637946 -0.06046206 -0.06024524 0.05846775 -0.0606819 0.059886914 0.059886146
0.059836086 0.05981287 0.059819784 0.059700996 0.059932735 0.05990821 0.05984036 0.05928869
0.05993694 0.058605842 -0.05997094 -0.059524775 -0.06085267 -0.06005996 -0.05963973 -0.060286995
-0.060033802 -0.0600847 -0.060366686 -0.060003184 -0.060027443 -0.060092267 -0.060040016 -0.0599667
-0.060008273 -0.05947016 -0.05928064 -0.060665555 -0.059777644 -0.059762284 -0.06011451 -0.059756797
-0.058120336 -0.05997456 0.2707259 0.20015655 0.17468938 -0.12308978 -0.099981464 0.029341664
-0.16806635 -0.120784454 0.22837695 0.17783278 0.02922531 -0.07798877 -0.13454217 -0.040348817
0.12275391 -0.18644843 -0.09652673 0.30534542 0.21361643 0.11991951 0.09217987 -0.1659206
-0.12362047 0.08530726 -0.048967715 -0.006427998 0.22112796 -0.11522421 -0.015013741 0.032814126
0.009317668 0.14405195 0.137047 -0.09812843 0.028946804 0.0025092948 -0.14838926 -0.1059491
-0.023447137 -0.03141002 -0.040152367 0.011816009 -0.026675778 -0.1044284 -0.09233415 -0.14287998
-0.02594852 0.03034808 -0.017730366 0.0491923 0.08472069 -0.048668228 -0.01547731 -0.004543086
-0.046530206 -0.081425086 -0.1021511 -0.0499415 0.22226405 -0.02099234 -0.18795887 -0.09866926
-0.117292285 -0.08827443 0.12902185 -0.22139709 0.13593216 2.0611455 0.026359173 -0.14590825
0.28380093 -0.22554187 -0.028977538 -0.09988572 -0.047799453 -0.054759182 0.005121701 -0.079449825
-0.11564597 -0.076850936 -0.03160129

bias f4 [3]
00000000: 158d 6b3d 0331 763d 24c3 013d
0.057507593 0.060105335 0.03168024

weight f4 [3]
00000000: 15fa 603e a4ed 293f 2d63 923f
0.21970399 0.66378236 1.1436516

bias f4 [3]
00000000: e9a0 0b3f a0ea 39bf 267f 443f
0.54542404 -0.72623634 0.76756513

running_mean f4 [3]
00000000: 31e5 033f 8ab8 3ebf f6f6 e3bc
0.51521593 -0.74500334 -0.027827721

running_var f4 [3]
00000000: ba29 133f d28b bc3f ae34 6b3f
0.57485545 1.473017 0.9187726

weight f4 [3, 3, 3, 3, 3]
00000000: 7c3f 253d dcbd c6bd 2d07 2cbd a4b4 763b
00000010: 8510 4ebe 976e febd bb4d 623d 8352 11be
00000020: f15e d4bd e1de 00bd 357b 3cbe 648e 85bd
00000030: 0d2d 60bd 5788 163f dcaf e2bd 8c87 683c
00000040: d3f0 41be 07fe a1bd a5b6 67bd 853c 5cbd
00000050: abbc 3d3c 2257 8abd 51a8 31bd 20ab dc3a
00000060: b8bf 803d 2a49 4f3d 220d 133d 182c 193f
00000070: e891 783e 1f48 7e3e ae7c a53e 6e65 803e
00000080: c7a2 ad3e 1c76 9a3e 965b 9b3e 026f aa3e
00000090: 51f2 9a3e 26dd 8d3e 93fc a23e 4778 1f3e
000000a0: ab8c f93d 037e c43e 0b7e 843e d9d7 573e
000000b0: 6abf 303e 3bdb 663e 4c80 8c3e 7573 233f
000000c0: da97 263e 83d9 413e 97b0 cc3e 31e1 7e3e
000000d0: a8c2 853e 7259 9a3e 840c aa3b c69e 323d
000000e0: be61 f63c a815 663d 482b bd3d a65d 2ebc
000000f0: 4b32 8c3d 5b78 2a3e e9ac bf3c 4619 a33d
00000100: 5a84 753d 268c 3f3e 5a51 1f3d a6fb 3e3b
00000110: 7fd3 8c3d 9c25 553d 0dae 6b3e 1591 843e
00000120: 2fdf 4e3e 8cc7 9a3d 7d0a 5a3e b8af 9c3d
00000130: af94 1f3d 8796 133d 98b0 5a3d e3ee 663e
00000140: c66f 273e ccc4 753d 7ed9 753d 68f0 753d
00000150: ebae 753d 8fbc 753d 13e2 753d 93b3 753d
00000160: 97a7 753d e7c6 753d fd2d 763d d0fd 753d
00000170: 9d56 763d 63f9 74bd 06b8 753d 6df9 71bd
00000180: 1d7f 753d 9158 753d d2af 753d dd08 763d
00000190: d50e 763d 8a1c 763d 95fc 753d 54f7 753d
000001a0: 8a03 763d daec 753d ded9 753d 3bd7 753d
000001b0: c7cd 753d 85ff 753d 2515 763d 6966 753d
000001c0: 69c9 753d fee9 753d 3600 753d 5594 753d
000001d0: 24bf 753d 5c2f 753d 1dc9 753d cfe9 753d
000001e0: dbbf 76bd 75f3 513f aa47 76bd 6f86 77bd
000001f0: cf4b 723d cd6c 76bd e059 753d 4f71 753d
00000200: 633e 753d 45b6 743d 3302 753d a9a5 743d
00000210: 3202 753d 7340 753d 262e 753d e63e 763d
00000220: dc58 753d 1aec 733d d430 76bd acc5 77bd
00000230: 4b4d 78bd 931b 76bd dd07 77bd 569a 77bd
00000240: 3bef 76bd eec7 77bd c11c 77bd 3aa0 76bd
00000250: 1aed 76bd a0ae 76bd c57b 76bd 8bd9 76bd
00000260: b2cb 76bd 6f4e 79bd eaca 7bbd 8480 77bd
00000270: 8666 77bd 525b 77bd 4fdb 76bd ef1a 78bd
00000280: e09d 7abd 371d 78bd 9acb 73bd a6a9 c8bc
00000290: 850a 35bd 65ec 2ebe 2b84 c5bd a5b5 c1bd
000002a0: 82c0 aabc 39ec 883b ef36 153c 1efb fdbd
000002b0: 8caa 7bbd 96a9 32bd 1f98 50be 031f e6bd
000002c0: e87d b0bd 212a 75bd 8f80 08bd e2a9 28bd
000002d0: a164 01be e8fc 27bd e716 b13c 52e5 0bbe
000002e0: 5e79 aebd 1a7a 60bd 98a4 113d 68d6 563d
000002f0: 2cd7 ed3b 1e8f d03d a6fd a53b abb8 7dbd
00000300: 0668 05bd a4be e5bd efc6 acbd 8938 1fbd
00000310: ff20 05bd 387c 383b 24cd fdbc ebe6 15be
00000320: 8e1a 24be 0b21 13be 7973 6abe 4ab4 32be
00000330: 8715 75bd 2f80 bfbd fd93 a8bd fbe3 903c
00000340: c550 14bc 09c5 283c 3061 b6bc 4d32 9dbc
00000350: 4997 c93b 47fd 3a3d 9ba9 9d3d 7593 253d
00000360: 8c3c a93c 767d 09be 003a dfbd 593f 263a
00000370: dbe4 463e bb13 bc3c 01f1 24be 7a60 3fbe
00000380: 19ed 89be f19b 75be a720 5d3d 2277 77be
00000390: b4f3 ea3d ce02 1940 7058 953e 1a62 b1be
000003a0: e7ee 1d3e d2d1 72be 1935 0abe e961 37be
000003b0: 69be 7ebd 18a8 99bd 9995 a33d 229a a039
000003c0: ccd3 30be db16 60be 7763 f8bd
0.040343747 -0.097041816 -0.04199903 0.0037644291 -0.20123489 -0.12423437 0.05524991 -0.14191632
-0.10369671 -0.031462554 -0.18406375 -0.065212995 -0.054730464 0.5880179 -0.11068699 0.014192473
-0.18939523 -0.0790978 -0.056570668 -0.053768653 0.0115806265 -0.067549005 -0.04337341 0.0016835667
0.062865674 0.050606884 0.035901196 0.59832907 0.24274409 0.248322 0.32321686 0.25077385
0.33913252 0.30168235 0.30343312 0.33287817 0.30262998 0.27707785 0.31833324 0.15573226
0.121850334 0.3837739 0.25877413 0.21078433 0.17260519 0.22544567 0.27441633 0.6384805
0.16268864 0.1893063 0.39978477 0.24890591 0.26125073 0.30146366 0.0051894803 0.04360845
0.030075904 0.056172997 0.09236771 -0.010642445 0.0684553 0.16647474 0.02339788 0.07963805
0.059940673 0.18705806 0.038895942 0.0029141693 0.06876277 0.05203782 0.23015614 0.2589194
0.20202325 0.07557592 0.21293063 0.07650703 0.038960155 0.036032226 0.05339107 0.22552066
0.16351232 0.060002133 0.06002187 0.060043722 0.059981268 0.059994277 0.060030054 0.05998571
0.05997428 0.06000414 0.06010245 0.060056508 0.060141195 -0.059808146 0.05998995 -0.05907576
0.059935678 0.059898917 0.05998213 0.060067046 0.06007274 0.06008581 0.060055334 0.060050324
0.06006197 0.060040332 0.060022227 0.060019713 0.060010698 0.060058136 0.06007876 0.05991212
0.060006533 0.060037605 0.059814654 0.059955914 0.05999674 0.05985962 0.06000625 0.06003743
-0.06024156 0.8201211 -0.060126938 -0.06043094 0.059154328 -0.060162354 0.059900165 0.059922513
0.05987395 0.05974414 0.05981655 0.0597283 0.059816547 0.059875917 0.059858464 0.06011858
0.059899196 0.059551336 -0.06010516 -0.06049125 -0.060620587 -0.06008489 -0.060310233 -0.06044992
-0.06028674 -0.060493402 -0.060330156 -0.060211398 -0.06028471 -0.06022513 -0.06017663 -0.06026606
-0.060252853 -0.060865816 -0.06147281 -0.060425296 -0.06040051 -0.060389824 -0.060267743 -0.06057256
-0.061185718 -0.060574736 -0.05952034 -0.024494957 -0.044199485 -0.17082365 -0.0964435 -0.09458474
-0.020843748 0.0041785506 0.0091073355 -0.124014124 -0.061441943 -0.04361876 -0.2037053 -0.11236384
-0.08617765 -0.05985463 -0.033325728 -0.041177638 -0.12636043 -0.041012675 0.021617366 -0.13661698
-0.08519243 -0.054803945 0.03555736 0.052450567 0.0072583165 0.101835474 0.0050656376 -0.06194369
-0.032569908 -0.112180024 -0.08436381 -0.038872276 -0.03250217 0.0028150212 -0.030981608 -0.1463887
-0.16025755 -0.14368074 -0.22895612 -0.17451587 -0.059834983 -0.09350621 -0.082313515 0.017686835
-0.00905246 0.010300883 -0.02226314 -0.019189024 0.006152068 0.0456517 0.07698365 0.04042383
0.020658754 -0.13426766 -0.108997345 0.0006341837 0.19423239 0.022958627 -0.1610756 -0.18689147
-0.26938704 -0.23985268 0.053986218 -0.2416654 0.11472264 2.3907962 0.29169035 -0.34645158
0.15423165 -0.23712853 -0.13496818 -0.17908444 -0.062193308 -0.075027645 0.07987518 0.00030632416
-0.17268294 -0.21883719 -0.121283464

bias f4 [3]
00000000: f271 7c3d 790a 76bd e703 5b3d
0.061632104 -0.06006858 0.05347052

weight f4 [3]
00000000: 1378 913e 2c2f c23b a445 cc3c
0.28411922 0.0059260335 0.024935551

bias f4 [3]
00000000: 0be3 43bf 44dd 7a3d e170 d33d
-0.76518315 0.06124617 0.10324264

running_mean f4 [3]
00000000: 40c6 81c0 e056 d1bf ff46 e03e
-4.0554504 -1.6354637 0.43804166

running_var f4 [3]
00000000: 8d36 0641 23fb ca40 a719 c940
8.388318 6.3431563 6.2843814

weight f4 [3, 3, 3, 3, 3]
00000000: 2606 84bd d3c1 83bd 663a 90bd c5d5 79bd
00000010: 8ac3 8dbd 8c69 9fbd 8f91 7cbd ec40 9bbd
00000020: d0ee 51bd fb05 6abd 8db7 55bd 1db3 90bd
00000030: 7d53 65bd f163 7b3f 4d48 8ebd d6f9 58bd
00000040: c2da 93bc b0c9 4cbd ef32 9dbd f9c5 febc
00000050: bd0c 81bd 25a5 92bd e5ac bdbc f665 0dbd
00000060: 649a 83bd f002 16bc 7224 4fbc 4d17 7bbc
00000070: 5cff 803c e483 4e3d fcea 3fbc e4e6 923c
00000080: 6151 6b3d cd1f e3bb 49bd a03c 7134 533d
00000090: 6716 e3bc bc3b 14bd 3b8c 1ebc b208 c2bc
000000a0: a141 d2bc 408d e7b9 9ebd 97bc 3101 c33b
000000b0: 4043 80bb e042 923b e5b7 183d 5624 863d
000000c0: 2626 ee3b 9d0a 433d 39ff 983d 1c8f 9a3b
000000d0: 181f 343d af00 fb3c e3a8 8dbd 722c 3bbe
000000e0: a019 08be 6f4f c0bd 0035 83be b239 a5bd
000000f0: 5458 40bc 411a a6bd c2b9 303d 9faa 8fbe
00000100: 7fc8 febe a95a 98be 6f3a b1be c6de 06bf
00000110: 4112 31be e3ba b7be 81c5 e5be f672 56be
00000120: 97b8 1bbe b85b b8be 053a 0abd ec5f 49be
00000130: 2103 cdbe c280 463c d56e 17be e561 acbe
00000140: 7195 a7bd 0997 753d 4fc1 753d a298 753d
00000150: 3460 753d fb84 753d 2536 753d 8f25 753d
00000160: 8754 753d 6d0d 753d fc3c 753d ee69 753d
00000170: 91f2 743d b943 85bd 790e 743d ff41 8cbd
00000180: 2d16 723d 9060 743d 1c6b 713d 493b 753d
00000190: 414c 753d e016 753d d603 753d fb0c 753d
000001a0: 8dcc 743d cc3c 753d 9254 753d a14b 753d
000001b0: 80a0 753d 3980 753d f8e1 753d 8188 753d
000001c0: 104a 753d b80b 763d c57b 753d 8c21 753d
000001d0: c411 763d 2f1a 723d 325a 733d 72cb 733d
000001e0: 8c13 79bd 0cdb 443f ab98 77bd 0252 7bbd
000001f0: 6305 653d 9f6e 78bd 0c8a 753d f35b 753d
00000200: cafc 753d 898b 753d 5d4f 753d e356 763d
00000210: 8cd4 753d a59d 753d fa46 763d 0f1c 863d
00000220: 6541 813d 55c4 823d ebd5 48bd 3e2e 56bd
00000230: 7dcf 46bd 4b69 49bd ff4f 51bd 0fcf 4bbd
00000240: cc43 81bd 61d8 90bd 2d38 82bd 9c63 7fbd
00000250: 9a11 88bd e525 7ebd 53eb 7abd 480f 85bd
00000260: 9837 7cbd 2828 89bd 8293 f1be 74b2 52bd
00000270: d7e7 80bd 6254 94bd 7618 70bd 39aa 293d
00000280: 62e0 083d 12c5 56bd c315 5c3d 44c8 953e
00000290: 3996 ab3e dbbe 853d 1c0b 963e 84fd cc3e
000002a0: 423a bf3d 0f10 623e 43a1 943e 96ff 0b3e
000002b0: 9556 b23e 400d c03e 1e44 133e b30c a43e
000002c0: c1e4 bc3e 19ca e93d 7e2e 673e beb7 7f3e
000002d0: c60d e93d 42d3 853e 4ddc 6b3e 96b5 c63d
000002e0: 0f6f 753e 231f 613e f156 b93d 8ac0 303e
000002f0: 9a03 143e 6a9b e03c bbdb 0f3d 1213 593d
00000300: 9a04 e8bb 1c20 d1bc 9a0d bc3b aceb 68bb
00000310: 230d 1ebc c3ad 463c c0a7 a8bc 796b 8abc
00000320: 2832 d4bc 2864 4bbd 6835 2fbd 01de aabd
00000330: 1a6c 323c c228 69bb 933b 26bd 5344 013c
00000340: a85c ec3c 7297 1d3d e998 4abc 8bbf 1c3c
00000350: 7821 563c 2d10 ce3b 26b2 f43c b156 023d
00000360: c683 c83d 34da 07be 36fc 123d c1fb 833b
00000370: ff4a 81bd 6d78 f0bc 62db 1d3d c1e5 e5bd
00000380: a3b7 9fbd b654 80bd be7e 4abd e2a2 a6bd
00000390: 5871 7ebd 5323 843f 74c6 3cbd 312b 97bd
000003a0: a0c8 49bd 3827 9ebd 9dfe 1dbd 3b7e a5bd
000003b0: 2029 e4bc 7f21 8dbd d428 eabd af46 8abd
000003c0: ef7c 883b ce6e aabd 6fe3 573d
-0.06446485 -0.064334534 -0.070423886 -0.060994882 -0.06922062 -0.07783803 -0.061662253 -0.07580742
-0.05125314 -0.05713461 -0.052177 -0.07065413 -0.055987824 0.98199373 -0.06947384 -0.052972637
-0.018048648 -0.04999703 -0.076757304 -0.03110026 -0.06301258 -0.07160405 -0.023153732 -0.034521066
-0.06425932 -0.009155974 -0.012642967 -0.01532538 0.015746765 0.05041875 -0.0117137395 0.017932363
0.057450656 -0.006931281 0.019621508 0.051563684 -0.027720643 -0.03618978 -0.009676988 -0.023685787
-0.02566606 -0.00044164993 -0.018523034 0.0059510698 -0.003914267 0.0044635385 0.03728475 0.06549899
0.0072677312 0.047617543 0.07470555 0.004716767 0.043974966 0.030639974 -0.06916978 -0.18278673
-0.13291025 -0.09390151 -0.25626373 -0.08067645 -0.011739809 -0.08110476 0.043145902 -0.2805986
-0.4976234 -0.29756668 -0.34614894 -0.52683675 -0.1729212 -0.3588477 -0.44877246 -0.20942292
-0.15207134 -0.36007476 -0.033746738 -0.19665498 -0.4004145 0.012115659 -0.14788373 -0.33668438
-0.081828006 0.05995849 0.059998807 0.059960015 0.0599062 0.059941273 0.05986609 0.05985027
0.059895065 0.059827257 0.059872612 0.059915476 0.05980164 -0.06507058 0.059584115 -0.06848525
0.05910318 0.0596624 0.058940038 0.05987099 0.059887175 0.05983627 0.05981811 0.059826832
0.059765387 0.059872434 0.059895106 0.05988658 0.059967518 0.059936736 0.060029954 0.059944633
0.059885085 0.06006977 0.05993249 0.059846446 0.060075536 0.059107002 0.05941219 0.059520192
-0.060809657 0.7689674 -0.06044833 -0.061357506 0.05591334 -0.06065237 0.059946105 0.059902143
0.06005553 0.059947524 0.05989014 0.060141455 0.060017154 0.059964795 0.060126282 0.065483205
0.06311301 0.063851036 -0.049032133 -0.052290194 -0.04853772 -0.04917268 -0.05110168 -0.049758013
-0.06311759 -0.07072521 -0.06358371 -0.062350854 -0.06643982 -0.062047858 -0.06125958 -0.06497055
-0.061576456 -0.06697112 -0.47182852 -0.051439717 -0.0629422 -0.07242657 -0.058617078 0.041422103
0.033417113 -0.052434035 0.05373169 0.29254353 0.33513048 0.065305434 0.2930535 0.40037167
0.09337284 0.22076438 0.29029283 0.13671717 0.34831682 0.3751011 0.14381453 0.3204094
0.36893275 0.114155 0.22576329 0.24972436 0.1137958 0.2613774 0.23033257 0.097026035
0.23968147 0.21984534 0.09049786 0.17260948 0.14454499 0.027417857 0.03512166 0.052996702
-0.0070806267 -0.025528006 0.005738926 -0.0035540862 -0.009646687 0.012126389 -0.020587802 -0.01689695
-0.025902823 -0.049656063 -0.04277554 -0.08343125 0.010890031 -0.0035577272 -0.04058416 0.007889825
0.028852776 0.038474508 -0.012365558 0.009567152 0.013069503 0.0062885494 0.029870104 0.031820957
0.09790759 -0.13266832 0.03588506 0.004027814 -0.063131325 -0.029354298 0.038539298 -0.11225463
-0.07798698 -0.06266157 -0.049437277 -0.08136536 -0.06211981 1.032328 -0.046087697 -0.07381285
-0.049263597 -0.07722324 -0.038572896 -0.08080717 -0.027851641 -0.068911545 -0.114335686 -0.06751763
0.004165284 -0.083219156 0.052707132

bias f4 [3]
00000000: 22a4 ae3e eade 763d 7e45 f93d
0.34109598 0.06027118 0.12171458

weight f4 [3]
00000000: 596e f53e 8254 503d 40a4 a33f
0.4793575 0.050861843 1.27845

bias f4 [3]
00000000: edd0 d1be e3a7 1ebe dfb4 2a3f
-0.4097971 -0.15493731 0.6668224

running_mean f4 [3]
00000000: 81f9 7dbe 7a18 bb3c b137 ab3d
-0.2480221 0.02283882 0.08360232

running_var f4 [3]
00000000: 357a e73b d0c8 8b3a d7e1 593b
0.0070641288 0.0010664705 0.0033246183

weight f4 [3, 3, 3, 3, 3]
00000000: 7288 52be f31f 80be 33d7 5cbe b3b3 0bbe
00000010: d1dc edbd 8a39 01be edfa 81bd dc93 cdbd
00000020: 14f8 e6bd 3c57 3ebe e571 0ebe 85ba 0dbe
00000030: 2cd9 0ebe 1937 723f b398 c3bd 516b d2bd
00000040: 6867 f5bc 9d55 f1bd e3f8 d2bd ff67 c9bc
00000050: 1b67 57bd 266e 98bd f8e1 c93c 3098 edbb
00000060: 3950 74bd b723 eb3c b4e2 2d3c 7d8d afbe
00000070: 70e2 acbe 7667 47be 6b0e b7be d0e0 a2be
00000080: 8239 77be 767e 7fbe d190 87be f50f 6cbe
00000090: 6c33 3bbe aa69 4dbe 654d febd 7d2a 65be
000000a0: 72ee 66be 5ded 53be d5b8 08be fbb2 18be
000000b0: 667c 2fbe 3dca 99bd a912 80bd b96a bebc
000000c0: 2a08 babd ffac dcbd 0a23 b1bd 46fd 27bc
000000d0: dd52 51bd a418 8fbd 6317 a7bd 98b1 6ebe
000000e0: 768e 20be 5b5b 16bc ee56 84be a4ec 5ebe
000000f0: 919c 213e d002 c7bd bc43 ccbd 8881 c5bd
00000100: 5902 70be 8282 43be d62a 0dbe 93b6 b5be
00000110: 2e50 95be 2f80 afbd ee18 90be 0eab 7abe
00000120: 46fe 7fbd 41ef 2fbe 9583 a3bd d5ac 20bd
00000130: b68f 53be 34ed c6bd 95cc c33d 9952 7fbd
00000140: 4961 9c3c e01f 713d e546 723d 15c5 723d
00000150: 5a80 6e3d 5cc0 723d bf98 703d d075 6e3d
00000160: 5fc7 703d 8c13 6e3d 0dec 733d c9ba 793d
00000170: 7f3c 783d 58f7 6bbd 873a 843d d08f 54bd
00000180: ca1c 753d 0527 7d3d 8af6 7a3d 0d61 713d
00000190: 62f5 723d 8222 713d db9d 723d ed6d 743d
000001a0: 93d8 6f3d dd90 743d f278 753d 7690 743d
000001b0: f279 6f3d 08a8 6f3d e857 6f3d 378b 6a3d
000001c0: bcc1 6c3d eacd 683d 18a1 683d a88d 6b3d
000001d0: 111c 673d 2507 5f3d b65c 6b3d 7639 603d
000001e0: 823a 82bd c81b 663f 1e80 84bd c501 87bd
000001f0: 42cd 3e3d aa55 87bd a7ab 6e3d c492 6e3d
00000200: 13a6 6c3d 4948 6a3d 5feb 693d 52de 653d
00000210: e9c5 6e3d 2a38 6e3d fe49 6e3d c54a 733d
00000220: 5d69 733d 1f0a 703d c97f 74bd 262b 82bd
00000230: 581b 85bd 906c 70bd 19c0 77bd cf9b 7ebd
00000240: 6211 80bd d3f8 88bd 310f 80bd 1641 7cbd
00000250: ff9c 83bd 86ae 7dbd af7d 77bd 67a6 80bd
00000260: c7bf 7abd c071 71bd 6f88 b6bd 0dd1 81bd
00000270: d3a7 7abd faad 88bd 1956 7fbd 2815 43bd
00000280: 5ea2 413d e793 aabd 5b52 173d 9d3f 793d
00000290: 7a8a 9fbc 4096 523d 0f1c fbbb ceba 66bc
000002a0: 8cf4 c93d 52c1 903d 9676 2a3d 037a ba3d
000002b0: 04ba d23c 3943 a8bd d576 903d 74fd 24bd
000002c0: 855e d0bd c3d6 d03c ee5f 43bd 23b3 15be
000002d0: c9e7 c03c 22ec 953d 4cd1 14bc 8897 673c
000002e0: 4345 b33d f261 923c ecd1 343c e757 323d
000002f0: cfe6 5abd 2040 0dbe 864a a03d d34d 6fbd
00000300: 92b4 b9bd cdee d538 ca96 7e3d 7806 06be
00000310: 5c58 d4bd 965f a3bd 9f43 003c d884 ca3d
00000320: e1d0 0ebe d520 9c3d 095c 283e bc3f 44bd
00000330: fc10 973d 6639 053e e770 b4bd b5f9 e6bd
00000340: 8dbd b8bd 5a2a 81be a6ec dbbb 5a82 da3d
00000350: 799c 21bd 3acc 15bd f696 ee3d f597 c3bd
00000360: 7739 83bd aeac f7bc bed5 39be a479 7bbb
00000370: c7a6 643e 5e46 89bc 23be f9bd aeb5 323e
00000380: 926a cc3d cada 12be c40e a63d e0ee 0dbf
00000390: 5498 1b3e 6407 e23f cd11 63bd 7392 7abe
000003a0: 9028 9e3e 2728 6abe 9c43 65bd 71f3 62be
000003b0: a96d 68be 523d 94bc 9431 79bd f2da d9bd
000003c0: c1ea 2dbd 81a8 2fbd ecb2 b7bd
-0.20559862 -0.25024375 -0.21566467 -0.13642769 -0.11614383 -0.12619606 -0.063466884 -0.100379676
-0.11277786 -0.18587965 -0.13910635 -0.13840683 -0.13950032 0.9461532 -0.095506094 -0.10274375
-0.029956535 -0.117839076 -0.103013776 -0.024585722 -0.052588563 -0.07442884 0.024643883 -0.007250808
-0.05964682 0.028703554 0.010613132 -0.34287634 -0.33766508 -0.19473061 -0.35753188 -0.31812143
-0.24143031 -0.24950585 -0.26477674 -0.23052962 -0.18281335 -0.20059839 -0.124171056 -0.22379489
-0.22551897 -0.20696016 -0.13351758 -0.14912026 -0.17137298 -0.07509277 -0.06253559 -0.023244249
-0.090835884 -0.10775184 -0.08649261 -0.010253256 -0.051104415 -0.06987122 -0.081587575 -0.23309934
-0.15679345 -0.009177054 -0.25847572 -0.21769959 0.15782382 -0.09717333 -0.09973857 -0.09643847
-0.23438396 -0.19092754 -0.13785872 -0.35490856 -0.29162735 -0.08569371 -0.2814402 -0.24479315
-0.062498353 -0.17181112 -0.07984082 -0.039227325 -0.2066029 -0.09713212 0.09560505 -0.06233463
0.019089358 0.05886829 0.05914964 0.059269983 0.058227874 0.05926548 0.05873942 0.058217824
0.058783885 0.05812411 0.059551287 0.060969148 0.06060457 -0.057608932 0.06456476 -0.051894963
0.05984191 0.06180479 0.061270274 0.058930445 0.059316047 0.0588708 0.059232574 0.059675146
0.05855615 0.059708465 0.059929796 0.05970808 0.058465905 0.058509856 0.058433443 0.057261672
0.057801947 0.056837 0.056794256 0.05750814 0.05642325 0.054450173 0.057461463 0.0547423
-0.06358816 0.8988614 -0.06469749 -0.065921344 0.046582468 -0.06608136 0.05826917 0.058245435
0.05777557 0.057197843 0.057109233 0.056120224 0.05829421 0.05815903 0.058176033 0.059397478
0.059426654 0.058603402 -0.059692178 -0.06355886 -0.06499356 -0.058697283 -0.060485933 -0.06216031
-0.062533155 -0.066880845 -0.062528975 -0.06158551 -0.06426429 -0.061934017 -0.060422596 -0.06281739
-0.06121805 -0.05894637 -0.089127414 -0.063387014 -0.061195206 -0.066738084 -0.06233797 -0.047627598
0.047273986 -0.083289914 0.036943775 0.060851682 -0.01947521 0.05141282 -0.007663257 -0.014082624
0.09861097 0.07068123 0.041617 0.09105303 0.025723465 -0.08215947 0.070539154 -0.040280774
-0.10174278 0.025493031 -0.047698908 -0.14619116 0.023548024 0.073204294 -0.009083103 0.014135249
0.08753445 0.01786897 0.011036377 0.04354086 -0.053442772 -0.13793993 0.07826714 -0.05842383
-0.09067644 0.000102011116 0.062155522 -0.13088405 -0.10368416 -0.07977216 0.007828622 0.09888619
-0.13946868 0.0762345 0.16441359 -0.047912344 0.073762864 0.13010177 -0.08810597 -0.112780966
-0.09020529 -0.25227624 -0.0067115603 0.10669394 -0.039455865 -0.03657172 0.11649887 -0.09550468
-0.06407445 -0.030233707 -0.18147942 -0.0038372064 0.22329246 -0.016757187 -0.12194469 0.17452118
0.09981264 -0.14341274 0.08108285 -0.5544262 0.15194827 1.7658505 -0.055436898 -0.24469928
0.30890322 -0.2286688 -0.05597268 -0.22163178 -0.22698082 -0.018095646 -0.060838297 -0.10637464
-0.042460207 -0.042885307 -0.089696735

bias f4 [3]
00000000: b988 4fbd 0fec 6d3d b180 723d
-0.0506675 0.05808645 0.05920476

weight f4 [3]
00000000: 5372 053f f1b2 113f 9476 c33e
0.5212757 0.5691367 0.38176405

bias f4 [3]
00000000: 3ab9 2fbf c5c7 a9be 1e82 4f3f
-0.6864201 -0.33160225 0.8105792

running_mean f4 [3]
00000000: 2b3f 77bf 7360 cfbf 2f71 b43e
-0.9658076 -1.6201309 0.35242602

running_var f4 [3]
00000000: 08a2 9d41 1166 f83f 98c1 d93f
19.704117 1.9406148 1.7012205

weight f4 [3, 3, 3, 3, 3]
00000000: 7512 f1bc 2b88 573d f4b1 2e3e 327d e73c
00000010: 7a3d 203e 9efe 833e f630 5f3d 8dbc 093e
00000020: c7fa 733e 7f7e 1cbd 88d0 f43b 1ce0 ce3d
00000030: c026 d53c 7c5b 923f 77f2 543e 4a6b 0d3d
00000040: cf9c 203e 18cb 1e3e b9f3 5fbd d1eb 7c3d
00000050: 1bcd b13d 6e85 77bc 91fe 073e 06c9 393e
00000060: fbdb b7bc 7cea cc3d 9f35 f13d 730f 833d
00000070: a2ec 363e ae62 073e cedc 963c dc7b 113e
00000080: 41e5 363e 6fb7 713d c891 4b3e 30e9 5b3e
00000090: 8fd3 28bd 2de0 823c 71e3 d43d fcd0 cfbd
000000a0: bf56 1dbd e484 e63d d63f 06bd 4e1f 9f3d
000000b0: 76e6 2e3e 6e4c 31bd f7ac e73d 0e6d 6e3e
000000c0: 0f0f 98bd 10f9 a03d 3359 5a3e 18fa 28bd
000000d0: 2832 c23d ea31 423e f0d1 d9bd edf8 0fbf
000000e0: 847c abbe 6edd bc3c be12 ebbe ca31 d1be
000000f0: a1b3 603e 8fa1 d83b 2cd5 5d3d 7d5d c43e
00000100: b0ed a03d caaf e1bd a0c0 a63d 9906 a9be
00000110: 356d 14bf 2308 c3bd bea6 6cbe 2555 abbe
00000120: 097a 033e 7e27 0abe b09f 4e3c 309c d73d
00000130: c102 8abe 83c6 3cbe e963 0e3e 22c0 d7bd
00000140: 3d22 bf3d d606 753d 22d8 783d 48fb 713d
00000150: 4fc1 6a3d 664a 773d afa3 703d 65f8 533d
00000160: ce78 653d 5d05 643d 6f01 8a3d fb49 8c3d
00000170: c916 853d 3a90 c3bc 2745 a73d 6299 083d
00000180: 615a 363d 6b28 853d f787 9f3d d421 6e3d
00000190: 0132 6f3d d60f 623d 41b3 683d b5a5 6d3d
000001a0: 6bc5 5b3d 43ca 623d 8002 693d 33fe 613d
000001b0: baa7 633d a51e 623d 2241 673d a2e6 5a3d
000001c0: 286f 643d ee84 603d 9992 553d ae26 5c3d
000001d0: 12a2 583d 7f5a 453d a915 6a3d b297 693d
000001e0: 2317 62bd d496 8e3f d132 65bd 9743 53bd
000001f0: 0c9e b03d 2a15 63bd e1bb 663d ea98 693d
00000200: 12ed 693d ebf2 633d e61e 653d e023 583d
00000210: 064d 653d 0222 613d 57c6 613d 58f8 ce3d
00000220: b429 d13d e059 923d 1941 493c 30fa c93d
00000230: 62ae 88bd 02a4 e0bc 2dae 003c 6a40 8cbd
00000240: f9a5 c7bd 065d 3ebe 0fa1 82bd b3e2 8abd
00000250: 43ac fabd 9a5b 97bd 829e 9dbc 6498 85bd
00000260: 822b 3bbd b5e5 773c 3940 7cbe ee88 0a3e
00000270: aa12 93bd d77c 27be 06ce 30bd b939 293e
00000280: c214 1dbd 0023 563d e1d6 abbd 99fd 19bd
00000290: 40d5 06bd ced2 b3bd 7f01 e7bc f707 94bc
000002a0: 57e1 b0bc fe50 a4bc 614d b5bc 2498 3bbe
000002b0: 0673 d4bd d9ac 9abd 47b3 2dbe 11bb a3bd
000002c0: 4524 5cbd 1b9f 00be 0d31 9abd a59f 79bd
000002d0: f17d 89be d012 0abe c11b 94bd 72d3 7fbe
000002e0: 80a9 fabd 9b36 8ebd c7da 31be c515 f2bd
000002f0: 72ff acbd f631 523c a355 933a 011a 6b3d
00000300: 79b6 b2bb 2c1b 1dbd 25a0 693d bf0c 653b
00000310: cb45 84bd 7c5f bbbc 1e54 1bbd b435 23bd
00000320: 8f9e 703d f076 45bd eb3d 2ebd 3e34 debb
00000330: cc15 923d e767 26bc 19a0 9a3c c68a 8abd
00000340: 9c55 cebc a552 c33d 34e9 b0bd be09 20bd
00000350: e00c 8f3d 3704 72bc d8ff 373b 3da4 b83d
00000360: 44ba 9b3d d8ba 233e 34c4 c53d b06d de3d
00000370: 5a56 0b3e d967 47bd ea59 bb3d 92cd 6e3e
00000380: fc1e 0c3e d9dd c73c 6245 7abc 0146 753d
00000390: 18e5 b83d 6cf3 8a3f 8bba 393e 1484 183c
000003a0: 8920 1d3e 99c1 683e b79d e93d 3655 a83d
000003b0: ee77 123e 2cd0 ca3d 8d00 ff3d fcf8 803e
000003c0: e2d4 17bd 0878 cb3d 1deb 1c3e
-0.029427746 0.052620094 0.17060071 0.02825794 0.15648451 0.25780195 0.054490052 0.13450833
0.23826133 -0.038206574 0.007471148 0.10101339 0.026019454 1.1434169 0.20795618 0.034526147
0.15684818 0.15507162 -0.05467579 0.06174833 0.08681699 -0.015107496 0.13280703 0.1814309
-0.022443762 0.10005662 0.117778055 0.06399431 0.17863706 0.13221237 0.018415835 0.14207405
0.17860891 0.059012827 0.1987983 0.21475673 -0.041217383 0.015976036 0.103949435 -0.101472825
-0.038412806 0.112558156 -0.032775722 0.07769643 0.17080101 -0.04328578 0.11312287 0.23283789
-0.07424747 0.07860005 0.2132309 -0.041254133 0.09482223 0.18964353 -0.106357455 -0.56239206
-0.33493435 0.023054805 -0.45912737 -0.408583 0.21943523 0.006611056 0.054158375 0.38352576
0.07857835 -0.11019857 0.08142209 -0.33012846 -0.57979137 -0.09523036 -0.23110482 -0.33463398
0.12839521 -0.13491628 0.012611315 0.10527837 -0.26955226 -0.18435101 0.139053 -0.10534693
0.09332702 0.059820972 0.060752995 0.05907753 0.05731326 0.060373686 0.05874985 0.05175056
0.05602341 0.055669177 0.06738555 0.06850048 0.064984865 -0.023872484 0.08167487 0.033349402
0.044519786 0.0650185 0.07789605 0.05813773 0.058397297 0.055190884 0.056811575 0.05801936
0.05365507 0.055368673 0.05688715 0.055174064 0.05557988 0.055205006 0.0564586 0.053442605
0.05577007 0.05481427 0.05214176 0.053747825 0.052888937 0.048182007 0.057149563 0.057029434
-0.055197846 1.1139779 -0.055956665 -0.05157813 0.08623895 -0.055440105 0.05633152 0.057030596
0.057110853 0.055651587 0.05593767 0.052768588 0.05598166 0.054964073 0.055120792 0.101059616
0.10213032 0.071460485 0.012283587 0.098621726 -0.06673886 -0.027421955 0.007854027 -0.068482235
-0.09748454 -0.18590173 -0.06378376 -0.06781521 -0.122398876 -0.073905185 -0.019240621 -0.06523207
-0.04569579 0.01513045 -0.24633874 0.13528797 -0.07181294 -0.16356216 -0.04316523 0.16525926
-0.038349874 0.052279472 -0.08390594 -0.037595365 -0.032918215 -0.08780442 -0.028198956 -0.018070204
-0.021591825 -0.020058151 -0.022131624 -0.18319756 -0.103735015 -0.07552499 -0.1696292 -0.079946645
-0.053745527 -0.12560694 -0.07528887 -0.060943265 -0.26853898 -0.13483739 -0.07231856 -0.24983004
-0.12239361 -0.06944009 -0.17368613 -0.118205585 -0.0844716 0.012829294 0.0011240732 0.057397846
-0.0054538813 -0.03835599 0.05703749 0.0034950224 -0.064586245 -0.022872679 -0.037922017 -0.039846137
0.058744963 -0.04820913 -0.04253952 -0.00678113 0.07133064 -0.010156608 0.018875169 -0.0676475
-0.025187306 0.095372476 -0.0863823 -0.03907179 0.069848776 -0.014771513 0.0028076079 0.09015701
0.07603887 0.15989244 0.096565634 0.10860765 0.1360716 -0.04868302 0.09148009 0.23320606
0.13683695 0.024397777 -0.015275331 0.059881214 0.09028071 1.0855536 0.18137567 0.009308834
0.15344442 0.22730102 0.11407035 0.08219378 0.14303562 0.09902987 0.12451277 0.2518996
-0.037068255 0.099350035 0.15324064

bias f4 [3]
00000000: 40d0 a63d 294f 62bd fbc2 a7bd
0.08145189 -0.055251274 -0.081914864

weight f4 [3]
00000000: 8611 4c3e 6f1e 043f 7cc8 ed3e
0.1992856 0.5160894 0.4644202

bias f4 [3]
00000000: 1a86 383d 391d 353e 4f30 83be
0.045049764 0.17686929 -0.25622794

running_mean f4 [3]
00000000: 52a0 acc0 62ba 1ac0 ef83 9840
-5.3945704 -2.417626 4.766105

running_var f4 [3]
00000000: 9620 4441 7483 8140 9768 9940
12.257956 4.0472965 4.7940173

weight f4 [3, 3, 3, 3, 3]
00000000: 2195 9a3c 2928 60ba 87eb 53bd 2879 06be
00000010: 0d65 a6bd 804a 2cbb 5bcc d73d 790a a1bc
00000020: b700 5a3d a226 76be e255 02be b8da f4bb
00000030: a595 b4be 6ad6 603f 1a8d bd3d 2920 d63d
00000040: 5f27 fd3c b1ae 0f3e a89e 26bd b89b 24bd
00000050: b3ac e83d b934 b3be 2f2b 6dbe 3ec6 143e
00000060: 0f0d 3b3d b8cf a2bd 0483 c23d f079 0fbd
00000070: 17cd 29bc 3953 f03c 35b5 17be 2918 7cbe
00000080: 5424 1bbd 88e0 96bc 75a9 0ebe 5f35 0b3d
00000090: 0927 0ebe cd9c 67be 669e 94bd 5a0a 92be
000000a0: 12fe d7be bf0a 0ebe f5ff 23be 6a9a 80be
000000b0: f98e 32bd 6c36 0bbd c404 a7bd 3c5e 873d
000000c0: 4cc5 f9bd a048 0ebe 9c3b 833d 38a9 12bd
000000d0: 97fc b1bd 6083 7d3d 6ace 5abc 84f5 51bd
000000e0: f05c b63c 1299 56bd 8578 bcbd 2cdd 60bc
000000f0: 83a6 10bd c1c8 c6bd 102f d1bc 6e65 fbbd
00000100: 7ab0 11be 2c93 90bd 8a9a 14be ab52 2dbe
00000110: b29c cfbd 0dfe f3bd 2af9 26be cd8f c3bd
00000120: 6623 20be cb44 2cbe 6173 90bd 6a26 2cbe
00000130: 87df 3ebe abe6 d3bd 22fd 07be 31a9 2abe
00000140: f7de b5bd 2354 7d3d de75 723d e2ae 613d
00000150: 13d9 5f3d dd74 693d e2b7 743d 4300 613d
00000160: 19f1 5a3d d8bc 733d 7b00 4f3d 1727 7f3d
00000170: 01b5 523d e50d dfbe 6b97 963d a9d3 a73c
00000180: f1ad 1d3d 21c7 923d ba1e c53d bc5d 8a3d
00000190: 747f 813d ce81 833d 24b5 603d 9586 723d
000001a0: 1fe2 913d 7092 663d 28c0 683d e903 873d
000001b0: cae5 6e3d 4fb0 703d d2f0 703d d4a5 4c3d
000001c0: e137 543d c1c4 733d 95d4 4f3d 777f 463d
000001d0: f7d1 753d fcf1 583d 84d4 603d 6fe1 593d
000001e0: 7dd0 bfbd 17ce 823e 40fc 7ebd 49ce 09be
000001f0: 7095 4abd 257b 80bd 492a 753d ba8b 693d
00000200: 72c8 633d 90dc 583d d83f 5a3d 7973 703d
00000210: 9bcf 6b3d 993c 673d ef97 793d 8c8c 743d
00000220: 12f4 493d 8598 543d 6eb0 a2bd 30af 05be
00000230: 519a c3bd a09b 90bd 9f05 ccbd e33f adbd
00000240: b289 8fbd 28fc a4bd 3542 93bd b653 8abd
00000250: d8d0 92bd e1d0 8abd 2b47 8bbd 775f 95bd
00000260: 1daa 8cbd 66e6 3abe 3368 d6be b20a f3bd
00000270: c299 c5bd 3b53 e0bd a9aa adbd 9f1b 93bd
00000280: 250d 0dbd 07ef 7bbd 12aa c2be 26bd 9a3b
00000290: b35c 27bd 0c28 ac3d b781 b53e a758 573c
000002a0: af6c 3e3e 7917 bd3e 46db 81bd fc6b a1be
000002b0: b47b 353d f75e 213e c973 32bf 8331 f5bd
000002c0: f32b 883c 78ee 4cbf 5d2a 00be e6e8 373e
000002d0: a3d8 343f 83bd ad3e 366b e7be 9d48 ee3e
000002e0: fecd 923e 9d9d bdbe 0748 19be 5955 ee3c
000002f0: a2b5 0f3e 5ce6 80be 9f1f a6be 682c a73d
00000300: a6d7 bebe 3c1e abbe cf8d 153c 0892 34be
00000310: 3707 0fbe 4437 7b3d 8962 f83d 3e14 bf3e
00000320: 873c 5cbd b2c8 a63e 66ce 3b3f 3d96 823d
00000330: 4b59 1c3e d388 ca3e 8263 12be cb3c b2bd
00000340: c9c8 643d 9986 a4bd d757 10bc bb7c 303e
00000350: 5c83 f3bc 8b8b 35be 9160 4cbd eb9c ddbd
00000360: 8724 b1bd a47e 5e3d 7aca 71bd 6f79 92bc
00000370: 2f22 0c3e 80d0 413d 6ff9 b5bd c7d7 7e3d
00000380: c2c5 763c 54a1 ad3c bacd 213e b41d 6a3d
00000390: 08f1 423d 1b48 a03f 32b4 093e 6437 2ebc
000003a0: 8d2c 3a3e 5311 b03d caa7 30be 1dce acbc
000003b0: ac91 56bd bbae 27be 1d8f 173c d586 b93c
000003c0: 8644 73be 42ad d0bd 5155 61bd
0.018869938 -0.0008550906 -0.05173829 -0.13132155 -0.08124743 -0.0026289523 0.105370246 -0.019658314
0.053223338 -0.24038175 -0.12728074 -0.0074723624 -0.3527042 0.8782717 0.092554286 0.10455353
0.030902563 0.14031483 -0.04067865 -0.040187567 0.11361065 -0.35001162 -0.23161004 0.14528748
0.04566675 -0.079497755 0.094976455 -0.035028398 -0.010363839 0.029336559 -0.14815219 -0.24618591
-0.037876442 -0.018417612 -0.1393183 0.033986446 -0.13882078 -0.22618409 -0.072567746 -0.28523523
-0.42186028 -0.13871287 -0.16015609 -0.2511781 -0.04359338 -0.033987448 -0.08155206 0.06609771
-0.121958345 -0.13894892 0.06407854 -0.03580591 -0.08690756 0.061892867 -0.013354877 -0.051259533
0.022261113 -0.052392073 -0.09202675 -0.0137246065 -0.035315048 -0.097062595 -0.025535136 -0.122752056
-0.14227477 -0.07059321 -0.14512077 -0.16926067 -0.10137309 -0.11913691 -0.16305986 -0.09548912
-0.15638503 -0.16823117 -0.07053257 -0.16811529 -0.18639956 -0.10346731 -0.13280156 -0.16666104
-0.08880418 0.061847817 0.05919444 0.055098422 0.054650377 0.056996215 0.059745677 0.05493189
0.053452585 0.059506267 0.050537568 0.06229314 0.05144215 -0.43565288 0.073530994 0.02048667
0.03849596 0.07166887 0.09625001 0.0675616 0.06323138 0.06421243 0.05486025 0.05921038
0.07123207 0.056291997 0.05682388 0.06592543 0.058324613 0.05876189 0.058823414 0.049962834
0.051811103 0.05951381 0.050739843 0.048461404 0.06001469 0.05296515 0.05489017 0.053193506
-0.09365938 0.2554786 -0.062252283 -0.13457598 -0.04945892 -0.06273488 0.05985478 0.05701802
0.05561108 0.05294472 0.053283542 0.058703873 0.057571035 0.056454275 0.06093591 0.05970435
0.04930503 0.051903266 -0.079438075 -0.1305511 -0.09550918 -0.07060933 -0.0996201 -0.08459451
-0.07008685 -0.080559075 -0.07190362 -0.06754248 -0.0716874 -0.06778122 -0.068006836 -0.07293599
-0.06868384 -0.18251953 -0.41876373 -0.11867274 -0.096484676 -0.10953375 -0.084798165 -0.07183003
-0.034436364 -0.06150725 -0.38020378 0.0047222553 -0.04085989 0.08406076 0.35450527 0.013143695
0.18596147 0.3693197 -0.06340651 -0.31527698 0.044307426 0.15758882 -0.69707924 -0.11972334
0.01662252 -0.80051374 -0.1251616 0.17959937 0.7064306 0.33933648 -0.45198983 0.46539775
0.28672785 -0.37034312 -0.14968883 0.029093431 0.14034131 -0.2517575 -0.32446 0.08162767
-0.37273902 -0.33421504 0.009128048 -0.17633832 -0.13967596 0.061332002 0.12128169 0.3732013
-0.05376866 0.32574993 0.73361814 0.06376312 0.15268438 0.39557514 -0.14295772 -0.087030016
0.055855546 -0.08033485 -0.008810005 0.17235081 -0.029725723 -0.17729013 -0.04989678 -0.10820945
-0.08649545 0.054319993 -0.059030987 -0.01788017 0.13684915 0.04731798 -0.08885466 0.0622175
0.015061798 0.021195091 0.15801135 0.057157233 0.047593147 1.2522005 0.13447645 -0.010633323
0.18181057 0.08597054 -0.17251506 -0.021094376 -0.052385017 -0.16375248 0.009250429 0.0226473
-0.23756608 -0.10189296 -0.055013005

bias f4 [3]
00000000: d3d7 383d d00c 7abd 1ebd 5c3d
0.0451277 -0.061047375 0.053891294

weight f4 [3]
00000000: 94aa 573f 7893 e53e b528 063f
0.84244657 0.44839072 0.52405864

bias f4 [3]
00000000: d929 2f3d c9e2 a7be 961f 56be
0.04276452 -0.3279021 -0.20910487

running_mean f4 [3]
00000000: ea21 1dbf d926 1a3e 7897 f23d
-0.61379874 0.15053882 0.118452966

running_var f4 [3]
00000000: 0046 903f 6a5b 583f bf4c a43e
1.1271362 0.84514487 0.32089803

weight f4 [3, 3, 3, 3, 3]
00000000: 29e0 d83d 331b 053d ebdd 093e aebb 453d
00000010: a5ab 633e 1003 213e 7eea bebd 34f8 b23e
00000020: 876b b03e 1ddb 023e 5988 f73d 29aa 54bc
00000030: f8a4 e13e b183 e73f 9d60 2c3e 67f0 b33e
00000040: bbc3 683f b395 ad3e 7d56 65bd eaa2 3dbe
00000050: 5da9 26be f0d2 053e a1ce 973e 6def 423d
00000060: f8f2 d23d 542b d13e 4023 813e 2dff 9d3d
00000070: 0b12 383e e405 e03d 6cec e93c 3ad2 9a3d
00000080: 7b22 183e 0bb1 2bbc e7a1 f53c 5491 073e
00000090: 76bb 3f3e 9080 a13e b912 883e 407b a13d
000000a0: dcce 3b3e c79f 843e abf0 bf3c c3de 103e
000000b0: d268 5f3e d847 b53d 17d5 4e3e 69f6 1c3e
000000c0: f407 ab3c 12e3 1c3e e77f 443e 39f1 163c
000000d0: 81bc 853d 8e0f b83d 3044 173e 1e85 0abd
000000e0: 6b1f 3cbb b367 bdbc 0f59 05be 2c35 0e3e
000000f0: df70 41bd 98f7 38be 973a 373e 524a e0bd
00000100: dfbd 99be ad4f 47be 5e58 14bf 819a 1bbf
00000110: 4e9b 62be 3fd2 f1be fbe2 f7be 2f3a 8dbd
00000120: e53d a7bd 76e1 b73b 6be7 16be d141 6cbd
00000130: 10f2 f63d 0501 eabc 8c86 bcbd e975 5a3d
00000140: 80cc ecbd c502 573d 0d67 663d 9def 603d
00000150: 17f8 5b3d 7f44 843d 445f 6c3d 11e5 443d
00000160: 1516 843d 23d8 6e3d ab80 533d d317 8c3d
00000170: 03a3 6f3d 454c 073e f078 0b3e 290b ad3d
00000180: 8477 ab3d 1fff de3d 7210 c53d 9e60 4a3d
00000190: 13a5 673d ef64 5b3d 0c8b 5e3d 4b34 833d
000001a0: 553a 643d bf58 583d 9bfa 7c3d 276c 6b3d
000001b0: 0b3b 6e3d b0e2 733d 343b 6c3d 1609 5b3d
000001c0: 16ce 673d 6f55 6f3d 3691 563d 56f8 5c3d
000001d0: 098e 6d3d 4f5c 563d 6eb3 6e3d 92ec 403d
000001e0: b386 a5bd 7786 4d3f 2d42 85bd 099d e9bd
000001f0: 2620 d0ba 8040 94bd b1dd 773d 666f 733d
00000200: bad2 5c3d 9713 693d f330 713d fe49 6e3d
00000210: a315 6e3d 4bd6 723d f49b 743d 6da6 c43d
00000220: ad62 5f3d f141 9c3d dae1 22bd a193 18be
00000230: 3839 803d 3acf 3fbd 65dc efbd 759e d73c
00000240: 9d40 31bd e860 89bd b1ee 90bd ced8 b0bd
00000250: d93d bebd 66ba 90bd 488c d0bd d0d5 d4bd
00000260: ed21 97bd c429 36bd 0823 133e c4b1 37bd
00000270: afb4 92bc f5b9 963d caf5 ee3b 6303 cf3d
00000280: 583a 563e a019 2f3e 72a9 6ebd 12c6 de3c
00000290: cdca a8bd ff91 65bc 7f25 fc3d ff7e a4ba
000002a0: 7c0f 813c b79d 993d 51d8 11bd d626 613d
000002b0: fb64 e33d fb85 ffbc 8b14 023e c253 5c3e
000002c0: 6853 813d 8ff9 cc3d f270 233e 072f d03c
000002d0: c44b 6ebc ca7d 893d a28a 7abd 933e 633c
000002e0: edbc 063e 9c5c 443c 6733 913c 5355 df3d
000002f0: 4a2e ac3c 57e7 4ebe ef2e a2be 08a3 0fbe
00000300: 0456 bebe 064b 0bbf a926 9ebe 88cd 1cbe
00000310: a5cc b4be 264d 5abe 8219 8ebe 47cf bdbe
00000320: 131b 1ebe fd29 debe b210 19bf fbcf acbe
00000330: ffab 18be 824f a1be 9088 2ebe abab 8ebe
00000340: 6860 95be e225 2bbe 765b adbe 89c0 c0be
00000350: 9244 83be d6f9 31be f430 17be 4c06 5dbd
00000360: a0d0 b7bc 48b5 14be 7bc5 d63a fdf7 6dbd
00000370: 014b 72be fd55 4bbc 9a43 593d 14e3 26be
00000380: b876 273d a3e3 af3d 4d76 9c3d e529 c83d
00000390: c1ec 3bbd 9ac4 783f e69b ae3d 6efe 343d
000003a0: 9c19 923d cb5c 263e 0788 c7bd 6e4a 103e
000003b0: eea1 9a3d 0bcb ce3c f4de a53e e8ce 6f3e
000003c0: 1073 aa3d 16cc 843e 02af bc3d
0.1058963 0.032496642 0.13463561 0.04827469 0.22233446 0.15723825 -0.093220696 0.3495499
0.34457037 0.12778898 0.12086553 -0.0129800225 0.44071174 1.8087064 0.1683373 0.3514435
0.9092366 0.33903274 -0.055990685 -0.18519178 -0.16275544 0.13068748 0.29649833 0.047591615
0.10300249 0.4085337 0.25222206 0.077146865 0.17975633 0.109386235 0.028555118 0.07559629
0.14856903 -0.010479222 0.029984428 0.13239032 0.18723854 0.31543398 0.26576784 0.07884836
0.1834063 0.2590315 0.02343019 0.14147477 0.2181733 0.08851594 0.20198475 0.15328373
0.020877816 0.15320995 0.19189416 0.009212785 0.06530095 0.08987342 0.14772105 -0.033818357
-0.002870525 -0.023120737 -0.13022254 0.13887471 -0.047226783 -0.180632 0.17893444 -0.109516755
-0.30027673 -0.19463988 -0.5794734 -0.6078263 -0.22129557 -0.47230718 -0.4841536 -0.06895863
-0.08166102 0.005611594 -0.14736716 -0.057679955 0.120578885 -0.02856494 -0.0920535 0.053335104
-0.11562443 0.052492876 0.05625062 0.054916013 0.053703394 0.06458377 0.05770804 0.048070017
0.06449524 0.058311593 0.05163638 0.068404816 0.05850507 0.13212688 0.13620353 0.08449394
0.08372405 0.10888504 0.09622277 0.049408548 0.05655391 0.053563055 0.054331824 0.064064585
0.055719692 0.05281901 0.061762433 0.05747619 0.058161777 0.059542358 0.057673648 0.053475462
0.056593023 0.058431085 0.052384578 0.05394777 0.057996783 0.052334126 0.058276586 0.04710061
-0.080823325 0.802833 -0.06506763 -0.11406905 -0.0015878722 -0.07238865 0.060514156 0.05943241
0.053911902 0.056903448 0.058884572 0.058176033 0.058126103 0.059286397 0.05971904 0.09602056
0.054537464 0.07629765 -0.03976617 -0.14900066 0.062609136 -0.046828486 -0.11711959 0.026320675
-0.04327451 -0.067079365 -0.07076777 -0.08635102 -0.0928914 -0.07066803 -0.101830065 -0.10392344
-0.07379518 -0.044473425 0.14368832 -0.044847265 -0.017908422 0.07359687 0.007292484 0.10108068
0.20920694 0.17099619 -0.058267064 0.027194057 -0.08241806 -0.014011859 0.12311839 -0.0012550055
0.015754454 0.07500785 -0.035606686 0.054968677 0.11103245 -0.031191817 0.12703149 0.21516326
0.063147366 0.10008537 0.15961054 0.02541305 -0.014544431 0.067134455 -0.061167367 0.013869899
0.13158007 0.01198497 0.017724706 0.10904946 0.021018166 -0.20205437 -0.31676432 -0.14027035
-0.37175 -0.5441135 -0.3088887 -0.15312779 -0.3531238 -0.21318492 -0.27753836 -0.37072203
-0.15440015 -0.4339141 -0.597911 -0.33752427 -0.14909361 -0.31505972 -0.17044282 -0.27865347
-0.29175115 -0.1671367 -0.33858842 -0.37646893 -0.25638252 -0.17380461 -0.14764768 -0.053961083
-0.022438347 -0.14522278 0.0016385758 -0.05809783 -0.23661424 -0.012410638 0.053042985 -0.16297561
0.040884703 0.0858834 0.076397516 0.09773616 -0.045880083 0.9717499 0.08525829 0.044187956
0.07133791 0.16246335 -0.09742742 0.14090893 0.07550417 0.025243303 0.32396662 0.23418772
0.08322728 0.25936955 0.092130676

bias f4 [3]
00000000: c758 8c3d c459 533d 8006 a3bd
0.068528704 0.05159928 -0.07960224
