data/perturbations/cat2/2018-07-22 15:31:22.377249/pert_model.pt (torch_old, 19929 bytes, 20 tensors)

weight f4 [3, 3, 3, 3]
00000000: 0000 0000 0000 0000 0000 0000 0000 0000
00000010: 0000 803f 0000 0000 0000 0000 0000 0000
00000020: 0000 0000 0000 0000 0000 0000 0000 0000
00000030: 0000 0000 0000 0000 0000 0000 0000 0000
00000040: 0000 0000 0000 0000 0000 0000 0000 0000
00000050: 0000 0000 0000 0000 0000 0000 0000 0000
00000060: 0000 0000 0000 0000 0000 0000 0000 0000
00000070: 0000 0000 0000 0000 0000 0000 0000 0000
00000080: 0000 0000 0000 0000 0000 0000 0000 0000
00000090: 0000 0000 0000 0000 0000 0000 0000 0000
000000a0: 0000 803f 0000 0000 0000 0000 0000 0000
000000b0: 0000 0000 0000 0000 0000 0000 0000 0000
000000c0: 0000 0000 0000 0000 0000 0000 0000 0000
000000d0: 0000 0000 0000 0000 0000 0000 0000 0000
000000e0: 0000 0000 0000 0000 0000 0000 0000 0000
000000f0: 0000 0000 0000 0000 0000 0000 0000 0000
00000100: 0000 0000 0000 0000 0000 0000 0000 0000
00000110: 0000 0000 0000 0000 0000 0000 0000 0000
00000120: 0000 0000 0000 0000 0000 0000 0000 0000
00000130: 0000 803f 0000 0000 0000 0000 0000 0000
00000140: 0000 0000
0.0 0.0 0.0 0.0 1.0 0.0 0.0 0.0
0.0 0.0 0.0 0.0 0.0 0.0 0.0 0.0
0.0 0.0 0.0 0.0 0.0 0.0 0.0 0.0
0.0 0.0 0.0 0.0 0.0 0.0 0.0 0.0
0.0 0.0 0.0 0.0 0.0 0.0 0.0 0.0
1.0 0.0 0.0 0.0 0.0 0.0 0.0 0.0
0.0 0.0 0.0 0.0 0.0 0.0 0.0 0.0
0.0 0.0 0.0 0.0 0.0 0.0 0.0 0.0
0.0 0.0 0.0 0.0 0.0 0.0 0.0 0.0
0.0 0.0 0.0 0.0 1.0 0.0 0.0 0.0
0.0

bias f4 [3]
00000000: 0000 0000 0000 0000 0000 0000
0.0 0.0 0.0

weight f4 [3, 3, 3, 3]
00000000: 4a66 583d b79d 793c 0501 c13c d037 7d3c
00000010: f88d 6a3f 10d3 f43a b7f5 673d 938f bbbc
00000020: cf59 61ba 8411 153d 7a86 20ba 03c4 6fbc
00000030: 2e2b cd3c 0003 35bd f579 9fbc 64f9 633d
00000040: bca7 073c 25c1 2cbb 4a44 82bb ff6c 8ebc
00000050: 81b1 1fbd c1a0 923c 0400 f1bc b23f 36bd
00000060: 7966 153d 8b97 403b 1866 ffbc c33a e63c
00000070: ee8e a33d 8baa 313d 2c80 eb3c 1140 a23c
00000080: bfec bd3c 36c0 273d 5c87 aa3d 193a 0c3c
00000090: 6590 25bc b3a2 613c abc5 d4ba 07f7 39bc
000000a0: 22b8 713f 05be 28bd e9dc a23c f717 8a3c
000000b0: 6114 c3bc 2c93 213b d864 853c 1cbe 97bb
000000c0: 5930 3f3c 3379 bcbc 4e50 3cbd 827a 023c
000000d0: 747f e7bb cdd1 72bd 268d 33bc a89a 033d
000000e0: 3132 e63c 0306 fcbb b9b3 003d 1397 c53c
000000f0: 8447 c3bc fa17 d73b 6375 c33a 605d c7bc
00000100: ee7e eebb f361 8bbb 43dd a2bc edf6 86bc
00000110: 9257 e6bb a885 b7bb 12a1 9cbb 90d3 3d3b
00000120: ed6c 26bd 19fe 6abd 508b b6bd 8929 38bd
00000130: f651 6b3f 6626 aebd 3833 423b 3077 b1bc
00000140: 7203 12bd
0.052831925 0.015235356 0.023560056 0.015455201 0.9162288 0.0018678624 0.056630816 -0.02289561
-0.00085964514 0.036393657 -0.0006123554 -0.014634135 0.025045004 -0.044192314 -0.019467333 0.05565776
0.008279737 -0.002636024 -0.003975426 -0.017385958 -0.03898764 0.017898919 -0.029418953 -0.04449434
0.03647468 0.0029387202 -0.031176612 0.028104192 0.07986246 0.043375533 0.02874764 0.01980594
0.023184178 0.04095479 0.08326599 0.008558773 -0.010105227 0.013771701 -0.0016233226 -0.0113504
0.9442159 -0.04119684 0.019880729 0.01685713 -0.023813428 0.0024654372 0.016283438 -0.004630817
0.011669242 -0.023007011 -0.045975022 0.007963778 -0.007064754 -0.059282113 -0.010958945 0.032129914
0.028100105 -0.0076911463 0.031421397 0.02411989 -0.023837812 0.0065641375 0.0014912303 -0.024336517
-0.007278315 -0.00425362 -0.019880896 -0.016475165 -0.007029482 -0.00560065 -0.0047799433 0.0028965212
-0.040631223 -0.057371233 -0.089132905 -0.044961486 0.9192194 -0.08503418 0.002963258 -0.021663278
-0.035647817

bias f4 [3]
00000000: 8284 dc3d 1a40 1d3e 9df4 ab3e
0.10767461 0.15356484 0.33585063

weight f4 [3, 3, 3, 3]
00000000: 6b98 743d 9bc6 ab3c 2ceb b73c 9d03 ce3c
00000010: a76d 703f bee5 983a 1dff 8b3d 4558 13bb
00000020: eb9a 0f3c b801 543d cd9e 8b3c 115d 513c
00000030: 8b9d 1d3d 3073 abbc 9540 9c3b 88ab 8a3d
00000040: e735 d93c 5d14 b63c f4a7 cd3b 625e 3e3c
00000050: b345 893c af21 fe3c 389f 7dbb 326c 4f3b
00000060: c034 263d af8b c33c 0a5d a83b d750 d33c
00000070: c597 853d 34ce 2c3d 5036 c63c cdcb 783c
00000080: 3365 ba3c 1a07 043d 608a 843d 31a1 a63b
00000090: 5a63 423a 88f7 b43c f36e 6e3c 6cc7 9dba
000000a0: 8027 773f b372 b9bc c592 ab3c 548f bc3c
000000b0: d664 37bc e29c 7d3b eaba 043d ebee 033d
000000c0: 8400 e63c a800 433a 172d 8fbb 9b3b d73c
000000d0: 556c af3c 0d11 9bbc 4ed2 12bb c762 a93c
000000e0: 32f1 c23b 6a35 2bbb 2265 983c 2683 be3b
000000f0: 8177 5dbc 4340 0bbb 13bc aebb 6579 80b9
00000100: ff2d 2f3c 847f 01bc b968 17bc 230d dbbb
00000110: cc25 afbb 0ebb a5ba d8f0 e83a 5c37 ed3b
00000120: 2830 f4bc c730 6abc 8166 1abd edd1 9cbc
00000130: 8f76 763f e0ab 35bd 04de 933c 894d 233c
00000140: b266 c5bc
0.05971567 0.020968726 0.022451006 0.025148207 0.93917316 0.0011665148 0.06835768 -0.0022483033
0.008764963 0.05175945 0.017043496 0.012778536 0.038480323 -0.02092895 0.004768441 0.06770998
0.02651496 0.022226507 0.006276125 0.011619182 0.016756868 0.031021921 -0.0038699638 0.0031650183
0.04057765 0.023870317 0.0051380442 0.025795383 0.06523088 0.042188838 0.02419582 0.015185309
0.022753334 0.032233335 0.064717054 0.0050851335 0.0007415317 0.022090688 0.01455282 -0.0012037582
0.9654465 -0.0226377 0.020944009 0.023017563 -0.011193475 0.0038698246 0.032404818 0.03221027
0.028076418 0.00074387575 -0.004369389 0.02627354 0.021413961 -0.018929029 -0.0022403183 0.020676984
0.005949163 -0.0026124367 0.018602911 0.005813974 -0.0135172615 -0.002124802 -0.005332479 -0.00024504508
0.010692119 -0.007903937 -0.009241276 -0.0066849156 -0.005345082 -0.0012644248 0.0017771972 0.0072392654
-0.029808119 -0.014293856 -0.03769541 -0.01914307 0.96274656 -0.044353366 0.018050201 0.009967216
-0.02409682

bias f4 [3]
00000000: 3343 983d 2b66 203e c89a ae3e
0.07434692 0.15663974 0.34102464

weight f4 [3, 3, 3, 3]
00000000: 3630 553d 8a0a bf3c ba2c 913c 481d bf3c
00000010: f888 753f ab19 7e3a f861 893d f20c 783c
00000020: 7acb 873c 3e2c 573d 7701 c73c 2601 bd3c
00000030: d583 1f3d f994 d1bb 9f8a 843c 9497 8f3d
00000040: 9a7b 223d 3a33 1c3d 5dc4 2e3c 8266 a33c
00000050: 6060 233d 4a5a 0a3d 3e23 5d3b 9ded c53c
00000060: 2a2d 323d e9d7 023d 1d13 ca3c 9bc3 bf3c
00000070: 1da9 553d 0e83 143d 1676 993c ca5c 193c
00000080: c0fa 8b3c 44d7 b03c ab0d 3b3d f91a b8bb
00000090: 28a0 ac3b 3b9c b33c db84 973c cb7d 1c3b
000000a0: f736 7a3f cdb2 67bc 0f8f 4a3c 56f8 893c
000000b0: 0387 61bc b9a5 163c c222 1e3d 4f21 4f3d
000000c0: 6c6a 1c3d 641a 533c 4451 9c3c 31a8 d73c
000000d0: e65f d63c f2ab a0bb a9bf c0b9 990c 723c
000000e0: ba14 82bb 5422 53bb 9200 3f3c 227e aaba
000000f0: 269c 0abc c22d 59bb 901c 3dbb 9a65 613c
00000100: 2777 a63c 8be1 96bb 7050 cc3a 7528 123b
00000110: 536a 303b fe30 203c ca5a 553c 483b a43c
00000120: ff65 e6bb 0b5b b73c 39a2 5a3c 0e21 883c
00000130: 83dc 7e3f 5bbf 8dbb bb4f 363d 3176 193d
00000140: b44e 07bc
0.05204793 0.023320455 0.017721523 0.023329392 0.9591212 0.0009693156 0.06708139 0.015139805
0.016576517 0.052532427 0.02429269 0.023071837 0.038944084 -0.0063959328 0.016179381 0.07011333
0.039668657 0.03813479 0.010666934 0.01994634 0.039886832 0.033777513 0.003374293 0.024161154
0.043500103 0.03194419 0.024667317 0.023408702 0.052163232 0.036257796 0.018733066 0.009360502
0.01708734 0.021587022 0.04566733 -0.0056184498 0.0052681156 0.021925082 0.018495968 0.002387869
0.9774012 -0.0141417505 0.012363209 0.016842049 -0.013765099 0.009194785 0.038607366 0.050568875
0.03818743 0.01288471 0.01908172 0.026325317 0.026168775 -0.00490331 -0.00036763892 0.014773511
-0.003969756 -0.0032216506 0.011657851 -0.0013007561 -0.00846008 -0.0033138846 -0.0028856136 0.013757134
0.020320488 -0.0046045235 0.0015587937 0.0022301946 0.0026918843 0.009777306 0.013022134 0.020047799
-0.007031202 0.02238228 0.013344341 0.016617324 0.99555224 -0.00432579 0.04450963 0.03746623
-0.00825851

bias f4 [3]
00000000: 5fe3 803d 537c 163e 0fe9 a23e
0.062933676 0.14695863 0.31818435

weight f4 [3, 3, 3, 3]
00000000: 7991 353c acf0 713b b436 cabc a691 39bc
00000010: 747e 783f 27d2 43bc f425 ed3b 339c 013c
00000020: 7197 973b 106e 4abd 12d9 bdbb fb86 483c
00000030: e1d9 86bd ebc8 38bd 9f8c 32bc bde8 14bd
00000040: 97e5 bfbc 05be b0bc 99ad 92bc 8f57 8e3c
00000050: cd38 533c 5d12 be3b 9fcd 6d3d 09d6 7c3c
00000060: 9c64 613c bacb cb3c 2c9d b53c 5557 43bc
00000070: 0523 66bd 812f 95bc 38a7 3a3b bed8 86bd
00000080: d4fe c8bc 34cb 2d3d 3174 93bc 425d c8bc
00000090: 3638 7cbc 090f c8bb c019 523c b531 91bb
000000a0: 31d7 7b3f 83e7 d23b 44af a03b 1dfe b73b
000000b0: cf26 10bb 1724 373d 8dc4 c63c 9a7c 32bb
000000c0: b600 33bc d67f debb 0549 93bb 87fc 76bc
000000d0: eed4 52bb d11b ce3c d1d0 5fbc 3fc4 34bd
000000e0: fa2e 20bc ce22 053c 750f efbc 5460 9cbc
000000f0: 2d82 1d3d bd1e 8cbc def2 cabc 24b2 cdbc
00000100: 8561 933b 25dc 643c 3856 c2bc 3c6b a1bc
00000110: 7bc6 5abc 42c9 bcbc 213d 8abb 21ad e8bc
00000120: eb1d 2f3d 9d99 5a3d c738 0b3d 3521 00bc
00000130: 88ab 833f 7216 8dbb 4486 19bc 0a10 1d3d
00000140: 79fa d33c
0.011082047 0.0036917133 -0.024684288 -0.011326229 0.9706795 -0.01195196 0.0072371904 0.007910776
0.0046262075 -0.04942137 -0.005793699 0.012239213 -0.06584526 -0.045113485 -0.0108977845 -0.03635477
-0.023424907 -0.021574983 -0.017905043 0.017375736 0.01289196 0.005800529 0.058057424 0.015431889
0.013756897 0.024877418 0.022169672 -0.011922677 -0.05618574 -0.018211128 0.0028481018 -0.06584309
-0.024535574 0.042430118 -0.01799974 -0.024458531 -0.015394261 -0.006105308 0.012823522 -0.0044309744
0.9837523 0.0064362898 0.004903706 0.0056150095 -0.0021995788 0.044712152 0.024263645 -0.0027234913
-0.0109254625 -0.0067901416 -0.0044947886 -0.015074856 -0.0032170373 0.025159748 -0.013660626 -0.044132467
-0.009776825 0.008125974 -0.029182175 -0.019088902 0.038454223 -0.0171045 -0.024774011 -0.025109358
0.004497709 0.013968502 -0.023722753 -0.019704454 -0.0133529855 -0.023045186 -0.004218713 -0.028402867
0.04275314 0.053369153 0.033989694 -0.007820417 1.0286722 -0.004305654 -0.00937039 0.038345374
0.02587627

bias f4 [3]
00000000: 07a4 8ebb 1420 ac3c fe58 ee3c
-0.0043530497 0.02101139 0.02909517

weight f4 [3, 3, 3, 3]
00000000: 3010 5c3c 9bad 103b 816b e8bc 4c67 02bc
00000010: 3be0 783f 55cb 31bc 9ce9 283c f26d 763c
00000020: de2d 353c 47a7 51bd 3b30 8dba 1f75 983c
00000030: 07bd 8dbd 48a7 3abd 5584 edbb 8076 1fbd
00000040: 59eb a5bc 07bc 97bc 895a 59bc ce4c e33c
00000050: f5cb 533c 5be7 633b dbb5 893d 6bb3 643c
00000060: 84ac ab3b 426d fe3c e55b a53c b1d0 56bc
00000070: 2150 44bd 20fa 98bc b710 a3bb 611c 80bd
00000080: 15d7 c3bc 36ff 0b3d 835e 28bc 8f2d 74bc
00000090: 6402 64bc 5fde 1fbb e40f 1d3c a3cf 6fbb
000000a0: ac98 7b3f e2ca a03b a08d 993b 0f94 bf3b
000000b0: f3a3 0fbb ede7 4e3d 31af 213d eb57 663a
000000c0: 2dc1 68bc a229 b73b a83c 23ba 069a b2bc
000000d0: a4ee 953b 1d3d 153d b93b b8ba a6ed b7bc
000000e0: 71ca 453b d0f5 383c f385 47bc 43ac 1abb
000000f0: 6147 ee3c 8e8c 40bb 8f3c 98bb 0337 6fbc
00000100: 2e37 843c 3c6f 313c 9fe6 3ebc 0a14 f5bb
00000110: ad15 23bc 0c6f 96bc f238 ccb8 22d0 e0bc
00000120: 5df6 243d 9164 1b3d 5444 9d3c 2c99 efbb
00000130: d6fd 833f 0efa debb d9c8 47bc c2d8 d13c
00000140: abe4 b13c
0.013431594 0.0022076133 -0.028371574 -0.007959198 0.9721715 -0.010851701 0.010309603 0.015040861
0.011058299 -0.05118492 -0.001077182 0.018610535 -0.0692082 -0.045569688 -0.007248441 -0.03893137
-0.020253824 -0.018522276 -0.013266214 0.027746584 0.012927045 0.003477535 0.06724139 0.013958792
0.0052390713 0.031057958 0.02018542 -0.013111279 -0.04792798 -0.018673956 -0.004976358 -0.06255413
-0.02390627 0.034178935 -0.01027644 -0.01490344 -0.013916586 -0.0024394018 0.009586308 -0.0036592267
0.98279834 0.004906998 0.0046860725 0.0058465074 -0.002191779 0.05051415 0.039473716 0.00087869045
-0.014206213 0.00558968 -0.0006226995 -0.02180196 0.0045755673 0.036435235 -0.0014055885 -0.022452187
0.003018048 0.011289075 -0.012177932 -0.002360121 0.02908677 -0.0029380652 -0.004645891 -0.014600518
0.016139593 0.010829743 -0.011651664 -0.0074791955 -0.009953898 -0.018363498 -9.738085e-05 -0.027442995
0.040274013 0.037937704 0.01919762 -0.0073119607 1.031184 -0.006804711 -0.012193882 0.025616053
0.021715483

bias f4 [3]
00000000: f4ef 88bb 6e09 ab3c ffec 683d
-0.0041789953 0.02087852 0.056866642

weight f4 [3, 3, 3, 3]
00000000: 91cc 963c 4deb 983b 1701 11bd 4f8f 8dbb
00000010: 79d9 793f ac6f 39bc 252e 443c 2a1e c83c
00000020: 201e 913c 51a8 49bd 6481 db3b 5a99 bf3c
00000030: 80ac 90bd 231f 39bd dabd b1bb ed83 24bd
00000040: 8dc5 86bc 6f18 8abc 8d73 10bb db1c 1e3d
00000050: c757 413c 6f00 8e3b 8098 933d 3288 333c
00000060: 8a7e 17ba 15cd 103d 4e71 883c 1de6 33bc
00000070: 24e2 11bd 9499 b3bc 9f67 30bc a90d 65bd
00000080: c24f bfbc dd08 d63c 4b6b 60ba ca30 61bb
00000090: 953a 4abc c8af 5d3b 0758 d43b 5499 93bb
000000a0: 8458 7b3f 46a8 3c3b 6c82 ac3a d0bd ac3b
000000b0: a38b 61bb ef94 413d 09d0 383d 31c5 a83b
000000c0: f291 87bc c0cb 6d3c d964 aa3b e557 ddbc
000000d0: 14ec 293c 8871 403d 9c36 083c 818e deb9
000000e0: a847 153c 4334 313c 6f26 283b ec78 293c
000000f0: ac78 563c 6879 0b3c 2b59 3b3c 130a aeba
00000100: 7e3a fa3c 6ac2 503c 0ef5 623a 9c83 6f3b
00000110: bec4 65bb 84f3 43bc c96e c03b 7ce1 b2bc
00000120: c469 073d 1b30 4c3c 70b7 553c f8c2 863a
00000130: 7576 833f 851c 1cbb 360c c6ba 3df0 3d3c
00000140: 7020 9c3c
0.018408092 0.004666722 -0.03540143 -0.004320062 0.9759746 -0.011318129 0.011973892 0.024428446
0.01771456 -0.049232785 0.006698774 0.023388553 -0.07064152 -0.04519571 -0.0054242434 -0.040164877
-0.016451621 -0.016857354 -0.002204153 0.038601737 0.011800713 0.004333548 0.072068214 0.010957764
-0.00057790487 0.03535183 0.01665559 -0.010980156 -0.035616055 -0.021923818 -0.010766893 -0.05592123
-0.023353461 0.026127273 -0.000856091 -0.0034361356 -0.012343069 0.0033826698 0.0064802202 -0.004504362
0.9818194 0.0028786822 0.0013161427 0.005271651 -0.0034415505 0.047261175 0.045120273 0.00515046
-0.016549084 0.01451391 0.0052000103 -0.02701945 0.010371227 0.04698327 0.008313801 -0.00042449313
0.009111322 0.010815683 0.0025657674 0.010343771 0.013090294 0.008512832 0.0114348335 -0.0013278149
0.03054547 0.012741664 0.0008657732 0.003654695 -0.0035059894 -0.011959914 0.0058725816 -0.021836035
0.03305985 0.012462641 0.013044223 0.0010281494 1.0270525 -0.002382071 -0.001510984 0.011592922
0.019058436

bias f4 [3]
00000000: 2211 df3a 9a2e ce3c 46a7 a83d
0.0017018656 0.025168706 0.0823503

weight f4 [3, 3, 3, 3]
00000000: 4836 eb3c 4688 5d3c 236f 29bd 6564 cb3a
00000010: f33c 7b3f cf5b 3dbc 62ce 5e3c c92d 133d
00000020: 6436 d03c 0c6b 2cbd 1cb3 983c 2687 f03c
00000030: 661f 91bd 5728 39bd 43ca a3bb 67dc 2ebd
00000040: 4d62 54bc 5b84 84bc c6b8 d63b 5984 303d
00000050: bd71 453c a209 df3a 7d87 8d3d ea28 c83b
00000060: a085 39bc ef77 033d 3eb4 463c 30f0 c4bb
00000070: bffb 9dbc a6db cfbc f6cf 7dbc 0ccb 3bbd
00000080: 8e77 a7bc 6129 893c 76f0 193c 42bf 263c
00000090: ad5e 2dbc 4271 1e3c 4232 843b 2efa d6bb
000000a0: cb12 7b3f 4684 393a f457 7dbb 1395 ac3b
000000b0: 7ad1 93bb c6a4 223d 7902 2e3d 4887 253c
000000c0: a405 a3bc 7ac2 a33c f3c6 3f3c 7688 1ebd
000000d0: 2651 623c 6e11 623d 2cd9 7e3c 9fe9 7b3c
000000e0: e05e cd3b 625e 413c 2d83 333c 35b9 853c
000000f0: 588b da3a 7073 6b3c 5df8 9e3c 1288 4d3c
00000100: 4e3f 243d 0fb6 733c 495c 703c a612 2e3c
00000110: 2473 8e3b 0889 5b3a 35f4 683c e39e 34bc
00000120: 1bac 8a3c 43a4 6dbc ae84 593c 6dca af3b
00000130: 4bc3 823f 70bb d83b 2323 ca3b bc3d 3cbb
00000140: 1bff 9d3c
0.028712407 0.01352126 -0.041365754 0.0015517591 0.98139876 -0.011557533 0.01359901 0.035932336
0.02541656 -0.042094275 0.018640094 0.029361319 -0.07086067 -0.045204487 -0.0049984767 -0.04269066
-0.01296289 -0.016176393 0.0065527884 0.043094967 0.012051043 0.0017016421 0.06910608 0.006108393
-0.011323363 0.0320968 0.012127934 -0.006010078 -0.019285081 -0.025373291 -0.015491476 -0.045847937
-0.02044275 0.016743364 0.009395709 0.010177435 -0.0105816545 0.009670557 0.0040343115 -0.0065605855
0.9807555 0.00070769 -0.003865716 0.0052667945 -0.0045110555 0.03970792 0.042482827 0.010103054
-0.01990015 0.019990195 0.011705148 -0.038704358 0.013813293 0.055192403 0.0155547075 0.015375524
0.0062674135 0.011802288 0.010956568 0.016323665 0.0016673608 0.014370784 0.019405538 0.012544649
0.040099435 0.014874949 0.01467044 0.010624563 0.004347222 0.0008374606 0.01421838 -0.01102421
0.01692777 -0.014504495 0.013276262 0.005364707 1.0215849 0.006614141 0.0061687394 -0.002872332
0.019286683

bias f4 [3]
00000000: 5ddc c2bc d0ff 863c 8705 e53d
-0.023786718 0.016479403 0.11182695

weight f4 [3, 3, 3, 3]
00000000: 1dca 283d 7ab5 bd3c 989e 39bd fdb7 123c
00000010: aad1 7c3f c5f3 4fbc fbea 7e3c fbeb 373d
00000020: ffb5 f33c 1a35 ecbc 8517 083d e26b 173d
00000030: 9ee3 87bd f552 2dbd b5d7 8dbb 1175 2bbd
00000040: 25c6 03bc 0cdc 7cbc d1b2 903c 2611 3f3d
00000050: 0779 843c 7150 bf3a d401 8c3d 1696 9e3b
00000060: af68 41bc 2f5d fe3c d473 2c3c 93d7 9ab9
00000070: fe12 60ba 9aa4 c5bc df76 97bc 5f9c 09bd
00000080: 6db3 67bc 923a 2f3c d65c b73c b368 df3c
00000090: e5c0 21bc 5d62 863c 6d57 a23b d0c5 2abc
000000a0: 68df 7a3f dec2 db39 1990 02bc 7e22 093c
000000b0: 360f 54bb 41c4 1e3d 6d8e 1a3d 1bc2 853c
000000c0: bf0f 65bc 972b cd3c 4acc 9e3c eed3 0ebd
000000d0: 4d92 7b3c 13fd 7d3d 3ed5 213c 2069 a13c
000000e0: 0e14 623b b383 cf3b 3e97 123c 570f 963c
000000f0: 67d8 29bc c6e0 243c 341e 923c fb4a 923c
00000100: eea9 263d e646 8c3c 971a bf3c dc0d 453c
00000110: c7b8 653c cd05 553c e920 c33c 3412 763b
00000120: 6381 00ba 7aff 13bd b0ee 313c f78c 353c
00000130: 53f3 813f b329 823c 5acd 753c 96a7 4fbc
00000140: 530f 9f3c
0.041208375 0.023157824 -0.045317262 0.008954999 0.9875742 -0.0126923965 0.015558953 0.044902783
0.029749868 -0.028833915 0.033225555 0.03696812 -0.066352114 -0.042315442 -0.004328693 -0.04185969
-0.008042847 -0.015433323 0.017663391 0.046647213 0.016170992 0.0014596117 0.06836286 0.004839669
-0.011804744 0.031050293 0.010525662 -0.00029533784 -0.0008547752 -0.02412634 -0.0184893 -0.033596393
-0.0141418995 0.010695117 0.022383135 0.027271604 -0.00987265 0.016404325 0.0049542696 -0.010423139
0.9799714 0.00041916122 -0.007968926 0.00837004 -0.00323577 0.03876138 0.037733484 0.016327908
-0.013980805 0.0250452 0.019384522 -0.03487008 0.015354705 0.06200893 0.009877501 0.019703448
0.0034496817 0.0063328384 0.008947192 0.018317861 -0.010366536 0.010063356 0.017836668 0.01785802
0.0406894 0.01712365 0.023328109 0.01202723 0.014021105 0.013001871 0.023819404 0.003754747
-0.00049020926 -0.036132313 0.01086013 0.011080972 1.0152382 0.015889024 0.015002573 -0.012674233
0.019416487

bias f4 [3]
00000000: 46fb 94bc bfb3 a23c 6b42 0b3e
-0.018186223 0.0198611 0.13599555

weight f4 [3, 3, 3, 3]
00000000: c5bf 693d 2439 0c3d 6885 37bd b09a 993c
00000010: a136 7e3f 1162 81bc ad5b a73c 03aa 4d3d
00000020: 82ce e53c f3c3 19bc 8250 463d df58 333d
00000030: 5f7f 69bd 4cc7 1bbd 4de1 afbb 308e 18bd
00000040: 3382 13bb 541f 74bc 4dba d53c 4462 413d
00000050: a351 b23c 9d41 423a 50e2 8a3d 4878 823b
00000060: 76c5 1dbc 11ad ec3c 3f5b f73b cc97 143c
00000070: b5a9 943c ac04 86bc 6dbc 8dbc a0cc 9fbc
00000080: 17d3 59bb 63e5 ea3b d224 0a3d ffbc 343d
00000090: a7c5 12bc 40e7 b73c f2e4 023c 22a1 70bc
000000a0: c947 7b3f 077c 343b 7ba8 3dbc 96ee 663c
000000b0: e4da ce3a b2e0 3c3d fffe 0e3d 1655 ca3c
000000c0: a301 07bb 5340 fa3c e14f e43c dfbd c4bc
000000d0: 7ce9 8c3c 215f 8b3d 0a26 63bc 2025 163c
000000e0: cd93 20bb 44c9 09bc 27f5 87ba 7140 853c
000000f0: 0006 cabc 748c 18bb 3ff4 063c fea3 a23b
00000100: 0d33 eb3c 6483 383c 261e a63c 98b8 0b3c
00000110: 1b69 9e3c 7d2b 7c3c d4f0 f23c ce7f 773c
00000120: 0a19 a3bc 40a1 4dbd c62f 973b b44a 3a3c
00000130: 11f3 803f ce07 ae3c a8bd 8b3c 65b2 9ebc
00000140: 734f 883c
0.05706765 0.03423418 -0.04480496 0.018750519 0.9930211 -0.015793832 0.020429457 0.050210964
0.028052572 -0.009385097 0.048416622 0.043785926 -0.057006236 -0.03803186 -0.005367434 -0.037244976
-0.0022508025 -0.014900047 0.026089812 0.047212854 0.021767443 0.000741029 0.06781447 0.003981624
-0.009629598 0.028891118 0.007548719 0.009069394 0.018147329 -0.01635965 -0.017301762 -0.019506752
-0.0033237392 0.0071684583 0.03372652 0.044125553 -0.008958257 0.022449136 0.007989155 -0.014686855
0.9815641 0.0027539746 -0.011575813 0.014094969 0.0015781787 0.046112724 0.034911152 0.024698775
-0.002060034 0.03054825 0.02787012 -0.024016319 0.017201178 0.06805254 -0.01386405 0.009164125
-0.0024502159 -0.008409802 -0.0010372744 0.01626608 -0.024661064 -0.0023277076 0.008236944 0.004963397
0.028710866 0.011261795 0.020278048 0.008527897 0.019337228 0.015391228 0.029655851 0.015106155
-0.0199094 -0.050202608 0.0046138493 0.01137035 1.0074178 0.021243956 0.017058209 -0.019372175
0.016639447

bias f4 [3]
00000000: e6d3 67bc c810 ab3c 2691 1e3e
-0.014149642 0.020882025 0.15485057
