data/video_perturbations/scuba_diving/2018-07-23 03:18:04.169892/pert_model.pt (torch_old, 37601 bytes, 54 tensors)

weight f4 [3, 3, 3, 3, 3]
0.05760878 0.05793118 0.05824117 0.058529492 0.058715723 0.05877045 0.05897302 0.058836874
0.058504287 -0.05287848 -0.04800537 -0.044660445 0.0006597912 2.1888402 0.036346626 0.08354553
0.29912052 0.28908625 0.060838636 0.06333084 0.065521225 0.06292362 0.06478491 0.06634495
0.06426494 0.06518949 0.06589567 0.058852892 0.060528535 0.059572678 0.058635373 0.059853844
0.058508027 0.05798149 0.05863389 0.056754746 0.05795721 0.060963932 0.059476536 0.05818085
0.06028572 0.05860007 0.057511788 0.058928877 0.056489334 0.056847103 0.058264464 0.05780206
0.05703459 0.058239724 0.05777295 0.0568582 0.0577482 0.057156935 -0.05600739 -0.05170501
-0.05282255 -0.05629646 -0.05238745 -0.05487716 -0.056980632 -0.0546368 -0.05922148 -0.05834048
-0.055071052 -0.056745093 -0.058282353 -0.054332476 -0.057521682 -0.058664095 -0.05685451 -0.059999097
-0.07654043 -0.055816337 -0.059705094 -0.09098483 -0.057849217 -0.06626378 -0.10435223 -0.07222452
-0.09203696 0.050739083 0.06900468 0.020181054 0.065938644 0.09531145 0.046505805 0.04960436
0.07402295 0.044044677 0.16605204 -0.0056700544 -0.17301537 0.19964725 0.0326117 -0.15044075
0.19769545 0.033336625 -0.15318596 -0.08435936 -0.08095145 -0.05431443 -0.03400603 -0.059431948
-0.010012471 -0.000103340375 -0.038233344 0.015287957 -0.027312323 0.069268174 -0.087988965 -0.05217699
0.031950533 -0.18811935 -0.1418708 -0.12838858 -0.3714488 0.5279728 0.50849056 0.12936749
0.45813218 1.5003854 0.13593322 0.29806927 0.274912 0.013025605 -0.1406528 -0.09682319
-0.16184334 -0.12899649 -0.09142841 -0.14587764 -0.18504634 -0.16485676 -0.22253197 0.055631317
0.14710185 0.049735885 0.04974843 0.13454144 -0.010169037 -0.039536998 0.0026554056 -0.21006046
0.32006374 0.40495363 0.28861275 0.3285911 0.40149352 0.26524833 0.30292618 0.34754723
0.1601574 -0.057885636 -0.034124143 -0.1438819 0.008746696 -0.032196656 -0.1483901 -0.042175252
-0.17691477 -0.29538938 0.030390771 0.00030683537 -0.008982792 0.03448386 0.02329441 0.014573681
0.039555646 0.02679409 0.01710281 0.051348828 0.019471962 0.006077886 0.039472573 0.026791792
0.014335044 0.048508134 0.0349356 0.023242494 0.03780136 0.032805983 0.03684485 0.045648914
0.041508634 0.048247855 0.05541106 0.0510378 0.057426095 0.0904653 0.09870766 0.086459935
0.08857806 0.092569664 0.07300258 0.08060291 0.077627875 0.05285423 0.07507891 0.103879854
0.10060756 0.0788855 0.09909655 0.08375355 0.073236056 0.079941 0.057622146 0.004716682
0.0011219647 -0.08950034 0.023160256 0.030399952 0.010545208 0.014433748 0.020842608 0.013144386
0.008517415 0.053629663 -0.09492407 0.0010669417 0.00646704 -0.096277125 -0.00094051036 -0.03468566
-0.12637867 -0.25177866 -0.09954701 -0.09851356 -0.31291425 0.8648952 -0.14330564 -0.067719005
-0.4568824 -0.3002996 -0.39600545 -0.2546741 -0.18199427 -0.32140103 -0.3524202 -0.24923678
-0.15252936 -0.38126838 -0.9799874
00000000: 2ff7 6b3d 3f49 6d3d 4b8e 6e3d 9fbc 6f3d
00000010: e67f 703d 49b9 703d b28d 713d effe 703d
00000020: 31a2 6f3d 1b97 58bd 47a1 44bd dfed 36bd
00000030: d7f5 2c3a f515 0c40 33e0 143d eb19 ab3d
00000040: 5326 993e 1d03 943e ef31 793d 99b3 813d
00000050: fe2f 863d 19de 803d f3ad 843d dcdf 873d
00000060: 569d 833d 1182 853d 4ff4 863d bb0f 713d
00000070: c5ec 773d 7b02 743d a52b 703d 4e29 753d
00000080: 1da6 6f3d 007e 6d3d 172a 703d aa77 683d
00000090: 8a64 6d3d 51b5 793d ab9d 733d 0b4f 6e3d
000000a0: 29ee 763d a106 703d 7b91 6b3d 685f 713d
000000b0: 5c61 673d 82d8 683d b8a6 6e3d dac1 6c3d
000000c0: 1a9d 693d c78c 6e3d 54a3 6c3d 25e4 683d
000000d0: 6089 6c3d 641d 6a3d 0168 65bd a2c8 53bd
000000e0: 755c 58bd 1e97 66bd 3994 56bd dfc6 60bd
000000f0: 8664 69bd d6ca 5fbd 3992 72bd 6df6 6ebd
00000100: 2f92 61bd 8b6d 68bd 7ab9 6ebd bb8b 5ebd
00000110: db9b 6bbd c349 70bd 46e0 68bd 9dc1 75bd
00000120: 3bc1 9cbd ac9f 64bd 548d 74bd 4156 babd
00000130: 4df3 6cbd 4eb5 87bd 9fb6 d5bd 73ea 93bd
00000140: e07d bcbd c9d3 4f3d 5352 8d3d bd52 a53c
00000150: d70a 873d a632 c33d df7c 3e3d f12d 4b3d
00000160: 5899 973d 3168 343d 8c09 2a3e ddcb b9bb
00000170: f12a 31be 5470 4c3e d993 053d 240d 1abe
00000180: ad70 4a3e fc8b 083d c8dc 1cbe 9ac4 acbd
00000190: e0c9 a5bd cf78 5ebd e849 0bbd ea6e 73bd
000001a0: 590b 24bc 71b8 d8b8 919a 1cbd 577a 7a3c
000001b0: 18be dfbc 79dc 8d3d 8f33 b4bd 8ab7 55bd
000001c0: 90de 023d 5ca2 40be 9446 11be 4c78 03be
000001d0: 8a2e bebe 3a29 073f 702c 023f e978 043e
000001e0: 4d90 ea3e a10c c03f 1432 0b3e 899c 983e
000001f0: 44c1 8c3e 5969 553c 4a07 10be 3d4b c6bd
00000200: 43ba 25be a817 04be d13e bbbd f360 15be
00000210: ca7c 3dbe 36d0 28be 6cdf 63be aadd 633d
00000220: dea1 163e dbb7 4b3d 02c5 4b3d 3bc5 093e
00000230: 089c 26bc 8cf1 21bd 5006 2e3b 171a 57be
00000240: 65df a33e 1556 cf3e 0dc5 933e 183d a83e
00000250: 8f90 cd3e a1ce 873e 2419 9b3e b6f1 b13e
00000260: 4d00 243e 7d19 6dbd c2c5 0bbd c755 13be
00000270: 4d4e 0f3c a4e0 03bd 93f3 17be f5bf 2cbd
00000280: 2529 35be 473d 97be 11f6 f83c bfde a039
00000290: 8f2c 13bc f33e 0d3d ebd3 be3c 73c6 6e3c
000002a0: 1a05 223d 487f db3c 311b 8c3c 2653 523d
000002b0: aa83 9f3c 0129 c73b fead 213d 767a db3c
000002c0: 88dd 6a3c 77b0 463d a218 0f3d 0b67 be3c
000002d0: 99d5 1a3d 915f 063d a0ea 163d 5bfa 3a3d
000002e0: f504 2a3d 8b9f 453d b5f6 623d 030d 513d
000002f0: a037 6b3d df45 b93d 3e27 ca3d e811 b13d
00000300: 6a68 b53d 2a95 bd3d 6082 953d 2313 a53d
00000310: 5dfb 9e3d ad7d 583d f9c2 993d f6be d43d
00000320: 560b ce3d b98e a13d 22f3 ca3d fb86 ab3d
00000330: c9fc 953d 1bb8 a33d 3305 6c3d 658e 9a3b
00000340: e30e 933a f44b b7bd 94ba bd3c 5209 f93c
00000350: cfc5 2c3c 877b 6c3c 1ebe aa3c 8d5b 573c
00000360: a18c 0b3c c7aa 5b3d 8d67 c2bd 9fd8 8b3a
00000370: 77e9 d33b f12c c5bd 958c 76ba 8d12 0ebd
00000380: 6969 01be 22e9 80be 4edf cbbd 7ac1 c9bd
00000390: 4c36 a0be c669 5d3f b7be 12be 43b0 8abd
000003a0: 7dec e9be dfc0 99be 3ac1 cabe a564 82be
000003b0: b55c 3abe ad8e a4be 6c70 b4be ed37 7fbe
000003c0: a830 1cbe 9c35 c3be 74e0 7abf

bias f4 [3]
0.059846647 0.07940107 0.018737338
00000000: c221 753d 079d a23d 0c7f 993c

weight f4 [3]
0.69655156 0.9234398 -0.09316013
00000000: 3451 323f 8d66 6c3f bdca bebd

bias f4 [3]
0.24250063 -1.2693871 0.33940497
00000000: 1652 783e 477b a2bf 7dc6 ad3e

running_mean f4 [3]
-2.6430826 0.46068966 -0.88202083
00000000: 4428 29c0 84df eb3e 1ecc 61bf

running_var f4 [3]
3.3628294 3.412915 2.1418412
00000000: 9938 5740 336d 5a40 ed13 0940

weight f4 [3, 3, 3, 3, 3]
0.04994278 0.049846023 0.047421325 0.052252423 0.05200731 0.049474582 0.053046927 0.052299447
0.049475953 -0.08495526 -0.070896626 -0.07708111 -0.09757355 1.217249 -0.09708866 -0.048680123
-0.017638128 -0.284108 0.05931774 0.060977023 0.060540337 0.06153813 0.06277101 0.06216587
0.06296952 0.06345028 0.062344693 0.05983679 0.064530425 0.06457097 0.05933942 0.06367429
0.06291177 0.057135753 0.0608249 0.058905568 0.060655545 0.07086776 0.075233825 0.06187502
0.06882446 0.07128097 0.060036488 0.066161074 0.06501143 0.058643393 0.065097116 0.066997185
0.059849475 0.06511756 0.06604854 0.05966899 0.063316934 0.06277526 -0.050436597 -0.04639403
-0.04283453 -0.051945403 -0.04892512 -0.0458496 -0.057405215 -0.05719438 -0.056127053 -0.058249526
-0.056440845 -0.055365328 -0.059411094 -0.058226895 -0.057236534 -0.06310771 -0.06424213 -0.06337434
-0.07811454 -0.07146985 -0.06541444 -0.08921932 -0.08290127 -0.07337421 -0.11581348 -0.11205681
-0.10010628 0.14586079 0.1425674 0.14949186 0.14467971 0.13688686 0.13169822 0.13976116
0.13066567 0.11551765 0.18593296 0.20164397 0.29095003 0.14847043 0.16035782 0.20072
0.14702055 0.13603814 0.149211 0.20411938 0.2705541 0.35974944 0.21187569 0.2702712
0.3303558 0.20312776 0.25533268 0.27905196 0.07980291 0.099542305 0.122289 0.079357
0.09005507 0.10496023 0.070504904 0.07190793 0.075840615 0.080417335 0.2523364 0.28005728
0.030580025 1.2812278 0.2976715 0.05600616 0.22942412 0.25641242 0.07266397 0.21652797
0.22412382 0.1741664 0.29957512 0.27310798 0.21419144 0.28828415 0.25801483 0.059670165
0.07573222 0.089417346 0.054115687 0.05828355 0.06467645 0.03763574 0.031895194 0.033232026
0.18077293 0.21371359 0.23143488 0.17800008 0.21218003 0.22615632 0.15684943 0.19310133
0.20138124 0.19927646 0.25577188 0.2642308 0.2278486 0.27347946 0.27238098 0.23374397
0.2795102 0.26694676 0.0033425493 0.00041480924 -0.017145714 0.0025348428 -0.0030133268 -0.0026188486
0.0029525473 -0.006314329 -0.010219765 0.0340946 0.034617886 0.06747634 0.016975388 0.03476035
0.061292432 0.01510248 0.025815854 0.040231597 0.04283177 0.05530653 0.067229114 0.04864232
0.058448274 0.06447632 0.049198724 0.05309746 0.051173028 -0.025494035 -0.05901847 -0.057951696
-0.032656092 -0.07958475 -0.07782716 -0.01673983 -0.060963605 -0.049154297 -0.43957147 -0.230497
-0.13846935 -0.43059173 -0.21446101 -0.1429463 -0.23835139 -0.27315497 -0.19751011 -0.037471365
0.023655515 0.06664453 -0.03198926 0.035795998 0.080188334 0.042543296 0.040574603 0.10876419
-0.098921694 -0.078711614 -0.07828114 -0.08773158 -0.072471395 -0.07850075 -0.09351702 -0.0796426
-0.092092365 -0.10405044 -0.08344037 -0.07668959 -0.12119388 0.9128754 -0.09915756 -0.13153827
-0.11258118 -0.09047126 -0.13326386 -0.10746934 -0.09524098 -0.13681817 -0.11522291 -0.10473031
-0.16540156 -0.14237124 -0.12968995
00000000: cd90 4c3d 582b 4c3d dd3c 423d a306 563d
00000010: 9e05 553d dca5 4a3d bc47 593d f237 563d
00000020: 4ca7 4a3d 06fd adbd 4032 91bd b3dc 9dbd
00000030: a4d4 c7bd d1ce 9b3f 6bd6 c6bd cf64 47bd
00000040: d67d 90bc 9b76 91be 29f7 723d 0bc3 793d
00000050: 25f9 773d 680f 7c3d 168e 803d a4a1 7e3d
00000060: 2af6 803d 38f2 813d 265d 7f3d 6c17 753d
00000070: 8728 843d c93d 843d e40d 733d ab67 823d
00000080: e3d7 803d 2e07 6a3d 8823 793d f746 713d
00000090: f371 783d 1e23 913d 3114 9a3d a970 7d3d
000000a0: d7f3 8c3d c2fb 913d d2e8 753d 757f 873d
000000b0: b624 853d 0e34 703d a351 853d d235 893d
000000c0: b924 753d 5b5c 853d 7544 873d 7967 743d
000000d0: 4fac 813d 5190 803d 9b96 4ebd ab07 3ebd
000000e0: 4373 2fbd b4c4 54bd b565 48bd cacc 3bbd
000000f0: bb21 6bbd a744 6abd 7be5 65bd 0e97 6ebd
00000100: 842e 67bd c1c6 62bd 0c59 73bd 537f 6ebd
00000110: db70 6abd 9d3e 81bd 6191 83bd 68ca 81bd
00000120: 84fa 9fbd c95e 92bd 02f8 85bd 9eb8 b6bd
00000130: 24c8 a9bd 3845 96bd 9e2f edbd 0a7e e5bd
00000140: 8504 cdbd 885c 153e 30fd 113e 6514 193e
00000150: eb26 143e 122c 0c3e e6db 063e 8d1d 0f3e
00000160: 39cd 053e 8594 ec3d 3665 3e3e c27b 4e3e
00000170: 67f7 943e a208 183e d734 243e 8b89 4d3e
00000180: 8e8c 163e 954d 0b3e c5ca 183e ac04 513e
00000190: 1186 8a3e 1431 b83e f1f5 583e fd60 8a3e
000001a0: 6524 a93e b900 503e f7ba 823e e6df 8e3e
000001b0: b56f a33d d6dc cb3d a872 fa3d ec85 a23d
000001c0: cb6e b83d 64f5 d63d e064 903d 7744 933d
000001d0: 5352 9b3d d8b1 a43d 3d32 813e ab63 8f3e
000001e0: f682 fa3c 46ff a33f 6668 983e b766 653d
000001f0: 28ee 6a3e 7d48 833e d9d0 943d 82b9 5d3e
00000200: b780 653e ad58 323e e961 993e cfd4 8b3e
00000210: 0055 5b3e fb99 933e 851a 843e b468 743d
00000220: 7f19 9b3d 7120 b73d 69a8 5d3d bbba 6e3d
00000230: 1675 843d ef27 1a3d 89a4 023d 4e1e 083d
00000240: 8a1c 393e bcd7 5a3e 44fd 6c3e a745 363e
00000250: b945 593e 8695 673e 239d 203e 5bbc 453e
00000260: e236 4e3e 210f 4c3e 88f4 823e 4249 873e
00000270: 2551 693e 8005 8c3e 8575 8b3e 945a 6f3e
00000280: f61b 8f3e 3fad 883e ac0e 5b3b c17a d939
00000290: 2b75 8cbc 9b1f 263b 3c7b 45bb fda0 2bbb
000002a0: 867f 413b 6ee8 cebb cd70 27bc c7a6 0b3d
000002b0: 7ccb 0d3d 0931 8a3d f80f 8b3c de60 0e3d
000002c0: c60d 7b3d 6470 773c c57b d33c e3c9 243d
000002d0: 5e70 2f3d 1a89 623d 6baf 893d 2b3d 473d
000002e0: 7567 6f3d 290c 843d 9a84 493d b97c 593d
000002f0: cf9a 513d ded8 d0bc 5abd 71bd c25e 6dbd
00000300: 65c2 05bd 54fd a2bd d963 9fbd f821 89bc
00000310: f9b4 79bd 0456 49bd 830f e1be 6807 6cbe
00000320: e9ca 0dbe 8576 dcbe ab9b 5bbe 8460 12be
00000330: 6312 74be f8da 8bbe 1740 4abe 937b 19bd
00000340: 36c9 c13c ed7c 883d 2c07 03bd d39e 123d
00000350: c839 a43d e141 2e3d 8e31 263d c2bf de3d
00000360: 7597 cabd 8e33 a1bd dd51 a0bd 9dac b3bd
00000370: e26b 94bd 00c5 a0bd da85 bfbd a91b a3bd
00000380: ec9a bcbd 6618 d5bd c9e2 aabd 6f0f 9dbd
00000390: 7f34 f8bd 34b2 693f 1e13 cbbd f8b1 06be
000003a0: f690 e6bd ff48 b9bd 5276 08be e318 dcbd
000003b0: b40d c3bd 101a 0cbe fdf9 ebbd d87c d6bd
000003c0: 075f 29be c4c9 11be 71cd 04be

bias f4 [3]
0.060299274 -0.04034285 -0.09783347
00000000: 5ffc 763d 8b3e 25bd ea5c c8bd

weight f4 [3]
0.5266711 0.0020578569 1.1765887
00000000: ebd3 063f 1cdd 063b 759a 963f

bias f4 [3]
-0.1848824 0.08465359 0.5319634
00000000: d051 3dbe dd5e ad3d c12e 083f

running_mean f4 [3]
-2.326293 -4.3655376 2.6148963
00000000: fce1 14c0 7cb2 8bc0 765a 2740

running_var f4 [3]
3.0608327 38.740185 5.232066
00000000: afe4 4340 f3f5 1a42 166d a740

weight f4 [3, 3, 3, 3, 3]
0.060280204 0.06027636 0.059887543 0.060238063 0.060249176 0.05990151 0.060273964 0.060323868
0.059995946 -0.05738703 -0.05915828 -0.06263041 -0.04761892 0.97162807 -0.06953904 -0.035515565
-0.033236347 -0.04699085 0.059754297 0.05927633 0.058508057 0.06001551 0.059630815 0.05893783
0.060450967 0.060187116 0.05955566 0.060463514 0.059265003 0.05786603 0.05975975 0.05876262
0.057638176 0.059952717 0.05920317 0.058228754 0.054162227 0.053145796 0.0505499 0.05505274
0.054857858 0.052683152 0.056233842 0.055720672 0.054304413 0.053562537 0.052607283 0.051755887
0.054402538 0.053320307 0.0523463 0.05582225 0.054697115 0.053620495 -0.06689955 -0.06769219
-0.06813096 -0.06640841 -0.06742688 -0.0682025 -0.06593329 -0.06680835 -0.068002105 -0.06472216
-0.064851545 -0.063860655 -0.06445602 -0.065669045 -0.064091876 -0.063547485 -0.0640142 -0.06352701
-0.06376933 -0.060161266 -0.057468917 -0.06181044 -0.057745922 -0.054819815 -0.059932392 -0.055365384
-0.051685043 0.0053390353 0.014286468 0.052842237 -0.001737918 0.014850547 0.058022648 -0.0060799373
0.018739035 0.064768255 0.015909694 -0.065151066 -0.069050044 -0.045172367 -0.1018452 -0.11468096
-0.06387377 -0.1086162 -0.07162041 0.04399671 -0.0852974 0.010427492 -0.012196995 -0.16839716
-0.11154876 -0.073405735 -0.18185452 -0.22563675 -0.059782743 -0.07405298 -0.07005215 -0.052984875
-0.06645481 -0.070213474 -0.054368347 -0.06542591 -0.07613851 -0.33474833 -0.18017742 -0.13971713
-0.36908597 0.7354704 -0.1571795 -0.33616132 -0.3308304 -0.24968505 -0.1066393 0.0076863808
-0.0050042165 -0.14287412 -0.051018678 0.024121026 -0.17132035 -0.12810741 -0.07903227 -0.17151825
-0.19245045 -0.21714477 -0.18627077 -0.20681353 -0.22688891 -0.18363659 -0.202202 -0.22010909
-0.23076501 -0.23910089 -0.22561206 -0.2379451 -0.24574326 -0.23407899 -0.23664297 -0.23607258
-0.2268183 -0.20151211 -0.11311523 -0.06352258 -0.24503502 -0.121384755 -0.07361767 -0.34474778
-0.17345858 -0.10486419 0.06603786 0.10362057 0.030290395 0.06942266 0.105725735 0.026474273
0.02913829 0.045974154 -0.08037055 0.12791507 0.23838675 0.24695 0.14393294 0.27618134
0.2638459 0.13435826 0.23751107 0.17315753 0.14978927 0.3159169 0.36278686 0.20836526
0.36120456 0.3844936 0.22639717 0.33480465 0.31383654 0.20824718 0.24774687 -0.07950151
0.34805116 0.25423425 -0.025490576 0.3926445 0.24881174 -0.078498885 0.15171222 0.0405741
-0.17345227 0.1816049 0.11279272 -0.07896331 0.3309932 0.20795166 0.009911982 -0.23578587
-0.23810412 -0.36459133 -0.08144225 0.020063013 -0.077159375 0.19198267 0.31503358 0.18485716
-0.026600003 -0.09208008 -0.0775663 0.05843348 -0.008494098 0.011834208 0.1706317 0.10973185
0.16042587 -0.21502355 -0.4330334 -0.4101733 -0.23732637 0.67462856 -0.35411873 -0.0020271041
-0.24737535 -0.25106284 0.2393953 -0.010058423 -0.20900275 0.21379445 -0.002461023 -0.18314677
0.25351742 0.07958676 -0.11825311
00000000: 60e8 763d 58e4 763d a44c 753d 30bc 763d
00000010: d7c7 763d 495b 753d d5e1 763d 2916 773d
00000020: 4fbe 753d aa0e 6bbd f44f 72bd 5f44 80bd
00000030: 0f0c 43bd 9ebc 783f 7c6a 8ebd c578 11bd
00000040: d622 08bd 7a79 40bd ecc0 743d bdcb 723d
00000050: 25a6 6f3d d3d2 753d 713f 743d cb68 713d
00000060: 6f9b 773d c486 763d a3f0 733d 97a8 773d
00000070: dcbf 723d ee04 6d3d a4c6 743d 13b1 703d
00000080: 0216 6c3d fb90 753d 067f 723d 4681 6e3d
00000090: 36d9 5d3d 68af 593d 690d 4f3d fb7e 613d
000000a0: a2b2 603d 4aca 573d 7555 663d 5c3b 643d
000000b0: 4e6e 5e3d 6464 5b3d bc7a 573d fbfd 533d
000000c0: 32d5 5e3d 6566 5a3d 1369 563d dfa5 643d
000000d0: 150a 603d 2aa1 5b3d a202 89bd 34a2 8abd
000000e0: 3f88 8bbd 2201 88bd 1b17 8abd c1ad 8bbd
000000f0: 0808 87bd d1d2 88bd b044 8bbd 0d8d 84bd
00000100: e3d0 84bd 60c9 82bd 8501 84bd 7e7d 86bd
00000110: 9a42 83bd 2f25 82bd e019 83bd 731a 82bd
00000120: 7f99 82bd a96b 76bd 8764 6bbd f22c 7dbd
00000130: fd86 6cbd be8a 60bd ab7b 75bd d0c6 62bd
00000140: b2b3 53bd 13f3 ae3b ca11 6a3c 1a71 583d
00000150: daca e3ba b54f 733c 28a9 6d3d 363a c7bb
00000160: 9b82 993c 38a5 843d 0c55 823c ec6d 85bd
00000170: 1c6a 8dbd a906 39bd 3794 d0bd dadd eabd
00000180: 40d0 82bd 2c72 debd b9ad 92bd e535 343d
00000190: 67b0 aebd 12d8 2a3c e8d5 47bc 4e70 2cbe
000001a0: ad73 e4bd bf55 96bd 1238 3abe 520d 67be
000001b0: c0de 74bd 17a9 97bd 8077 8fbd ab06 59bd
000001c0: 7619 88bd 15cc 8fbd 58b1 5ebd 05fe 85bd
000001d0: 82ee 9bbd 2264 abbe 6e80 38be 0212 0fbe
000001e0: d6f8 bcbe ca47 3c3f aaf3 20be 561d acbe
000001f0: 9a62 a9be 70ad 7fbe b565 dabd 09de fb3b
00000200: 69fa a3bb 984d 12be f6f8 50bd 7599 c53c
00000210: 9a6e 2fbe 972e 03be acdb a1bd 7ba2 2fbe
00000220: bb11 45be 335b 5ebe c4bd 3ebe edc6 53be
00000230: 9155 68be 3b0b 3cbe 0b0e 4fbe 4764 61be
00000240: aa4d 6cbe ddd6 74be d906 67be e1a7 73be
00000250: 1fa4 7bbe 67b2 6fbe 8952 72be 03bd 71be
00000260: 0e43 68be 3159 4ebe f5a8 e7bd 2018 82bd
00000270: 76ea 7abe 9298 f8bd dcc4 96bd c882 b0be
00000280: 209f 31be 09c3 d6bd dc3e 873d 0537 d43d
00000290: 9023 f83c 782d 8e3d bc86 d83d 93e0 d83c
000002a0: 6cb3 ee3c 654f 3c3d 5199 a4bd 2bfc 023e
000002b0: a81b 743e 76e0 7c3e 2863 133e a467 8d3e
000002c0: cf16 873e 3695 093e 1a36 733e 3550 313e
000002d0: 5c62 193e dcbf a13e 33bf b93e b45d 553e
000002e0: ceef b83e 58dc c43e a9d4 673e 846b ab3e
000002f0: 2faf a03e c03e 553e 5bb1 7d3e b0d1 a2bd
00000300: c333 b23e fe2a 823e 9dd1 d0bc b308 c93e
00000310: 81c8 7e3e 06c4 a0bd 735a 1b3e 0731 263d
00000320: 799d 31be a3f6 393e dfff e63d 84b7 a1bd
00000330: f177 a93e 48f1 543e de65 223c da71 71be
00000340: 91d1 73be b7ab babe 32cb a6bd 305b a43c
00000350: bc05 9ebd 1b97 443e 154c a13e 324b 3d3e
00000360: 40e8 d9bc 7b94 bcbd 15db 9ebd f257 6f3d
00000370: d42a 0bbc 44e4 413c 14ba 2e3e 18bb e03d
00000380: ae46 243e 222f 5cbe 8eb6 ddbe 3c02 d2be
00000390: af05 73be 75b4 2c3f 0d4f b5be 2ad9 04bb
000003a0: f74f 7dbe 4f8b 80be 0b24 753e 15cc 24bc
000003b0: d104 56be efec 5a3e 1d49 21bb d48a 3bbe
000003c0: 09cd 813e 62fe a23d b02e f2bd

bias f4 [3]
-0.060607232 0.05774374 0.10124811
00000000: 4a3f 78bd b384 6c3d 2b5b cf3d

weight f4 [3]
0.024226792 0.19629717 0.20169519
00000000: 4477 c63c 2002 493e 2f89 4e3e

bias f4 [3]
-0.069567494 0.61763036 0.6100783
00000000: 6779 8ebd 061d 1e3f 172e 1c3f

running_mean f4 [3]
-1.146573 -2.7832067 -1.1225681
00000000: e7c2 92bf 0f20 32c0 50b0 8fbf

running_var f4 [3]
5.247379 26.220903 10.912067
00000000: 87ea a740 69c4 d141 d497 2e41

weight f4 [3, 3, 3, 3, 3]
0.05934057 0.059303742 0.05930439 0.059545305 0.059432358 0.059358366 0.059701003 0.05950043
0.059350614 -0.065049864 -0.06480894 -0.06483822 -0.08614388 0.91143495 -0.089927346 -0.09561259
-0.13098508 -0.12541752 0.059055675 0.058904093 0.05875905 0.05901549 0.058816437 0.058669794
0.05902648 0.058771957 0.058611125 0.06181922 0.061284967 0.060781173 0.061346248 0.060856376
0.060346235 0.061038747 0.06053326 0.059934065 0.061710224 0.061561696 0.06146555 0.061263803
0.061054476 0.060958896 0.06107903 0.06088305 0.060592134 0.06145184 0.0615424 0.061350875
0.06115636 0.06124201 0.06107774 0.06101718 0.06106042 0.060860798 -0.05962936 -0.059408188
-0.060018886 -0.05906466 -0.05905386 -0.059918646 -0.058915716 -0.059337266 -0.06057973 -0.059189066
-0.05916505 -0.060036793 -0.058637206 -0.058599465 -0.05970076 -0.058370683 -0.058654524 -0.05986019
-0.057869997 -0.057916928 -0.059349064 -0.05693541 -0.057154033 -0.058779616 -0.056250643 -0.056929894
-0.05883609 -0.046956915 -0.057570834 -0.05444524 -0.0035069145 -0.01544275 -0.021359175 0.03358738
0.024576377 0.010993556 -0.024539812 -0.03971876 -0.07763976 -0.03722074 -0.04277296 -0.09002841
-0.02047929 -0.034294143 -0.08975792 0.023462897 0.0068242517 -0.050728887 -0.020239467 -0.024539728
-0.10869463 -0.028534152 -0.043862727 -0.11784593 0.10940574 0.18471396 0.26547703 0.1626565
0.25523585 0.3309248 0.15196991 0.24995331 0.35828954 0.19807972 0.20808522 0.12862082
0.18286006 1.2408968 0.16139981 0.15230833 0.14151555 0.1700148 0.07976738 0.009919393
-0.059826594 0.069915816 0.028857639 -0.02797139 0.055603415 0.04480997 0.021423088 -0.31726968
-0.4104669 -0.40572482 -0.3043859 -0.3606042 -0.30773818 -0.29544598 -0.26807392 -0.14454523
0.045071334 0.009192174 0.04919438 -0.10979616 -0.06587823 0.011404634 -0.17629802 -0.045748133
0.08841092 0.09039372 -0.003816507 0.059514124 0.080586694 -0.0432745 0.0043024495 0.089855015
0.020600118 0.0893605 0.0950374 0.10112571 0.085072786 0.09086329 0.093004 0.07486097
0.08146268 0.0760194 0.05389377 0.108070225 0.107657395 0.07656829 0.1013353 0.0987704
0.07164168 0.09046341 0.08462852 0.060836937 0.08310716 0.05627023 -0.0048512598 0.07915753
0.05259946 0.00033791535 0.07215535 0.04939532 0.010571958 -0.17633195 -0.1709511 -0.23147817
-0.19318329 -0.16711618 -0.2192734 -0.1878755 -0.14914036 -0.1908776 -0.01374189 0.037412655
-0.085958414 -0.0011081909 0.056373224 -0.05852722 0.028604284 0.09813985 -0.021926723 0.15874031
0.28678328 0.14465512 0.14002207 0.24085373 0.099358685 0.1589197 0.2575202 0.089248806
0.14111923 0.21609573 0.048030477 0.19379343 0.28027675 0.10146141 0.2587975 0.34333432
0.11305144 0.17218243 0.3146256 0.059396807 0.28213307 1.4067792 0.12933367 0.49061325
0.5149003 0.21996649 0.07200837 0.15678315 -0.042672712 0.1551615 0.20712122 0.021912444
0.27830163 0.2740865 0.06662465
00000000: 190f 733d 7be8 723d 29e9 723d c7e5 733d
00000010: 586f 733d c221 733d 0a89 743d b9b6 733d
00000020: a119 733d dd38 85bd 8dba 84bd e7c9 84bd
00000030: 346c b0bd cd53 693f d42b b8bd 89d0 c3bd
00000040: f420 06be 736d 00be 5de4 713d 6b45 713d
00000050: 54ad 703d 3aba 713d 81e9 703d bd4f 703d
00000060: c0c5 713d ddba 703d 3812 703d 2736 7d3d
00000070: f205 7b3d aef5 783d 3446 7b3d 8944 793d
00000080: 9d2d 773d c403 7a3d b9f1 773d 6c7d 753d
00000090: dcc3 7c3d 1e28 7c3d 4dc3 7b3d c1ef 7a3d
000000a0: 4214 7a3d 09b0 793d 012e 7a3d 8160 793d
000000b0: 752f 783d edb4 7b3d e213 7c3d 0e4b 7b3d
000000c0: 177f 7a3d e7d8 7a3d a72c 7a3d 27ed 793d
000000d0: 7e1a 7a3d 2c49 793d ea3d 74bd 0056 73bd
000000e0: 5dd6 75bd c9ed 71bd 76e2 71bd 416d 75bd
000000f0: 9b51 71bd a20b 73bd 7322 78bd 3c70 72bd
00000100: 0d57 72bd 24e9 75bd 912d 70bd fe05 70bd
00000110: c988 74bd 1916 6fbd ba3f 70bd f52f 75bd
00000120: 1709 6dbd 4d3a 6dbd 0118 73bd 1b35 69bd
00000130: 591a 6abd e5c2 70bd 1367 66bd 522f 69bd
00000140: 1dfe 70bd e555 40bd 65cf 6bbd f901 5fbd
00000150: 43d4 65bb 9703 7dbc 70f9 aebc ec92 093d
00000160: 6654 c93c 511e 343c b707 c9bc 23b0 22bd
00000170: 9801 9fbd c674 18bd b332 2fbd d160 b8bd
00000180: 2fc4 a7bc 0478 0cbd 00d3 b7bd 4335 c03c
00000190: f99d df3b 18c9 4fbd 3dcd a5bc 8a07 c9bc
000001a0: 4a9b debd 74c0 e9bc 67a9 33bd 3559 f1bd
000001b0: 1e10 e03d a825 3d3e 9bec 873e 6d8f 263e
000001c0: 46ae 823e fa6e a93e 009e 1b3e c3f3 7f3e
000001d0: ba71 b73e 69d5 4a3e 4b14 553e 2db5 033e
000001e0: ab3f 3b3e b5d5 9e3f fe45 253e b7f6 1b3e
000001f0: 74e9 103e 5c18 2e3e 155d a33d f384 223c
00000200: bb0c 75bd 0630 8f3d db66 ec3c 4224 e5bc
00000210: 68c0 633d a98a 373d 797f af3c 2c71 a2be
00000220: b828 d2be 2abb cfbe 78d8 9bbe 1da1 b8be
00000230: dc8f 9dbe b244 97be fc40 89be aa03 14be
00000240: b89c 383d c69a 163c 0c80 493d cfdc e0bd
00000250: 2aeb 86bd 81da 3a3c 7887 34be 6562 3bbd
00000260: c910 b53d 5820 b93d 5d1e 7abb 15c5 733d
00000270: a30a a53d 9a40 31bd 90fb 8c3b e805 b83d
00000280: 94c1 a83c a302 b73d f8a2 c23d ff1a cf3d
00000290: a43a ae3d 8816 ba3d e278 be3d b550 993d
000002a0: e8d5 a63d 0fb0 9b3d b7bf 5c3d ec53 dd3d
000002b0: 7b7b dc3d d6cf 9c3d e288 cf3d 2348 ca3d
000002c0: e0b8 923d e144 b93d b851 ad3d 2730 793d
000002d0: 1634 aa3d 9d7b 663d 51f7 9ebb 581d a23d
000002e0: 8872 573d 3b2a b139 2fc6 933d bf52 4a3d
000002f0: 0136 2d3c 5d90 34be ce0d 2fbe 9d08 6dbe
00000300: d7d1 45be 8120 2bbe 3589 60be 6f62 40be
00000310: 40b8 18be 6b75 43be aa25 61bc 033e 193d
00000320: f70a b0bd b740 91ba 9ce7 663d 3dba 6fbd
00000330: 8853 ea3c 8cfd c83d ac9f b3bc d28c 223e
00000340: 42d5 923e 7920 143e f261 0f3e 5ca2 763e
00000350: 917c cb3d d9bb 223e b0d9 833e 14c8 b63d
00000360: 8f81 103e 3348 5d3e 9bbb 443d c971 463e
00000370: 6f80 8f3e 00cb cf3d 1b81 843e 84c9 af3e
00000380: 8387 e73d 9750 303e 9b16 a13e 114a 733d
00000390: bf73 903e 5711 b43f 0c70 043e a931 fb3e
000003a0: 82d0 033f e53e 613e 2079 933d c38b 203e
000003b0: 95c9 2ebd a8e2 1e3e 9617 543e ba81 b33c
000003c0: 8d7d 8e3e 1155 8c3e 8172 883d

bias f4 [3]
0.060049497 0.052165683 0.20260017
00000000: 76f6 753d afab 553d 6b76 4f3e

weight f4 [3]
-0.15880172 0.41786486 1.0867234
00000000: eb9c 22be 62f2 d53e c119 8b3f

bias f4 [3]
-0.097125985 -0.31573254 -0.48723972
00000000: fde9 c6bd b2a7 a1be 7c77 f9be

running_mean f4 [3]
0.107232474 1.4487636 4.065745
00000000: b39c db3d 1671 b93f 951a 8240

running_var f4 [3]
0.065110855 0.5222778 1.6046426
00000000: d758 853d ffb3 053f ee64 cd3f

weight f4 [3, 3, 3, 3, 3]
0.059174057 0.058899242 0.058799878 0.058962226 0.058816466 0.058793515 0.058761176 0.058708165
0.05872712 -0.06522428 -0.06690383 -0.06758327 -0.10259926 0.6485146 -0.11057557 -0.16329472
-0.26069668 -0.183131 0.058825858 0.0581144 0.05782327 0.05864812 0.058046423 0.05779922
0.058380682 0.057825916 0.057573933 0.057974733 0.058551084 0.058427505 0.05839962 0.058727387
0.058531392 0.05818347 0.05829237 0.058151234 0.060562626 0.06062886 0.060220443 0.06124327
0.060968842 0.06054466 0.061273675 0.060873047 0.060334466 0.060082503 0.060364965 0.059853524
0.060337555 0.060562007 0.06000626 0.060235735 0.06040419 0.05986737 -0.060803123 -0.06106137
-0.06069256 -0.061275087 -0.061024666 -0.06006986 -0.061839037 -0.060969602 -0.059495542 -0.06027682
-0.060821533 -0.06079058 -0.060541213 -0.060937006 -0.06062652 -0.06073505 -0.0608193 -0.060421456
-0.06163304 -0.061305866 -0.060416505 -0.061781853 -0.061458822 -0.06051814 -0.061976578 -0.06171877
-0.06102794 0.15428601 0.20886542 0.30848038 0.13282162 0.18732496 0.28518653 0.104523815
0.14894304 0.20947652 0.13813029 0.2098488 0.32467324 0.09725915 0.17441389 0.27405846
0.07183365 0.13194661 0.19734037 0.11797496 0.23900524 0.30378693 0.08516054 0.22352539
0.23728454 0.07273524 0.18392451 0.20804383 0.03200137 0.17907017 0.23578098 0.057721637
0.2300474 0.23474695 0.03453466 0.13811238 0.1742546 0.73952883 0.60659444 0.31591415
0.80632627 1.6831713 0.39520317 0.580329 0.7011201 0.45085478 -0.17011946 -0.11079388
-0.17690556 -0.068281285 -0.019932648 -0.09491303 -0.02663562 0.023389414 -0.05996586 0.075509824
-0.04457443 -0.0027768875 0.034967482 -0.06440343 -0.003971944 0.03291546 -0.021623528 0.03564748
0.080579765 0.04122799 0.09196143 -0.010345589 -0.014514508 0.04193329 -0.039564926 -0.04488091
0.040391274 0.09709524 0.0664879 0.10469426 0.056756098 0.02720115 0.06039772 0.006538636
-0.013455486 0.027564911 -0.037097584 -0.08019014 -0.107600525 -0.042330466 -0.08008706 -0.0999134
-0.045657262 -0.085552394 -0.10741419 0.06112027 0.008269002 -0.018684942 0.03636777 -0.009441557
-0.026271615 0.012305511 -0.030968389 -0.04759288 0.046157725 0.0056345346 -0.005548106 0.0006006711
-0.03711767 -0.04034824 -0.04908305 -0.07950991 -0.07839894 -0.14713314 -0.111501485 -0.091574535
-0.18797481 -0.15086426 -0.14676301 -0.21262977 -0.17309323 -0.16532943 -0.08413764 -0.036034483
-0.04032498 -0.1611575 -0.11347816 -0.10965999 -0.22761953 -0.17844011 -0.1659845 -0.048751928
-0.02181766 -0.0044634957 -0.1194012 -0.1029281 -0.083173886 -0.21729141 -0.17725344 -0.16828588
0.11221166 0.16948196 0.059969656 0.18058918 0.28064707 0.2327922 0.1513263 0.22493236
0.15250237 0.38478726 0.4600753 0.36116844 0.4644993 1.5715855 0.48583826 0.46785247
0.49610752 0.41969442 0.086268894 0.08529435 0.10477198 0.18446715 0.1698395 0.17416199
0.19289735 0.14111482 0.1201068
00000000: 7f60 723d 5540 713d 24d8 703d 6082 713d
00000010: 89e9 703d 78d1 703d 8faf 703d f977 703d
00000020: d98b 703d 4f94 85bd e004 89bd 1969 8abd
00000030: 901f d2bd 0e05 263f 7275 e2bd bb36 27be
00000040: 097a 85be b186 3bbe 62f3 703d 5d09 6e3d
00000050: 18d8 6c3d 0339 703d 16c2 6d3d e0be 6c3d
00000060: 9520 6f3d deda 6c3d a5d2 6b3d ea76 6d3d
00000070: 43d3 6f3d ae51 6f3d 7134 6f3d 218c 703d
00000080: 9dbe 6f3d ca51 6e3d fbc3 6e3d fd2f 6e3d
00000090: 8410 783d f855 783d b6a9 763d 39da 7a3d
000000a0: 77ba 793d adfd 773d 1bfa 7a3d 0456 793d
000000b0: 4621 773d 1219 763d 4141 773d f828 753d
000000c0: 8324 773d de0f 783d 20c9 753d bfb9 763d
000000d0: 626a 773d 7d37 753d b20c 79bd 7d1b 7abd
000000e0: c398 78bd 96fb 7abd 00f5 79bd d00b 76bd
000000f0: ee4a 7dbd 43bb 79bd 99b1 73bd d4e4 76bd
00000100: 0020 79bd 8bff 78bd 10fa 77bd 1599 79bd
00000110: 8453 78bd 51c5 78bd a91d 79bd 7d7c 77bd
00000120: ed72 7cbd dc1b 7bbd 4c77 77bd f80e 7dbd
00000130: 3fbc 7bbd dfe1 77bd 27db 7dbd d2cc 7cbd
00000140: 6ff8 79bd 27fd 1d3e d1e0 553e 24f1 9d3e
00000150: 6402 083e 1dd2 3f3e f803 923e 9510 d63d
00000160: 8684 183e 0381 563e 0772 0d3e 9be2 563e
00000170: 923b a63e ce2f c73d 8e99 323e 6451 8c3e
00000180: 851d 933d 031d 073e 9813 4a3e db9c f13d
00000190: cabd 743e f689 9b3e a668 ae3d d7e3 643e
000001a0: b8fa 723e 37f6 943d b556 3c3e 7109 553e
000001b0: de13 033d 2c5e 373e 9270 713e 866d 6c3d
000001c0: 8c91 6b3e 8161 703e 3774 0d3d 556d 0d3e
000001d0: cc6f 323e c351 3d3f c649 1b3f 80bf a13e
000001e0: 666b 4e3f 2872 d73f 1258 ca3e 7190 143f
000001f0: 9b7c 333f 70d6 e63e cc33 2ebe e7e7 e2bd
00000200: bb26 35be 0fd7 8bbd cb49 a3bc c361 c2bd
00000210: f232 dabc 289b bf3c c39e 75bd e5a4 9a3d
00000220: ad93 36bd 71fc 35bb 103a 0f3d f2e5 83bd
00000230: 1527 82bb 5dd2 063d d323 b1bc 1803 123d
00000240: 0107 a53d aede 283d 4656 bc3d 8c80 29bc
00000250: 42ce 6dbc 3ec2 2b3d d50e 22bd 0cd5 37bd
00000260: 5271 253d dfd9 c63d cf2a 883d f269 d63d
00000270: 1579 683d f2d4 de3c 9a63 773d 0e42 d63b
00000280: 6674 5cbc cfcf e13c a3f3 17bd ba3a a4bd
00000290: aa5d dcbd b662 2dbd af04 a4bd 669f ccbd
000002a0: 1c03 3bbd 1836 afbd f9fb dbbd 4059 7a3d
000002b0: b57a 073c 2a11 99bc 5ff6 143d c3b0 1abc
000002c0: 9237 d7bc 0e9d 493c 6bb1 fdbc c0f0 42bd
000002d0: e20f 3d3d e7a1 b83b e3cc b5bb 5b76 1d3a
000002e0: b308 18bd 3244 25bd 4f0b 49bd 17d6 a2bd
000002f0: a08f a0bd 12aa 16be e45a e4bd 6e8b bbbd
00000300: 787c 40be 297c 1abe 0b49 16be 9ebb 59be
00000310: 5a3f 31be 1e4c 29be 5b50 acbd e598 13bd
00000320: ce2b 25bd 7906 25be 3d67 e8bd 6b95 e0bd
00000330: 1815 69be 01b9 36be d7f7 29be 1ab0 47bd
00000340: f3ba b2bc 8442 92bb 9e88 f4bd f8cb d2bd
00000350: 1257 aabd a481 5ebe ed81 35be 2253 2cbe
00000360: 3acf e53d ae8c 2d3e bea2 753d 5fec 383e
00000370: f9b0 8f3e 1461 6e3e 48f5 1a3e ab54 663e
00000380: 9529 1c3e d602 c53e fd8e eb3e 12eb b83e
00000390: dad2 ed3e b729 c93f cbbf f83e 5c8a ef3e
000003a0: ce01 fe3e 30e2 d63e bfad b03d ceae ae3d
000003b0: b192 d63d f5e4 3c3e 68ea 2d3e 8557 323e
000003c0: e286 453e 6780 103e 8efa f53d

bias f4 [3]
-0.06004091 0.08215528 -0.008857681
00000000: 75ed 75bd 0741 a83d cf1f 11bc

weight f4 [3]
0.18286546 0.30306834 0.46245113
00000000: 1541 3b3e c62b 9b3e 65c6 ec3e

bias f4 [3]
0.12805021 -0.3158217 0.44089457
00000000: 981f 033e 62b3 a1be efbc e13e

running_mean f4 [3]
0.14809103 -2.8850152 -2.6440258
00000000: 2da5 173e 17a4 38c0 b837 29c0

running_var f4 [3]
2.7404788 6.425295 66.88745
00000000: 0164 2f40 049c cd40 60c6 8542

weight f4 [3, 3, 3, 3, 3]
0.056576367 0.05838412 0.057912946 0.057438765 0.058967773 0.05835272 0.0571794 0.058339596
0.05749937 -0.07097699 -0.05915938 -0.063641064 -0.08170399 1.0783654 -0.06618116 -0.11513822
-0.055932928 -0.14422205 0.058165904 0.059231143 0.058569744 0.05891203 0.059733756 0.059059862
0.058378465 0.05883422 0.058041286 0.060511626 0.060342144 0.060314983 0.06091651 0.060618572
0.060469788 0.06123462 0.060824666 0.060585726 0.05942092 0.059532583 0.059765093 0.0597227
0.059745368 0.059897076 0.059939284 0.059838608 0.059994355 0.05989546 0.059821237 0.059798002
0.060199793 0.06010065 0.06009505 0.06052335 0.060400978 0.060437664 -0.059812363 -0.059960246
-0.059850723 -0.059844486 -0.05997593 -0.05983956 -0.05979526 -0.05987134 -0.05967903 -0.060136504
-0.060240734 -0.060122162 -0.060186107 -0.060289923 -0.060143493 -0.060182076 -0.06022288 -0.060057756
-0.060013536 -0.060132552 -0.060047876 -0.060076363 -0.06016408 -0.06006854 -0.060053322 -0.060076285
-0.05995083 -0.13159838 -0.10086118 0.03477259 -0.10421493 -0.09381954 0.034040637 0.0012571735
0.014195185 0.15577328 0.059585072 0.13614222 0.27494434 -0.007933814 0.06882321 0.17143092
0.007182207 0.08782785 0.21735726 -0.028891055 0.022408862 0.1890722 -0.118764855 -0.060541783
0.06364116 -0.20170856 -0.1611308 0.09973061 0.21938813 0.34343785 0.34914362 0.22755702
0.36164278 0.33468422 0.118489794 0.2874342 0.29513398 0.0016895129 0.067758165 -0.11293116
0.00063172943 1.121525 -0.07501747 -0.078285396 -0.031295784 -0.1012525 -0.03453834 -0.043807793
-0.21885863 0.029450208 0.02981281 -0.16908579 0.058899224 0.06316377 -0.14407298 -0.15170549
-0.19633126 -0.19490252 -0.19214223 -0.25129494 -0.25278884 -0.17662407 -0.22952497 -0.24164797
-0.09816103 -0.10074819 -0.044424977 -0.17111856 -0.1792242 -0.10962974 -0.16289657 -0.2005446
-0.14809714 -0.08031765 -0.06832541 -0.042427573 -0.14186484 -0.11879318 -0.089126036 -0.15593559
-0.13582222 -0.10926828 0.16850789 0.06902643 -0.006686958 0.444826 0.21988383 0.037783742
0.63707644 0.31674168 0.075904675 0.084864624 0.041928966 0.06944588 0.3214955 0.23304078
0.22273451 0.5028621 0.38513702 0.36093092 0.3584382 0.22408587 0.055775717 0.49814662
0.3631992 0.1936347 0.6512965 0.5397356 0.4091793 -0.1615825 -0.055205178 -0.06153011
-0.14546995 -0.07788271 -0.1510079 -0.1854932 -0.15071617 -0.24605672 0.31485793 0.4649331
0.6151444 0.22088484 0.34325644 0.4538669 0.11007383 0.20236738 0.27653924 -0.009032111
0.051300544 0.10042874 -0.0060458207 0.028705684 0.048166882 -0.111211814 -0.0948614 -0.109807864
-0.055754524 0.0177739 -0.026338145 -0.049108803 0.07814258 0.079705566 -0.032104198 0.13734832
0.16406754 0.19603115 0.12255709 0.040765475 0.07256437 1.1872228 0.09169393 0.18871213
0.27470633 0.20341964 0.0689275 0.15915467 0.13717833 0.09833712 0.20463 0.17303944
0.15025553 0.25635788 0.20402665
00000000: 9fbc 673d 3024 6f3d 2036 6d3d e944 6b3d
00000010: 3188 713d 4303 6f3d f234 6a3d 80f5 6e3d
00000020: 7684 6b3d 625c 91bd 1b51 72bd 3f56 82bd
00000030: 6c54 a7bd e107 8a3f fd89 87bd 96cd ebbd
00000040: ed19 65bd f2ae 13be 5f3f 6e3d 5b9c 723d
00000050: d4e6 6f3d be4d 713d 62ab 743d c1e8 713d
00000060: 421e 6f3d 27fc 703d b3bc 6d3d 0adb 773d
00000070: 5329 773d d80c 773d 9783 793d 2e4b 783d
00000080: 2baf 773d 27d1 7a3d 4923 793d bd28 783d
00000090: 5a63 733d 70d8 733d 3ecc 743d ca9f 743d
000000a0: 8fb7 743d a356 753d e582 753d 5419 753d
000000b0: a4bc 753d f154 753d 1d07 753d c0ee 743d
000000c0: 0f94 763d 192c 763d 3a26 763d 55e7 773d
000000d0: 0467 773d 7c8d 773d cffd 74bd e098 75bd
000000e0: 0826 75bd 7e1f 75bd 52a9 75bd 541a 75bd
000000f0: e0eb 74bd a63b 75bd 0072 74bd b251 76bd
00000100: fdbe 76bd a842 76bd b585 76bd 91f2 76bd
00000110: 0659 76bd 7b81 76bd 44ac 76bd 1fff 75bd
00000120: c1d0 75bd 8d4d 76bd c3f4 75bd a212 76bd
00000130: 9c6e 76bd 6e0a 76bd 79fa 75bd 8d12 76bd
00000140: 008f 75bd bac1 06be 4e90 cebd b46d 0e3d
00000150: a36e d5bd 7624 c0bd 326e 0b3d bec7 a43a
00000160: ec92 683c 0883 1f3e 7a0f 743d de68 0b3e
00000170: 81c5 8c3e d4fc 01bc 2ff3 8c3d 968b 2f3e
00000180: b858 eb3b 16df b33d e792 5e3e efac ecbc
00000190: ca92 b73c 259c 413e fd3a f3bd a9fa 77bd
000001a0: 4c56 823d b08c 4ebe 79ff 24be 903f cc3d
000001b0: 48a7 603e 16d7 af3e f4c2 b23e b504 693e
000001c0: 3e29 b93e bb5b ab3e c7aa f23d 932a 933e
000001d0: cd1b 973e a572 dd3a cbc4 8a3d 7448 e7bd
000001e0: a59a 253a 228e 8f3f c2a2 99bd 1854 a0bd
000001f0: 0230 00bd 795d cfbd 1378 0dbd cd6f 33bd
00000200: 7a1c 60be 9041 f13c fe39 f43c d324 2dbe
00000210: 5040 713d 025c 813d de87 13be af58 1bbe
00000220: 100b 49be 8794 47be efc0 44be bba9 80be
00000230: 8a6d 81be f1dc 34be 9808 6bbe 9172 77be
00000240: a608 c9bd 1155 cebd f7f6 35bd b439 2fbe
00000250: 8c86 37be 8f85 e0bd 5cce 26be 905b 4dbe
00000260: c7a6 17be 957d a4bd 31ee 8bbd 89c8 2dbd
00000270: 0445 11be d749 f3bd b687 b6bd 94ad 1fbe
00000280: fb14 0bbe 0cc8 dfbd 558d 2c3e bb5d 8d3d
00000290: 451e dbbb 3cc0 e33e 3a29 613e 20c3 1a3d
000002a0: 7117 233f f72b a23e e973 9b3d 81cd ad3d
000002b0: b5bd 2b3d a439 8e3d 0f9b a43e 3ea2 6e3e
000002c0: 8414 643e 92bb 003f ae30 c53e f0cb b83e
000002d0: 3685 b73e c476 653e 1475 643d 130d ff3e
000002e0: 3ff5 b93e 2d48 463e 5ebb 263f 1d2c 0a3f
000002f0: f37f d13e e275 25be d31e 62bd ff06 7cbd
00000300: 13f6 14be f880 9fbd d1a1 1abe eef1 3dbe
00000310: 5755 1abe 4bf6 7bbe 0f35 a13e b60b ee3e
00000320: 1a7a 1d3f a32f 623e 4fbf af3e 3e61 e83e
00000330: 636e e13d 6539 4f3e 8d96 8d3e 6bfb 13bc
00000340: 8520 523d 95ad cd3d 051c c6bb 2f28 eb3c
00000350: a34a 453d 05c3 e3bd b246 c2bd f2e2 e0bd
00000360: db5e 64bd 929a 913c 18c3 d7bc 5026 49bd
00000370: 3809 a03d ac3c a33d b17f 03bd 0aa5 0c3e
00000380: 5201 283e 64bc 483e 36ff fa3d b3f9 263d
00000390: a19c 943d ebf6 973f 07ca bb3d c13d 413e
000003a0: 4fa6 8c3e 3d4d 503e dc29 8d3d 71f9 223e
000003b0: 7a78 0c3e f964 c93d 878a 513e 4031 313e
000003c0: 96dc 193e 5741 833e 5dec 503e

bias f4 [3]
-0.058963932 -0.04667109 -0.062718734
00000000: 2a84 71bd 2f2a 3fbd ae72 80bd

weight f4 [3]
0.5280734 0.3356436 0.09958291
00000000: d12f 073f 7ad9 ab3e 20f2 cb3d

bias f4 [3]
0.044725675 -0.47044745 0.30805296
00000000: 4532 373d 7dde f0be 1eb9 9d3e

running_mean f4 [3]
-1.0867603 -2.623578 2.1507876
00000000: f61a 8bbf b4e8 27c0 81a6 0940

running_var f4 [3]
0.8673085 3.2555594 1.2407161
00000000: ee07 5e3f 165b 5040 c9cf 9e3f

weight f4 [3, 3, 3, 3, 3]
0.06449879 0.06242192 0.058627646 0.06675631 0.06497123 0.061292306 0.06809739 0.06610776
0.06204883 -0.061504964 -0.06273424 -0.07914158 0.028794166 1.4706548 -0.09057052 0.16559121
0.23807187 0.034661215 0.0622227 0.061723363 0.05782441 0.06384906 0.06252115 0.05885118
0.064465486 0.062093373 0.05839518 0.06080545 0.06080881 0.06057298 0.06087946 0.060898658
0.060618274 0.061008573 0.061044574 0.060738117 0.05977206 0.05982309 0.05955413 0.05987858
0.05993827 0.05968223 0.060093418 0.060107477 0.059864894 0.059735246 0.059724722 0.059468456
0.059847843 0.05984278 0.05958905 0.060074784 0.06005868 0.059811693 -0.039078396 -0.044553924
-0.045170233 -0.041179143 -0.04694495 -0.048181273 -0.041264053 -0.04681892 -0.048361465 -0.05216875
-0.056844715 -0.05782597 -0.054350536 -0.059170753 -0.06072025 -0.054003634 -0.058635496 -0.060365196
-0.037580837 -0.045992244 -0.048057325 -0.040461555 -0.04931664 -0.05241143 -0.03831977 -0.046577413
-0.049858246 -0.1522939 0.27629152 -0.25144634 0.3131258 0.5486728 -0.13206899 -0.011413113
0.041297175 -0.40114322 -0.23252517 -0.2764183 -0.79529035 0.5135645 0.3090884 -0.47912717
-0.030140378 0.09016555 -0.47004408 0.36584154 0.3480852 -0.020350866 0.33216533 0.3766846
0.09552613 0.09100414 0.2699421 0.06943339 -0.03807262 -0.25063646 -0.27595925 0.12397068
-0.086360045 -0.145041 0.21900971 0.029678987 -0.06627121 0.2048453 -0.08842315 -0.15289561
0.24576624 0.63334876 -0.20437014 0.25382957 -0.038227215 -0.19709928 0.014792804 -0.08455896
-0.12984033 -0.009754955 -0.09698257 -0.1681905 -0.04865106 -0.14061601 -0.2769675 0.031726696
0.21339402 -0.057097267 0.009969295 0.17304774 -0.12026943 0.02373695 0.18132976 -0.12051558
0.0575079 0.619598 0.1781407 0.25199023 0.6702743 0.21845846 0.5110865 0.8092842
0.36991188 -1.3019207 -0.4299612 -0.62893647 -0.3791025 0.3281168 -0.32566428 0.28642648
0.77271324 0.040851925 0.10615623 0.16635019 0.29895598 0.099578045 0.13435897 0.23374617
-0.0030864566 -0.027870119 0.0065752054 0.21349898 0.21182801 0.35043666 0.1860172 0.09162393
0.1708729 -0.032487363 -0.10408638 -0.035698984 -0.021419544 0.09929495 0.3899981 -0.053993154
0.0110770315 0.23232405 -0.12587798 -0.07716774 0.06489407 0.20725589 0.31751087 0.11361739
0.15645455 0.31323788 0.08537608 0.079415895 0.22541821 0.04143145 0.14263308 0.036833256
-0.018985843 0.14824885 0.02290819 -0.027542034 0.1389186 0.021312153 -0.086705156 0.019133832
0.010115483 0.0065867445 0.00851972 -0.0026753568 -0.017564971 -0.027434278 -0.018514587 -0.06275777
-0.15228176 0.017966665 -0.17170724 -0.21226436 -0.061442282 -0.26262358 -0.20013659 -0.06575966
-0.23807839 0.21882622 0.402997 0.30245692 0.08666013 1.2377725 0.13797168 0.10218305
0.20809683 0.11524858 0.055267286 0.27702942 0.17419377 -0.004600146 0.19637246 0.11097373
0.015717667 0.16790259 0.08527777
00000000: f117 843d 21ae 7f3d 8b23 703d 88b7 883d
00000010: a30f 853d a40d 7b3d a576 8b3d 8163 873d
00000020: ea26 7e3d a1ec 7bbd cf7a 80bd fb14 a2bd
00000030: bee1 eb3c 6b3e bc3f 097d b9bd be90 293e
00000040: 1dc9 733e ebf8 0d3d 3bdd 7e3d a3d1 7c3d
00000050: 4ad9 6c3d 4cc3 823d 170b 803d ef0d 713d
00000060: 7b06 843d 9f55 7e3d c92f 6f3d 230f 793d
00000070: a912 793d 601b 783d be5c 793d df70 793d
00000080: de4a 783d 20e4 793d e009 7a3d 88c8 783d
00000090: 8cd3 743d 0e09 753d 08ef 733d 3e43 753d
000000a0: d581 753d 5b75 743d 8424 763d 4233 763d
000000b0: e434 753d f2ac 743d e9a1 743d 3295 733d
000000c0: 0323 753d b41d 753d a613 743d fa10 763d
000000d0: 1700 763d 1bfd 743d ab10 20bd 2d7e 36bd
000000e0: 6c04 39bd 76ab 28bd 5949 40bd ba59 45bd
000000f0: 7f04 29bd 32c5 3fbd ac16 46bd e6ae 55bd
00000100: 01d6 68bd edda 6cbd ab9e 5ebd 085d 72bd
00000110: ccb5 78bd ea32 5dbd c62b 70bd 7f41 77bd
00000120: 5dee 19bd 5d62 3cbd c2d7 44bd 04bb 25bd
00000130: 3f00 4abd 5ead 56bd 31f5 1cbd f5c7 3ebd
00000140: 2938 4cbd eff2 1bbe 1576 8d3e 93bd 80be
00000150: 0652 a03e d275 0c3f 183d 07be 11fe 3abc
00000160: 3a27 293d a562 cdbe 141b 6ebe b386 8dbe
00000170: 2698 4bbf f778 033f d640 9e3e 2850 f5be
00000180: f4e8 f6bc b7a8 b83d 9ea9 f0be 954f bb3e
00000190: 3938 b23e dcb6 a6bc 9311 aa3e cedc c03e
000001a0: 34a3 c33d 6160 ba3d da35 8a3e 1833 8e3d
000001b0: 09f2 1bbd 6c53 80be 884a 8dbe 57e4 fd3d
000001c0: 89dd b0bd a185 14be 1544 603e 5921 f33c
000001d0: 33b9 87bd f7c2 513e 3217 b5bd ab90 1cbe
000001e0: 25aa 7b3e 2523 223f 6846 51be f3f5 813e
000001f0: 2494 1cbd 65d4 49be 845d 723c 3f2d adbd
00000200: ddf4 04be 3fd3 1fbc cc9e c6bd 213a 2cbe
00000210: 5546 47bd a5fd 0fbe afce 8dbe daf3 013d
00000220: f683 5a3e d3de 69bd 4156 233c 6d33 313e
00000230: d24f f6bd fe73 c23c 82ae 393e dfd0 f6bd
00000240: 678d 6b3d f99d 1e3f 846a 363e dd04 813e
00000250: 1997 2b3f 93b3 5f3e 91d6 023f 402d 4f3f
00000260: 1765 bd3e 56a5 a6bf e023 dcbe fb01 21bf
00000270: b919 c2be edfe a73e 78bd a6be 7ea6 923e
00000280: 89d0 453f 5954 273d 7068 d93d b457 2a3e
00000290: c210 993e 93ef cb3d 6695 093e 285b 6f3e
000002a0: 2646 4abb e04f e4bc d274 d73b 7a9f 5a3e
000002b0: 71e9 583e 6f6c b33e 4b7b 3e3e 54a5 bb3d
000002c0: 4ef9 2e3e 7811 05bd 3d2b d5bd 1939 12bd
000002d0: 0a78 afbc 275b cb3d d5ad c73e ed27 5dbd
000002e0: 707c 353c 5be6 6d3e 28e6 00be 1f0a 9ebd
000002f0: 2fe7 843d e33a 543e c990 a23e 3cb0 e83d
00000300: 9f35 203e b760 a03e a7d9 ae3d cda4 a23d
00000310: 08d4 663e 06b4 293d 680e 123e 78de 163d
00000320: 3388 9bbc 8cce 173e f5a9 bb3c d59f e1bc
00000330: ad40 0e3e d396 ae3c 7992 b1bd 8ebe 9c3c
00000340: 69bb 253c 9ed5 d73b 4c96 0b3c 0a55 2fbb
00000350: 6ae4 8fbc dabd e0bc e7ab 97bc 2587 80bd
00000360: c0ef 1bbe d42e 933c 06d4 2fbe d45b 59be
00000370: e7aa 7bbd 9976 86be 9bf0 4cbe 00ad 86bd
00000380: d2ca 73be fb13 603e 9f55 ce3e a2db 9a3e
00000390: de7a b13d 546f 9e3f 7348 0d3e 5945 d13d
000003a0: 5617 553e 7307 ec3d f35f 623d cdd6 8d3e
000003b0: da5f 323e d2bc 96bb dd15 493e 3246 e33d
000003c0: 56c2 803c a8ee 2b3e 1da6 ae3d

bias f4 [3]
0.060101878 -0.06052665 0.05749868
00000000: 632d 763d cbea 77bd bc83 6b3d

weight f4 [3]
0.7083991 -0.38012865 0.48926547
00000000: a559 353f 39a0 c2be 0181 fa3e

bias f4 [3]
0.2050441 1.1934898 -0.45316517
00000000: 15f7 513e 46c4 983f 4405 e8be

running_mean f4 [3]
0.23101585 0.8292922 1.3659072
00000000: 6b8f 6c3e 7e4c 543f 0cd6 ae3f

running_var f4 [3]
0.32086504 0.09150682 0.17612155
00000000: 6c48 a43e ed67 bb3d 3559 343e

weight f4 [3, 3, 3, 3, 3]
0.06277522 0.0607599 0.05903055 0.06174892 0.059936844 0.05838771 0.06131949 0.059590425
0.058110364 -0.04757079 -0.060752425 -0.06980242 -0.027684264 0.651014 -0.14012454 -0.0017502024
-0.3116883 -0.14185703 0.061641406 0.059050933 0.05673972 0.06059184 0.05837177 0.05650154
0.060499053 0.05849075 0.056830045 0.059131127 0.059060805 0.05975825 0.060330816 0.060101576
0.060724903 0.061944883 0.061500832 0.06199032 0.06044002 0.061095502 0.06297125 0.061249617
0.06139242 0.06287076 0.062749356 0.062505886 0.063547045 0.056387145 0.057621565 0.06006302
0.0562145 0.057238642 0.05931334 0.057174843 0.05790249 0.059536632 -0.06012634 -0.06064454
-0.061845995 -0.060911432 -0.06151824 -0.06276105 -0.06171565 -0.062337816 -0.06363483 -0.0602943
-0.060921665 -0.062064648 -0.060955726 -0.06154785 -0.06264021 -0.061585512 -0.062123746 -0.06318899
-0.054858223 -0.056524046 -0.05873404 -0.055824738 -0.0574384 -0.05959061 -0.056786302 -0.058281247
-0.060347397 -0.103829324 -0.11011031 -0.18165429 0.048248325 -0.02127285 -0.10097383 0.41493604
0.1776504 0.022929223 -0.17866683 -0.17255275 -0.27506924 -0.09887007 -0.061725374 -0.19006652
0.31233293 0.28678852 0.061112426 0.040605284 0.014012963 -0.14467704 0.112838805 0.11024724
-0.03141302 0.18307124 0.21165425 0.10159456 -0.19218035 -0.41602865 -0.18646641 0.12353897
-0.09797382 0.077436335 0.23899187 0.07913457 0.21004151 0.42367387 0.14466487 0.3077222
0.30930996 1.2030702 0.63842934 0.22443749 0.20476474 0.784194 0.025186293 -0.035687137
0.06607579 0.16784282 0.07991235 0.17048693 0.33443314 0.1961719 0.33030373 0.14345261
0.084464446 -0.0043603363 0.1256404 0.056733396 -0.020435123 0.13155116 0.07656654 0.02468272
-0.16863652 -0.37477788 -0.4383723 -0.22108597 -0.5311782 -0.5608886 -0.16684411 -0.48367956
-0.7538008 0.24013802 -0.06371405 -0.39079443 0.1581022 -0.06967549 -0.47703302 0.13739231
0.008128337 -0.22364776 0.15417466 0.21131244 0.30951667 0.18036734 0.24106039 0.33845463
0.2015544 0.26594138 0.32876644 0.22292976 0.3911057 0.37837616 0.20409907 0.34857917
0.2374129 0.090283684 0.09657815 -0.026967283 0.020409087 0.056882516 0.059442367 -0.045960583
-0.03897228 -0.046608537 -0.1551179 -0.15001914 -0.14790358 0.48391426 0.43712968 0.13875012
0.053446546 -0.06810179 -0.514213 0.07113333 0.15232934 -0.19464226 0.30460075 0.31092444
0.017841889 -0.108958796 -0.10317526 -1.0215842 -0.071164615 0.2593152 -0.3713762 0.37579164
0.3543603 0.19353664 -0.089138165 -0.039297465 -0.25032768 -0.19664386 -0.024921192 -0.20251198
-0.27518082 -0.22910106 -0.33635995 -0.18848367 -0.04475271 -0.1205849 -0.15664853 0.016418466
-0.05791436 -0.15644269 -0.09646688 -0.18677962 -0.053610127 1.0546913 -0.07942288 -0.015549947
0.100310236 0.0013586319 -0.16199829 -0.04693165 -0.09591509 -0.07029749 0.033955205 -0.040586
-0.019492608 0.064425915 -0.026348114
00000000: 4b90 803d 5fdf 783d 05ca 713d 6fec 7c3d
00000010: 5680 753d f427 6f3d 252a 7b3d 1715 743d
00000020: 2205 6e3d 97d9 42bd 89d7 78bd 92f4 8ebd
00000030: 1cca e2bc daa8 263f cf7c 0fbe 0c67 e5ba
00000040: 9c95 9fbe f842 11be b37b 7c3d 64df 713d
00000050: e967 683d 262f 783d 3d17 6f3d 296e 673d
00000060: dbcd 773d ff93 6f3d 9fc6 683d 7b33 723d
00000070: bee9 713d 11c5 743d 721d 773d 122d 763d
00000080: adba 783d ebb9 7d3d 4ce8 7b3d 90e9 7d3d
00000090: f48f 773d 473f 7a3d 12f7 803d e1e0 7a3d
000000a0: 9e76 7b3d 63c2 803d bc82 803d 1603 803d
000000b0: f424 823d 35f6 663d 9704 6c3d a404 763d
000000c0: 2d41 663d 1173 6a3d 8bf2 723d 2b30 6a3d
000000d0: 292b 6d3d afdc 733d 0947 76bd 6966 78bd
000000e0: 3a52 7dbd 447e 79bd 8dfa 7bbd de88 80bd
000000f0: 8dc9 7cbd f055 7fbd fa52 82bd 28f7 76bd
00000100: ff88 79bd 8037 7ebd b6ac 79bd 9919 7cbd
00000110: 8349 80bd 1741 7cbd 7875 7ebd 3b69 81bd
00000120: 04b3 60bd c285 67bd 1b93 70bd 7ba8 64bd
00000130: 8744 6bbd 4915 74bd c198 68bd 51b8 6ebd
00000140: d52e 77bd 78a4 d4bd 8481 e1bd 9503 3abe
00000150: 09a0 453d 6644 aebc 5ecb cebd 7f72 d43e
00000160: fde9 353e 11d6 bb3c 70f4 36be abb1 30be
00000170: e0d5 8cbe 647c cabd bfd3 7cbd cca0 42be
00000180: 1aea 9f3e f2d5 923e 0651 7a3d ba51 263d
00000190: a096 653c 3826 14be 0818 e73d 4ec9 e13d
000001a0: f0aa 00bd 0777 3b3e e4bb 583e cf10 d03d
000001b0: edca 44be b501 d5be 0df1 3ebe 0002 fd3d
000001c0: 80a6 c8bd f196 9e3d 49ba 743e 4e11 a23d
000001d0: 1f15 573e c8eb d83e 0723 143e c48d 9d3e
000001e0: e05d 9e3e 34fe 993f 1b70 233f f1d2 653e
000001f0: d9ad 513e f0c0 483f 7c53 ce3c ad2c 12bd
00000200: be52 873d fdde 2b3e 16a9 a33d 2094 2e3e
00000210: d23a ab3e 49e1 483e 921d a93e 3ee5 123e
00000220: b2fb ac3d 27e1 8ebb e1a7 003e 4761 683d
00000230: 8f67 a7bc 59b5 063e ebce 9c3d 6a33 ca3c
00000240: 0daf 2cbe e3e2 bfbe 5672 e0be 5c64 62be
00000250: 4bfb 07bf 6596 0fbf 2fd9 2abe d9a4 f7be
00000260: 17f9 40bf bee6 753e 837c 82bd 3516 c8be
00000270: 8be5 213e 06b2 8ebd ac3d f4be 92b0 0c3e
00000280: b72c 053c eb03 65be f6df 1d3e 4a62 583e
00000290: f878 9e3e 37b2 383e 89d8 763e ed49 ad3e
000002a0: 4764 4e3e 7829 883e 1354 a83e b347 643e
000002b0: 023f c83e 85ba c13e 59ff 503e f878 b23e
000002c0: 5e1c 733e a7e6 b83d c4ca c53d 7eea dcbc
000002d0: f530 a73c a4fd 683d d779 733d 2a41 3cbd
000002e0: 66a1 1fbd 98e8 3ebd 3ad7 1ebe 9e9e 19be
000002f0: 0974 17be 9cc3 f73e 76cf df3e 8314 0e3e
00000300: c4ea 5a3d f478 8bbd 77a3 03bf 5aae 913d
00000310: 39fc 1b3e 4d50 47be a1f4 9b3e 7d31 9f3e
00000320: 2729 923c ca25 dfbd 8d4d d3bd 45c3 82bf
00000330: c1be 91bd f6c4 843e 0525 bebe c367 c03e
00000340: b76e b53e 782e 463e 128e b6bd 61f6 20bd
00000350: f32a 80be 025d 49be 8727 ccbc 4d5f 4fbe
00000360: 80e4 8cbe 7899 6abe 5f37 acbe dd01 41be
00000370: 9e4e 37bd 37f5 f6bd 7968 20be 0580 863c
00000380: 9c37 6dbd 8332 20be 6d90 c5bd 2843 3fbe
00000390: 4b96 5bbd 2000 873f 77a8 a2bd 34c5 7ebc
000003a0: 746f cd3d 1f14 b23a e1e2 25be 673b 40bd
000003b0: 216f c4bd 21f8 8fbd 9d14 0b3d 813d 26bd
000003c0: f6ae 9fbc bcf1 833d 00d8 d7bc

bias f4 [3]
-0.06010574 0.062414475 -0.03176843
00000000: 7031 76bd 52a6 7f3d 9d1f 02bd

weight f4 [3]
0.07409134 0.55861974 0.8350399
00000000: 33bd 973d b401 0f3f 2dc5 553f

bias f4 [3]
0.15964341 -1.0391229 1.3816075
00000000: 9079 233e fb01 85bf 84d8 b03f

running_mean f4 [3]
2.7436883 8.231936 1.0085363
00000000: 9798 2f40 03b6 0341 b817 813f

running_var f4 [3]
0.8214611 8.02723 5.3739557
00000000: 464b 523f 896f 0041 72f7 ab40
