data/perturbations/dog/2018-07-22 15:39:08.328737/pert_model.pt (torch_old, 19887 bytes, 20 tensors)

weight f4 [3, 3, 3, 3]
0.0 0.0 0.0 0.0 1.0 0.0 0.0 0.0
0.0 0.0 0.0 0.0 0.0 0.0 0.0 0.0
0.0 0.0 0.0 0.0 0.0 0.0 0.0 0.0
0.0 0.0 0.0 0.0 0.0 0.0 0.0 0.0
0.0 0.0 0.0 0.0 0.0 0.0 0.0 0.0
1.0 0.0 0.0 0.0 0.0 0.0 0.0 0.0
0.0 0.0 0.0 0.0 0.0 0.0 0.0 0.0
0.0 0.0 0.0 0.0 0.0 0.0 0.0 0.0
0.0 0.0 0.0 0.0 0.0 0.0 0.0 0.0
0.0 0.0 0.0 0.0 1.0 0.0 0.0 0.0
0.0
00000000: 0000 0000 0000 0000 0000 0000 0000 0000
00000010: 0000 803f 0000 0000 0000 0000 0000 0000
00000020: 0000 0000 0000 0000 0000 0000 0000 0000
00000030: 0000 0000 0000 0000 0000 0000 0000 0000
00000040: 0000 0000 0000 0000 0000 0000 0000 0000
00000050: 0000 0000 0000 0000 0000 0000 0000 0000
00000060: 0000 0000 0000 0000 0000 0000 0000 0000
00000070: 0000 0000 0000 0000 0000 0000 0000 0000
00000080: 0000 0000 0000 0000 0000 0000 0000 0000
00000090: 0000 0000 0000 0000 0000 0000 0000 0000
000000a0: 0000 803f 0000 0000 0000 0000 0000 0000
000000b0: 0000 0000 0000 0000 0000 0000 0000 0000
000000c0: 0000 0000 0000 0000 0000 0000 0000 0000
000000d0: 0000 0000 0000 0000 0000 0000 0000 0000
000000e0: 0000 0000 0000 0000 0000 0000 0000 0000
000000f0: 0000 0000 0000 0000 0000 0000 0000 0000
00000100: 0000 0000 0000 0000 0000 0000 0000 0000
00000110: 0000 0000 0000 0000 0000 0000 0000 0000
00000120: 0000 0000 0000 0000 0000 0000 0000 0000
00000130: 0000 803f 0000 0000 0000 0000 0000 0000
00000140: 0000 0000

bias f4 [3]
0.0 0.0 0.0
00000000: 0000 0000 0000 0000 0000 0000

weight f4 [3, 3, 3, 3]
-0.058167256 -0.013909854 0.024303608 -0.06768565 0.9177028 -0.031532004 -0.055594087 -0.07489765
-0.040710595 -0.037764527 -0.037653595 -0.017679 0.010694431 -0.019907841 -0.016462157 -0.021858606
-0.06506992 -0.04155913 -0.029315408 -0.04387252 -0.04395125 -0.0005227031 -0.0029325944 -0.032730106
-0.01799618 -0.039527927 -0.04345463 0.0069538117 -0.03066904 -0.034390427 -0.010026946 -0.0387946
-0.004124145 -0.00037418026 0.046580102 0.061889905 -0.047592144 -0.0569153 -0.05861412 -0.012455776
0.9677765 -0.015309983 -0.030593468 -0.01655953 0.020741053 -0.059381507 -0.058708053 -0.054776996
-0.03837146 -0.02589449 -0.028400166 -0.030903203 -0.016919116 0.011895416 0.012162254 0.019285321
0.005384048 0.01052633 -0.016534118 0.0073139803 0.021223245 0.03337435 0.01785198 0.0102833845
0.006330103 -0.001052437 0.013091388 -0.04540817 -0.01870636 0.02186471 0.006363723 0.011770511
-0.055365127 -0.041271724 -0.01653955 -0.050638426 0.9139922 -0.047742143 -0.0130614415 -0.036809597
-0.014803863
00000000: ca40 6ebd 28e6 63bc 5c18 c73c c69e 8abd
00000010: 92ee 6a3f b427 01bd a0b6 63bd f063 99bd
00000020: 27c0 26bd faae 1abd a83a 1abd 8dd3 90bc
00000030: b237 2f3c c515 a3bc a5db 86bc d210 b3bc
00000040: 6143 85bd e839 2abd de26 f0bc acb3 33bd
00000050: 3a06 34bd 0306 09ba c530 40bb 0110 06bd
00000060: ba6c 93bc 09e8 21bd 7bfd 31bd cddc e33b
00000070: a33d fbbc fadc 0cbd 0f48 24bc 16e7 1ebd
00000080: d623 87bb a02d c4b9 c7ca 3e3d 4580 7d3d
00000090: fbef 42bd 0520 69bd 5c15 70bd 5013 4cbc
000000a0: 33c0 773f b9d6 7abc 279f fabc daa7 87bc
000000b0: 24e9 a93c 063a 73bd db77 70bd d85d 60bd
000000c0: 642b 1dbd ae20 d4bc 77a7 e8bc b728 fdbc
000000d0: f599 8abc fee4 423c 3144 473c 40fc 9d3c
000000e0: ab6c b03b a176 2c3c 8f72 87bc 1daa ef3b
000000f0: 5fdc ad3c 8bb3 083d 513e 923c a47b 283c
00000100: c16c cf3b edf1 89ba 437d 563c ebfd 39bd
00000110: 153e 99bc 9f1d b33c c786 d03b 1ad9 403c
00000120: 8bc6 62bd 8a0c 29bd f37d 87bc 3d6a 4fbd
00000130: 65fb 693f 448d 43bd a8ff 55bc a9c5 16bd
00000140: e78b 72bc

bias f4 [3]
0.11200233 0.14401506 0.24533667
00000000: 7a61 e53d af78 133e 8939 7b3e

weight f4 [3, 3, 3, 3]
-0.041924275 -0.0027237358 0.018073594 -0.039174024 0.94029725 -0.022823902 -0.06297511 -0.060656134
-0.020252837 -0.035510056 -0.038063586 -0.010645428 0.029857336 0.0026224765 0.0074130287 0.011277547
-0.022550847 0.008348654 -0.003165016 -0.01619094 -0.008380357 0.021533884 0.0151268225 -0.0064224754
0.010474542 -0.011366331 -0.004219492 0.013817747 -0.013972747 -0.032145992 0.0005619953 -0.03394148
0.0055792183 -0.019223535 0.00196847 0.038116463 -0.0409012 -0.05786041 -0.041332338 0.0070995674
0.9842527 0.004526428 -0.0072518736 -0.00605828 0.023209963 -0.034339786 -0.027634962 -0.025955124
-0.019072093 -0.0048023504 -0.010539266 -0.011094324 0.0012723815 0.02580179 0.0050185965 0.0227263
0.008729681 0.0027770079 -0.01715935 0.0034483129 0.0025113977 0.0065381676 -0.0024465765 0.005607846
0.019042829 0.024450049 0.024386264 -0.029258275 0.0032664808 0.04208636 0.025949825 0.029896958
-0.036753852 -0.018706653 0.0009618149 -0.03191448 0.93620706 -0.023148471 0.001533882 -0.011805564
0.012264209
00000000: cab8 2bbd b480 32bb 130f 943c f174 20bd
00000010: 52b7 703f 31f9 babc 18f9 80bd 9172 78bd
00000020: 47e9 a5bc fe72 11bd 90e8 1bbd 296a 2ebc
00000030: 5f97 f43c dbdd 2b3b fee8 f23b 76c5 383c
00000040: 8ebc b8bc cbc8 083c 286c 4fbb dda2 84bc
00000050: c44d 09bc d467 b03c 7ed6 773c a173 d2bb
00000060: 6a9d 2b3c d939 3abc aa43 8abb d563 623c
00000070: f3ed 64bc 84ab 03bd de52 133a 3906 0bbd
00000080: e0d1 b63b ad7a 9dbc 7201 013b 0220 1c3d
00000090: 0488 27bd 0aff 6cbd 194c 29bd 7da3 e83b
000000a0: fcf7 7b3f 6e52 943b 20a1 edbb 8984 c6bb
000000b0: d222 be3c e0a7 0cbd b762 e2bc d79f d4bc
000000c0: 143d 9cbc 095d 9dbb e3ac 2cbc f8c4 35bc
000000d0: 0ac6 a63a 475e d33c 0a73 a43b 812c ba3c
000000e0: f006 0f3c 76fe 353b c491 8cbc 17fd 613b
000000f0: 4396 243b 203e d63b be56 20bb 06c2 b73b
00000100: b5ff 9b3c 784b c83c b4c5 c73c 0daf efbc
00000110: 7412 563b bf62 2c3d ba94 d43c 77ea f43c
00000120: 358b 16bd b23e 99bc 4e22 7c3a c2b8 02bd
00000130: 44ab 6f3f dda1 bdbc 8a0c c93a 206c 41bc
00000140: d2ef 483c

bias f4 [3]
0.13716094 0.13934444 0.26298988
00000000: eb73 0c3e 4fb0 0e3e 9ca6 863e

weight f4 [3, 3, 3, 3]
-0.02534898 0.0071144933 0.017488373 -0.016323762 0.9568163 -0.014479178 -0.07022361 -0.046279598
0.008375133 -0.032157715 -0.037187375 -0.009348226 0.044523325 0.024873883 0.028908687 0.03502317
0.022388559 0.054590736 0.01906295 0.007993332 0.0185172 0.041115347 0.0355565 0.021380046
0.034797344 0.021660162 0.03942435 0.011815604 -0.0029426967 -0.03732486 0.004802386 -0.025006613
0.0063492646 -0.038650353 -0.028913451 0.02131933 -0.04118306 -0.055942785 -0.03607023 0.013119645
0.9907132 0.009880195 0.0027913647 -0.006995316 0.011154558 -0.017853605 -0.0069054216 -0.008017631
-0.0050474857 0.010655745 0.0022110215 0.0035397562 0.013594866 0.032249257 -0.012080411 0.019518869
0.0023308627 -0.006650952 -0.014291644 -9.846e-05 -0.013118721 -0.011428666 -0.01562795 -0.009390211
0.02402048 0.03517176 0.02614165 -0.020236013 0.010959201 0.04396452 0.028596638 0.028649943
-0.028128395 -0.006353972 0.011116253 -0.017250502 0.95674175 -0.0026692771 0.01196904 0.006246022
0.030920666
00000000: aaa8 cfbc b220 e93b c743 8f3c 69b9 85bc
00000010: eaf1 743f 133a 6dbc 65d1 8fbd ad8f 3dbd
00000020: db37 093c cfb7 03bd ca51 18bd 4d29 19bc
00000030: 175e 363d 50c4 cb3c e9d1 ec3c 7574 0f3d
00000040: 3668 b73c 899a 5f3d e729 9c3c 77f6 023c
00000050: 62b1 973c 9168 283d b1a3 113d 3525 af3c
00000060: a987 0e3d a770 b13c 6d7b 213d 3c96 413c
00000070: 42da 40bb f4e1 18bd 555d 9d3b abda ccbc
00000080: 7e0d d03b d54f 1ebd e7db ecbc e0a5 ae3c
00000090: 91af 28bd 4324 65bd 61be 13bd c8f3 563c
000000a0: 619f 7d3f 8be0 213c 54ef 363b f738 e5bb
000000b0: 9bc1 363c b941 92bc e046 e2bb 625c 03bc
000000c0: 6165 a5bb 6f95 2e3c c9e6 103b 41fb 673b
000000d0: 00bd 5e3c cc17 043d ebec 45bc 09e6 9f3c
000000e0: 63c1 183b 3bf0 d9bb 8027 6abc 4f7c ceb8
000000f0: e7ef 56bc 4d3f 3bbc 3006 80bc 66d9 19bc
00000100: 99c6 c43c 4310 103d 0327 d63c ffc5 a5bc
00000110: 388e 333c 2414 343d 7f43 ea3c 49b3 ea3c
00000120: 856d e6bc fb34 d0bb f220 363c ed50 8dbc
00000130: 07ed 743f 0aef 2ebb cb19 443c 6eab cc3b
00000140: 564d fd3c

bias f4 [3]
0.18053666 0.12986353 0.22174881
00000000: 9ade 383e f2fa 043e 1f12 633e

weight f4 [3, 3, 3, 3]
0.059684955 0.029817596 0.00533937 0.024842676 0.9868484 0.01813774 -0.015395085 -0.02604507
-0.02580006 0.0015502401 0.0027350048 0.013022757 0.028309373 0.036628064 0.042541612 -0.002261559
-0.019175785 -0.044969853 0.011305214 0.002986757 -0.021694742 0.013686088 0.014691066 0.00036739526
-0.0010431382 -0.01861239 -0.024006631 0.020481877 -0.02422792 -0.052428287 0.023118729 -0.0011171021
0.0031062388 -0.016483443 -0.011630234 -0.04525601 -0.016879499 -0.037942443 0.022682067 0.02412331
0.9965087 0.0067024166 0.042002898 0.010962832 -0.035465833 0.011354008 0.010624167 0.011955361
-0.0140034575 -0.00070556905 -0.0013430726 -0.0013354149 0.0009039231 0.01654832 0.03388757 0.02442591
0.01914952 -0.0056164544 -0.016139638 0.014093314 -0.008452964 -7.6758115e-05 -0.0070181503 -0.050492782
-0.020311706 0.005953374 -0.015755814 -0.016208619 -0.018820513 -0.039910834 -0.029333534 -0.06693329
0.0013503754 -0.0064999503 -0.022188667 -0.0035270345 0.9764881 -0.00844667 -0.0009960184 0.0066330126
-0.0028522597
00000000: 3678 743d 0844 f43c e2f5 ae3b de82 cb3c
00000010: 19a2 7c3f 9995 943c ab3b 7cbc 785c d5bc
00000020: a65a d3bc 6d31 cb3a c43d 333b 675d 553c
00000030: 0fe9 e73c 4f07 163d 1d40 2e3d aa36 14bb
00000040: 8916 9dbc 4f32 38bd 8139 393c 78bd 433b
00000050: 2cb9 b1bc 9d3b 603c ccb2 703c f59e c039
00000060: e9b9 88ba 0379 98bc 8ea9 c4bc 9cc9 a73c
00000070: a279 c6bc 0bbf 56bd 7d63 bd3c ba6b 92ba
00000080: 0a92 4b3b 4908 87bc bd8c 3ebc 5e5e 39bd
00000090: e046 8abc 8969 1bbd becf b93c 3f9e c53c
000000a0: 321b 7f3f f29f db3b 3b0b 2c3d 739d 333c
000000b0: 9f44 11bd 2906 3a3c fc10 2e3c 6be0 433c
000000c0: c26e 65bc f0f5 38ba 0a0a b0ba 1709 afba
000000d0: 41f5 6c3a 5890 873c b1cd 0a3d d918 c83c
000000e0: 74df 9c3c 3c0a b8bb 4637 84bc a5e7 663c
000000f0: 4d7e 0abc 33f9 a0b8 83f8 e5bb 85d1 4ebd
00000100: bc64 a6bc 8514 c33b 5612 81bc f0c7 84bc
00000110: 7a2d 9abc 8b79 23bd e14c f0bc 5214 89bd
00000120: 14ff b03a 89fd d4bb 02c5 b5bc d225 67bb
00000130: 20fb 793f e763 0abc d58c 82ba be59 d93b
00000140: faec 3abb

bias f4 [3]
-0.025033845 0.06004112 0.11810935
00000000: c713 cdbc aded 753d 51e3 f13d

weight f4 [3, 3, 3, 3]
0.059272435 0.02292961 0.0014330915 0.025985386 0.9880028 0.02093313 -0.0028613128 -0.015748497
-0.016696429 -0.010213654 -0.014265147 0.00021235265 0.019734992 0.030291492 0.029315598 -0.0032516515
-0.015660847 -0.044154085 0.011493303 0.0037036564 -0.020056697 0.013754845 0.018194856 0.004237655
0.0026217087 -0.010636897 -0.015529026 0.036732156 0.0198158 -0.0147219105 0.024698084 0.0031987985
0.012683928 -0.022051826 -0.01887732 -0.05145579 -0.02397607 -0.034423526 0.019135995 0.01883744
0.99546045 0.005026013 0.03355342 0.009717145 -0.035205092 0.0140041225 0.01864854 0.012140776
-0.012765241 0.004760077 0.002447545 -0.0041161655 0.0007396138 0.0154400375 0.029970141 0.021244634
0.016919091 -0.006595154 -0.013100921 0.013570084 -0.017212844 -0.009464273 -0.012905082 -0.04468118
-0.013215591 0.008830281 -0.002954379 -0.00043937273 -0.006880508 -0.030385768 -0.015027177 -0.04728288
0.010989977 0.0030110085 -0.01137578 0.0053650974 0.9865657 -0.000119664284 0.0059374967 0.011332417
0.0047088354
00000000: a7c7 723d e1d6 bb3c 92d6 bb3a 4edf d43c
00000010: c0ed 7c3f f57b ab3c dd84 3bbb fe02 81bc
00000020: f3c6 88bc 2b57 27bc 5db8 69bc fbaa 5e39
00000030: 47ab a13c dd25 f83c 4427 f03c a919 55bb
00000040: 2d4b 80bc eada 34bd 684e 3c3c 0bb9 723b
00000050: f14d a4bc 005c 613c 610d 953c 07dc 8a3b
00000060: f9d0 2b3b 6146 2ebc 756d 7ebc 7574 163d
00000070: bf54 a23c 2b34 71bc a353 ca3c efa2 513b
00000080: 40d0 4f3c 08a6 b4bc 9ca4 9abc 4ec3 52bd
00000090: 7769 c4bc afff 0cbd 17c3 9c3c fa50 9a3c
000000a0: 7fd6 7e3f 41b1 a43b 506f 093d a934 1f3c
000000b0: 3733 10bd 8c71 653c d3c4 983c 1bea 463c
000000c0: 4d25 51bc 6cfa 9b3b fe66 203b e6e0 86bb
000000d0: a4e2 413a 36f8 7c3c f183 f53c 3a09 ae3c
000000e0: e899 8a3c 291c d8bb 3fa5 56bc 0f55 5e3c
000000f0: f301 8dbc 0a10 1bbc d66f 53bc 9d03 37bd
00000100: 3586 58bc e2ac 103c 419e 41bb 9c5b e6b9
00000110: e275 e1bb 93eb f8bc 8c34 76bc b1ab 41bd
00000120: 4e0f 343c 5754 453b 7b61 3abc b3cd af3b
00000130: 928f 7c3f 46f4 fab8 558f c23b 9aab 393c
00000140: 934c 9a3b

bias f4 [3]
-0.004769434 0.066520676 0.12343804
00000000: ea48 9cbb fe3b 883d 15cd fc3d

weight f4 [3, 3, 3, 3]
0.047928765 0.007456007 -0.007863932 0.023296649 0.98695064 0.019608904 0.006240955 -0.0065245135
-0.012634728 -0.013515863 -0.020227622 -0.0031049743 0.016675256 0.027934317 0.02352361 -0.0011203031
-0.009462375 -0.036102097 0.012873989 0.0055904123 -0.017459933 0.015302446 0.022130629 0.00910194
0.0076705315 -0.0021064233 -0.0069720866 0.04090776 0.050614126 0.021179767 0.024681805 0.007759527
0.020107906 -0.026738886 -0.02339482 -0.055031 -0.01984704 -0.021968542 0.018539896 0.016437944
0.9967688 0.0061049783 0.025536159 0.0068694013 -0.030168736 0.015695797 0.025251554 0.013726855
-0.009015405 0.01149363 0.0084654335 -0.0052491543 0.000411004 0.014007274 0.02020811 0.014297928
0.012183457 -0.004827807 -0.008066967 0.013189277 -0.020988084 -0.012566113 -0.014281137 -0.03341924
-0.004454315 0.010777925 0.0097341845 0.014128841 0.0035769653 -0.017820558 -0.0010859092 -0.028043501
0.01652157 0.008483497 -0.0028659683 0.010991011 0.99416953 0.0059165135 0.013268881 0.015741684
0.011735458
00000000: f450 443d 8551 f43b b9d7 00bc 9dd8 be3c
00000010: cca8 7c3f daa2 a03c ed80 cc3b 96cb d5bb
00000020: e401 4fbc a371 5dbc 66b4 a5bc d37c 4bbb
00000030: 8c9a 883c 82d6 e43c 96b4 c03c 22d7 92ba
00000040: 1408 1bbc cbdf 13bd 6ced 523c c72f b73b
00000050: 2208 8fbc 1cb7 7a3c 4b4b b53c 4e20 153c
00000060: 1559 fb3b eb0b 0abb 1a76 e4bb e58e 273d
00000070: c250 4f3d 3181 ad3c 7f31 ca3c a143 fe3b
00000080: 56b9 a43c 820b dbbc 7ea6 bfbc 3068 61bd
00000090: 4296 a2bc 5ff7 b3bc fbe0 973c dea8 863c
000000a0: 3d2c 7f3f 450c c83b 3531 d13c b718 e13b
000000b0: 6d24 f7bc 7994 803c 59dc ce3c 9ae6 603c
000000c0: 59b5 13bc c74f 3c3c 9ab2 0a3c 1901 acbb
000000d0: 067c d739 c47e 653c 7a8b a53c db41 6a3c
000000e0: 1f9d 473c 9532 9ebb 502b 04bc d617 583c
000000f0: 34ef abbc 19e2 4dbc 6efb 69bc 9de2 08bd
00000100: 81f5 91bb e595 303c 217c 1f3c a87c 673c
00000110: 856b 6a3b 6bfc 91bc 1155 8eba 7cbb e5bc
00000120: 3e58 873c 5efe 0a3c f8d2 3bbb a413 343c
00000130: e581 7e3f 50df c13b b865 593c b4f4 803c
00000140: 1446 403c

bias f4 [3]
0.014834155 0.07161343 0.12695296
00000000: f50a 733c 10aa 923d f5ff 013e

weight f4 [3, 3, 3, 3]
0.03876584 0.008607544 0.011289058 0.024264025 0.9831383 0.021192597 0.02807972 0.026959008
0.020278385 -0.018164057 -0.012904382 0.007808953 0.0072102463 0.024674617 0.024044506 -0.005371388
0.0065463916 -0.0140394 0.00479345 0.010779953 -0.012860577 0.0062817303 0.021929532 0.0134982355
0.0020272424 0.005507944 0.0042604483 -0.0038550084 0.026537195 0.02090959 0.020397063 0.009424766
0.021926193 -0.026536351 -0.022328028 -0.060090277 -0.0108405035 -0.008090776 0.020251034 0.016384305
0.9998821 0.010559944 0.020793978 0.007552728 -0.020637173 0.017334871 0.030086307 0.014877095
-0.0033867736 0.018830338 0.0150737595 -0.0030575031 0.004175851 0.01609953 0.0012335522 -0.0018898724
-0.0006885148 -0.010899832 -0.02874201 0.0018592728 -0.025938297 -0.036603063 -0.049825374 -0.02295244
0.00033106454 0.006105627 0.018865962 0.022244373 -0.0001299223 -0.008076005 -0.015311114 -0.041271444
0.014706915 0.007769304 -0.00068541494 0.01383941 1.0004835 0.0052269334 0.017475713 0.0067177727
-3.7331122e-06
00000000: eec8 1e3d a806 0d3c bef5 383c 59c5 c63c
00000010: f4ae 7b3f 199c ad3c 7107 e63c 23d9 dc3c
00000020: db1e a63c cacc 94bc e76c 53bc 3fe2 ff3b
00000030: ee43 ec3b 6c22 ca3c fcf8 c43c 7802 b0bb
00000040: 1d83 d63b 8305 66bc 5f12 9d3b 669e 303c
00000050: 2bb5 52bc f9d6 cd3b 90a5 b33c b427 5d3c
00000060: 7cdb 043b fc7b b43b 3b9b 8b3b 4fa4 7cbb
00000070: 8864 d93c 974a ab3c be17 a73c 556a 1a3c
00000080: 8f9e b33c c362 d9bc 45e9 b6bc 3921 76bd
00000090: 5e9c 31bc 2d8f 04bc 7fe5 a53c 6138 863c
000000a0: 46f8 7f3f 9e03 2d3c 2258 aa3c e07c f73b
000000b0: 4a0f a9bc dc01 8e3c 8f77 f63c 0fbf 733c
000000c0: a2f4 5dbb 1542 9a3c eef7 763c 6460 48bb
000000d0: 94d5 883b 29e3 833c 25af a13a 98b5 f7ba
000000e0: 727d 34ba 3595 32bc 5d74 ebbc d8b2 f33a
000000f0: 8d7c d4bc 18ed 15bd b115 4cbd c106 bcbc
00000100: bb92 ad39 b611 c83b ca8c 9a3c d539 b63c
00000110: c03b 08b9 3851 04bc 77db 7abc 3f0c 29bd
00000120: 46f5 703c a595 fe3b 6bad 33ba b1be 623c
00000130: d80f 803f b246 ab3b 3a29 8f3c c320 dc3b
00000140: 6186 7ab6

bias f4 [3]
-6.285644e-05 0.07738853 0.11125902
00000000: cbd1 83b8 e17d 9e3d c5db e33d

weight f4 [3, 3, 3, 3]
0.027862208 0.0014837384 0.012090247 0.018220961 0.980159 0.017781299 0.031040706 0.030419819
0.017131435 -0.014301253 -0.009139837 0.011045372 0.0064694076 0.024880378 0.02681799 -0.0026580237
0.012888297 -0.005045293 0.0069976747 0.014501176 -0.013984891 0.0073408666 0.025777167 0.017267851
0.0015260085 0.01054884 0.007727391 -0.00565368 0.025637573 0.028239522 0.017783938 0.010928773
0.022728747 -0.015743151 -0.008699068 -0.044310942 -0.006229383 -0.0021143921 0.017264117 0.016333431
1.003457 0.014981113 0.016643368 0.006932287 -0.012485708 0.019821964 0.034369707 0.013347442
0.002759387 0.025563596 0.020023117 -0.0056418492 0.0027826403 0.014034407 -0.0059129666 -0.00802209
-0.004676235 -0.0037551215 -0.01985274 0.0049216286 -0.019607333 -0.026201667 -0.04050592 -0.011668466
0.005330144 0.005389635 0.026459882 0.030511113 0.007830159 0.005391165 -0.0013827241 -0.024313586
0.016723117 0.008414227 0.0031043075 0.017475976 1.0053605 0.007286137 0.022756336 0.008388387
0.0043791537
00000000: 493f e43c 007a c23a 2c16 463c 2044 953c
00000010: b3eb 7a3f 16aa 913c 1449 fe3c fc32 f93c
00000020: 3957 8c3c cd4f 6abc 41bf 15bc a6f7 343c
00000030: 53fd d33b efd1 cb3c 67b1 db3c 3d32 2ebb
00000040: 7029 533c fc52 a5bb c04c e53b 5796 6d3c
00000050: e220 65bc a78b f03b a32a d33c 4f75 8d3c
00000060: 5904 c83a 0bd5 2c3c 0e36 fd3b 8142 b9bb
00000070: e305 d23c 9256 e73c 9faf 913c 990e 333c
00000080: a331 ba3c c8f7 80bc 8986 0ebc 647f 35bd
00000090: da1f ccbb 9d91 0abb 7a6d 8d3c b0cd 853c
000000a0: 4771 803f 5873 753c ac57 883c 3d28 e33b
000000b0: db90 4cbc ac61 a23c 40c7 0c3d 3baf 5a3c
000000c0: d5d6 343b bf6a d13c 8507 a43c 43df b8bb
000000d0: f55c 363b 92f0 653c 8fc1 c1bb 166f 03bc
000000e0: 1a3b 99bb 7c18 76bb 37a2 a2bc 9d45 a13b
000000f0: 8f9f a0bc e1a4 d6bc 89e9 25bd 182d 3fbc
00000100: 7da8 ae3b 899b b03b 65c2 d83c 71f2 f93c
00000110: 114a 003c 5fa8 b03b 863c b5ba 492d c7bc
00000120: ebfe 883c d3db 093c a371 4b3b c729 8f3c
00000130: a7af 803f 8cc0 ee3b 7f6b ba3c 726f 093c
00000140: 017f 8f3b

bias f4 [3]
0.015218157 0.08238775 0.112208985
00000000: 9455 793c e9ba a83d d3cd e53d

weight f4 [3, 3, 3, 3]
0.019949712 -0.0034081212 0.012223944 0.014394721 0.98032683 0.015957195 0.030845413 0.029598866
0.013304786 -0.0068282583 -0.0018179953 0.017007323 0.009388831 0.02826314 0.0331181 0.0024174806
0.02017331 0.006027989 0.011077827 0.01865933 -0.013511265 0.010799969 0.030296642 0.02171515
0.002924238 0.015471749 0.0113765085 -0.0072396267 0.017892813 0.025683627 0.015946899 0.012957535
0.02164611 -0.0066904677 0.0030695668 -0.028515832 -0.0026173824 0.0017657857 0.015036655 0.016370803
1.0065422 0.017639043 0.013870099 0.0057124705 -0.006423407 0.021415766 0.03697763 0.012967122
0.008644742 0.030876191 0.02348857 -0.005616399 0.0026300906 0.012248321 -0.0069112475 -0.009851397
-0.005433899 0.0045591663 -0.010876783 0.008302582 -0.0095838895 -0.012479776 -0.02758855 -0.0016130691
0.009368233 0.005081032 0.031974334 0.035511285 0.012674988 0.017004557 0.009920573 -0.011473409
0.01730512 0.007826675 0.0056276633 0.019421235 1.0080575 0.008369217 0.027689451 0.010025078
0.008106009
00000000: 946d a33c c95a 5fbb f046 483c d6d7 6b3c
00000010: b3f6 7a3f aab8 823c 85af fc3c 5279 f23c
00000020: 51fc 593c 95bf dfbb cd49 eeba f152 8b3c
00000030: 9dd3 193c 1a88 e73c d8a6 073d 986e 1e3b
00000040: 7f42 a53c 7086 c53b c67f 353c 74db 983c
00000050: 5a5e 5dbc 5af2 303c aa30 f83c f8e3 b13c
00000060: 93a4 3f3b 387d 7d3c 8964 3a3c 643a edbb
00000070: f393 923c 7866 d23c 12a3 823c d74b 543c
00000080: 2f53 b13c b63b dbbb c92a 493b 099a e9bc
00000090: 6488 2bbb f071 e73a 4d5c 763c 101c 863c
000000a0: 60d6 803f c17f 903c 693f 633c ad2f bb3b
000000b0: 717b d2bb 1e70 af3c db75 173d 0d74 543c
000000c0: ada2 0d3c 11f0 fc3c 1a6b c03c c509 b8bb
000000d0: 995d 2c3b 2fad 483c bf77 e2bb c167 21bc
000000e0: d90e b2bb 0f65 953b 8934 32bc 8e07 083c
000000f0: bf05 1dbc f977 4cbc 6201 e2bc 9e6d d3ba
00000100: 387d 193c c97e a63b 85f7 023d 4874 113d
00000110: c1aa 4f3c 244d 8b3c e689 223c f7fa 3bbc
00000120: 78c3 8d3c 743b 003c 4368 b83b 4819 9f3c
00000130: 0708 813f 0a1f 093c fdd4 e23c 3a40 243c
00000140: 11cf 043c

bias f4 [3]
0.029068368 0.085691884 0.109534495
00000000: c920 ee3c 3a7f af3d 9f53 e03d
