data/perturbations/car/2018-07-22 15:15:42.316242/pert_model.pt (torch_old, 19719 bytes, 20 tensors)

weight f4 [3, 3, 3, 3]
000000 00 00 00 00 00 00 00 00 00 00 00 00 00 00 00 00
       0.0 0.0 0.0 0.0
000010 00 00 80 3f 00 00 00 00 00 00 00 00 00 00 00 00
       1.0 0.0 0.0 0.0
000020 00 00 00 00 00 00 00 00 00 00 00 00 00 00 00 00
       0.0 0.0 0.0 0.0
000030 00 00 00 00 00 00 00 00 00 00 00 00 00 00 00 00
       0.0 0.0 0.0 0.0
000040 00 00 00 00 00 00 00 00 00 00 00 00 00 00 00 00
       0.0 0.0 0.0 0.0
000050 00 00 00 00 00 00 00 00 00 00 00 00 00 00 00 00
       0.0 0.0 0.0 0.0
000060 00 00 00 00 00 00 00 00 00 00 00 00 00 00 00 00
       0.0 0.0 0.0 0.0
000070 00 00 00 00 00 00 00 00 00 00 00 00 00 00 00 00
       0.0 0.0 0.0 0.0
000080 00 00 00 00 00 00 00 00 00 00 00 00 00 00 00 00
       0.0 0.0 0.0 0.0
000090 00 00 00 00 00 00 00 00 00 00 00 00 00 00 00 00
       0.0 0.0 0.0 0.0
0000a0 00 00 80 3f 00 00 00 00 00 00 00 00 00 00 00 00
       1.0 0.0 0.0 0.0
0000b0 00 00 00 00 00 00 00 00 00 00 00 00 00 00 00 00
       0.0 0.0 0.0 0.0
0000c0 00 00 00 00 00 00 00 00 00 00 00 00 00 00 00 00
       0.0 0.0 0.0 0.0
0000d0 00 00 00 00 00 00 00 00 00 00 00 00 00 00 00 00
       0.0 0.0 0.0 0.0
0000e0 00 00 00 00 00 00 00 00 00 00 00 00 00 00 00 00
       0.0 0.0 0.0 0.0
0000f0 00 00 00 00 00 00 00 00 00 00 00 00 00 00 00 00
       0.0 0.0 0.0 0.0
000100 00 00 00 00 00 00 00 00 00 00 00 00 00 00 00 00
       0.0 0.0 0.0 0.0
000110 00 00 00 00 00 00 00 00 00 00 00 00 00 00 00 00
       0.0 0.0 0.0 0.0
000120 00 00 00 00 00 00 00 00 00 00 00 00 00 00 00 00
       0.0 0.0 0.0 0.0
000130 00 00 80 3f 00 00 00 00 00 00 00 00 00 00 00 00
       1.0 0.0 0.0 0.0
000140 00 00 00 00
       0.0

bias f4 [3]
000000 00 00 00 00 00 00 00 00 00 00 00 00
       0.0 0.0 0.0

weight f4 [3, 3, 3, 3]
000000 ed 70 68 bd 90 18 f7 bd ed e2 3e bd 83 08 73 bd
       -0.05674832 -0.12065232 -0.046603132 -0.05933429
000010 c8 2e 6a 3f 65 38 17 bd c4 c1 a3 bd b2 b5 da bd
       0.9147763 -0.036919016 -0.07995942 -0.10679187
000020 af 18 ac bd 12 69 86 3d d6 f8 92 3b e8 b3 1c 3d
       -0.084031455 0.06563009 0.00448523 0.03825751
000030 93 54 36 3d 8d 38 47 3d 21 3d 76 3d 16 49 0e 3d
       0.04451425 0.048637915 0.06011689 0.03473767
000040 15 4a 12 3d c4 e0 fe 3c b3 23 66 bd 77 30 27 bd
       0.03571518 0.031113036 -0.05618639 -0.040817704
000050 82 67 02 bd ec 22 b9 3c 06 ca 69 3c 2f 24 6f 3b
       -0.031836994 0.02259966 0.014269358 0.0036490073
000060 a9 19 a5 3b 46 a8 0f 3d 48 ce de 3b 4f d4 5b 3d
       0.0050384593 0.035072587 0.006799493 0.05366927
000070 00 9b b7 3c 36 d5 38 3d ef e3 21 bc 73 00 6b bc
       0.022412777 0.04512521 -0.009881004 -0.014343369
000080 fc 38 b2 3b c2 ac 5c 3d e3 8c c4 3c 6a d3 49 3d
       0.005438922 0.053875692 0.023992961 0.049273886
000090 f3 4f 1b bd ff 48 5e bd f8 cc fa 3b b9 c6 59 bd
       -0.037918042 -0.054268833 0.0076538287 -0.053168032
0000a0 dc ec 6c 3f a4 d9 a1 b9 34 4e d9 ba fa 22 9f bc
       0.9254892 -0.00030870468 -0.0016579092 -0.019425858
0000b0 92 42 27 bc 45 6c 7c bc 73 2b c6 bc 95 cc 8c 3c
       -0.010208743 -0.015406673 -0.02419064 0.017187396
0000c0 b2 c3 cf 3c 2e 16 30 b9 32 1e 8d bc af ed 4a bc
       0.02536187 -0.0001679293 -0.017226312 -0.01238577
0000d0 d8 a3 c6 bc aa 67 bf bc ca 5e d6 3b d3 ab 26 3c
       -0.024248049 -0.02336486 0.0065420615 0.010172802
0000e0 5b bb 8d 3c f4 9c 03 3c 99 80 56 3c 21 aa 71 3c
       0.017301252 0.008033026 0.0130921835 0.014750035
0000f0 50 5d 3f bb 88 70 b1 39 5d d8 25 3c 8c 22 0d bd
       -0.0029199906 0.00033843913 0.010122386 -0.034456775
000100 d9 da cb bc 21 6e c6 bc dd b7 c2 bc 87 77 4d bc
       -0.024884628 -0.024222435 -0.023769313 -0.012540705
000110 75 26 93 bc 80 d0 eb bc b3 e9 d7 bc 43 a7 20 bd
       -0.017962674 -0.028785944 -0.026356554 -0.039222013
000120 20 94 c7 bb 72 b4 dd bb b1 9f 99 3b 3f b4 61 3c
       -0.006090656 -0.0067658955 0.004688226 0.013775884
000130 97 4d 7c 3f 2d 94 25 bb 2a f3 3b bc 4a d8 5b bc
       0.9855589 -0.0025265322 -0.011471549 -0.013418267
000140 fe 9a 8c bb
       -0.0042909374

bias f4 [3]
000000 99 bf 15 bd 92 42 a8 3e 3d ae 89 3d
       -0.036559675 0.3286329 0.067226864

weight f4 [3, 3, 3, 3]
000000 6b 02 48 bd 82 fb c0 bd 24 c5 e1 bc 47 c7 3c bd
       -0.04883043 -0.09422971 -0.027559824 -0.046088483
000010 b9 a6 70 3f 24 44 80 bc f6 91 91 bd 92 1c aa bd
       0.940044 -0.015657492 -0.07107918 -0.083062306
000020 61 bb 89 bd 0e ce 34 3d 1e 78 bc 3c 62 53 1a 3d
       -0.06725193 0.04414182 0.023006495 0.037677176
000030 d5 e5 bf 3c cd 4f 37 3d b7 2f 4a 3d 61 12 c5 3c
       0.023425022 0.04475384 0.04936191 0.024056615
000040 dd 06 31 3d 56 3f 04 3d 65 5a ec bc 2b 66 8f bc
       0.043219436 0.032286964 -0.028851697 -0.017504772
000050 4b 95 83 bc 49 31 a7 3c 09 94 53 3c 68 b3 2b 39
       -0.0160624 0.020409243 0.012913712 0.00016374665
000060 b5 db d0 3b 7e 98 02 3d ac 7f 9d bb 4a cc 0a 3d
       0.0063738474 0.03188371 -0.0048064794 0.03388623
000070 1e 73 11 bc 45 e9 c1 3c a8 53 af bc bf 48 b7 bc
       -0.008877544 0.023670802 -0.021402195 -0.022373555
000080 89 fe 07 3b f6 03 eb 3c 9f 1a 02 39 28 2b 19 3d
       0.002075108 0.028688412 0.00012407683 0.037394673
000090 2b 37 a0 bc d9 64 01 bd 4b d4 ad 3c 1e 9f e1 bc
       -0.019557556 -0.031590316 0.021219393 -0.027541693
0000a0 3c 3e 75 3f 1f ab b4 3c 9f d3 82 3c 74 8f 8c 3b
       0.9579809 0.022054253 0.01597005 0.004289562
0000b0 23 45 05 3c 46 e4 93 bc dc 94 f4 bc ea de a4 3c
       0.008134159 -0.018053185 -0.029856138 0.020125825
0000c0 5f 96 00 3d b5 91 13 3c fd a1 fa bb ab 9c 7f bc
       0.031393405 0.009006907 -0.007648705 -0.015601317
0000d0 42 18 b8 bc 17 4d b5 bc 68 bd 79 bb b2 8e 8f ba
       -0.022472505 -0.022131486 -0.003810728 -0.0010952561
0000e0 75 bd e6 3b 95 e8 d7 bb 59 f7 85 bb 62 db 41 39
       0.007041628 -0.0065890052 -0.004088324 0.00018487641
0000f0 83 88 2a bc 00 b9 e6 bb 84 52 a7 3b ab e1 38 bc
       -0.0104085235 -0.0070410967 0.005106272 -0.011284272
000100 94 c7 56 bb 97 22 fe bb 76 86 6c ba 1f 7e 74 3c
       -0.0032772766 -0.0077555883 -0.0009022722 0.014922648
000110 e5 4d 81 ba cb b0 3a bc 33 bd 04 bc c6 6b ca bc
       -0.0009865133 -0.01139469 -0.008101749 -0.024709594
000120 5e 26 5a bb 82 12 6b bb 96 95 08 3c 3c ac 7c 3c
       -0.0033287029 -0.0035869186 0.008336445 0.015421923
000130 6d c7 7c 3f 6f c8 17 b9 8f 9b 13 bc f2 74 23 bc
       0.987418 -0.0001447515 -0.009009256 -0.009976612
000140 7c d2 9d b9
       -0.00030102197

bias f4 [3]
000000 fe b9 31 bd 80 e9 a7 3e a2 0a 99 3d
       -0.043390267 0.32795334 0.07472731

weight f4 [3, 3, 3, 3]
000000 02 08 1b bd 67 5f 8f bd 7c 02 50 bc db ea 17 bd
       -0.037849434 -0.070006184 -0.012695905 -0.03708921
000010 8d da 74 3f f4 d4 13 bb 78 c2 74 bd 56 74 72 bd
       0.9564598 -0.002255735 -0.059755772 -0.059192978
000020 cb fe 48 bd 02 b3 12 3d 7d c6 17 3d 3a 69 20 3d
       -0.049071115 0.035815246 0.037054528 0.039162852
000030 ca 6f 83 3c 78 ed 40 3d 47 e1 3c 3d 55 b2 f4 3c
       0.016044516 0.047101468 0.04611328 0.029870192
000040 83 d7 73 3d 18 b8 3b 3d ed a3 02 bc 39 36 bf 39
       0.0595317 0.045829862 -0.007973653 0.00036470758
000050 13 66 1e bb 70 a1 af 3c 11 8b 6e 3c 18 0f 03 3b
       -0.0024169728 0.021439284 0.014559523 0.001999801
000060 e1 78 1b 3c c4 20 01 3d f9 d1 07 bc c3 70 f1 3c
       0.009489269 0.03152539 -0.0082898075 0.029472714
000070 d5 42 ea bc 3c c5 a7 3c 12 cf 2c bc e0 92 8f bc
       -0.028596321 0.02047979 -0.010547416 -0.01752609
000080 8a bd 61 3c 8f e7 a2 3c 70 54 15 bc 3a 6e 0f 3d
       0.0137781 0.019885806 -0.00911437 0.03501723
000090 a1 eb 67 bc 1c 53 a3 bc 82 0a ee 3c ef f3 50 bc
       -0.014155299 -0.01993709 0.029057745 -0.012753471
0000a0 20 49 7b 3f f2 96 23 3d 48 e4 90 3c 34 68 81 3c
       0.98158455 0.039938875 0.017686978 0.015796758
0000b0 c2 95 ab 3c 3b ba ae bc 6b c3 2d bd 0b 80 85 3c
       0.020945434 -0.021329036 -0.042422693 0.016296407
0000c0 a0 95 0d 3d d3 20 49 3c 4b c2 69 3b 4e d6 79 bc
       0.03456652 0.012275892 0.0035668786 -0.015248848
0000d0 53 5b ab bc 03 78 85 bc b7 b3 10 b9 73 03 45 39
       -0.02091757 -0.016292578 -0.00013799859 0.00018788669
0000e0 1b 97 14 3c 9e 11 aa bb 81 59 d1 bb 62 2a 12 bb
       0.0090692295 -0.0051900884 -0.0063888435 -0.0022303094
0000f0 0c e9 f2 bb dd b6 bd bb bd d1 fe 3b ec b4 62 3b
       -0.0074130353 -0.0057896213 0.0077764676 0.00345927
000100 53 fc 35 3c 3f 2c 50 3b ad cd 5c 3c 89 5d 0a 3d
       0.011107522 0.0031764654 0.013476771 0.03378061
000110 3c 0a 1f 3c dc b4 a7 ba 06 de 4a 3b ed 95 85 bc
       0.00970703 -0.0012794989 0.003095509 -0.016306842
000120 0b 15 2e bb e2 39 1c bb 90 5c 23 3c 58 11 85 3c
       -0.0026562836 -0.0023838212 0.009970799 0.016243622
000130 8d 05 7d 3f 0a d6 a8 3a bf e5 f4 bb 7b f5 00 bc
       0.98836595 0.0012881171 -0.007473677 -0.007871027
000140 4d 3b 02 3b
       0.0019871772

bias f4 [3]
000000 3a f3 36 bd a0 44 9c 3e db 1d a7 3d
       -0.044665553 0.30521107 0.08159991

weight f4 [3, 3, 3, 3]
000000 1f 36 7f bc 9a 88 76 bc 6c dd 80 bc 31 df bb bc
       -0.015576868 -0.015047217 -0.015730582 -0.022933574
000010 b7 b4 74 3f 0f 59 17 bc bc b9 d8 bb 08 4e 9b 3b
       0.9558825 -0.009237542 -0.006613938 0.0047395267
000020 b1 eb 95 bb 09 5f 00 3d 1f 9e aa 3c 9a 36 3d bc
       -0.0045752157 0.031340633 0.020827351 -0.011548663
000030 84 6e 6d 3c f9 e2 b3 3b d1 74 e8 bb 93 97 8c 3c
       0.014491681 0.0054897037 -0.0070940037 0.01716212
000040 49 c0 95 3c 27 db 16 bc 57 3c b5 bc ee 39 b3 bc
       0.018280165 -0.009207523 -0.022123499 -0.021878209
000050 5b fd f0 3b 96 3e 32 bc ff b4 e8 bc 45 dc 42 bc
       0.007354421 -0.010879179 -0.028406618 -0.011893337
000060 d0 e6 9d bb 76 46 6a bc 98 33 01 bc 18 59 dd bc
       -0.0048187748 -0.014299026 -0.007885836 -0.027020022
000070 40 8c d8 3b 7d 05 61 bd 4b 98 b2 bc 38 7c ec bc
       0.006608516 -0.054936875 -0.021801135 -0.028867826
000080 8e 31 6a bd f0 71 1d bd 48 1d 46 bd 23 cb 86 bd
       -0.057176165 -0.038438737 -0.04836777 -0.06581714
000090 4c 5a c9 3b d2 85 c5 3c 5c 19 55 bc 2b 6f f0 b9
       0.0061447974 0.024111662 -0.013006534 -0.00045859194
0000a0 d0 08 81 3f ce b6 bb 3c a3 82 30 bc a8 49 87 ba
       1.0080814 0.022914317 -0.010773334 -0.0010321634
0000b0 df a1 97 3c 21 87 24 bc fd 66 89 3c 73 8d 12 bd
       0.018509803 -0.010041983 0.016772741 -0.035779428
0000c0 05 e7 e5 3b f8 fc dc bb e3 e4 cb bc 49 26 5f 3c
       0.007016065 -0.0067440234 -0.024889415 0.013619968
0000d0 c6 bf 41 3a 5f d1 8c bc 40 30 ae bc 92 62 44 bd
       0.0007390942 -0.01718968 -0.021263242 -0.047945566
0000e0 91 1b eb bc 3d 6f 1d bd b3 36 c9 bd df ba 30 bd
       -0.028699668 -0.038436163 -0.09824886 -0.043146964
0000f0 68 15 a6 bc 08 c2 58 bd 60 da 26 bd 20 9f 9f bc
       -0.02027388 -0.052919418 -0.040735602 -0.019485056
000100 ef 60 5d bc 6a 67 64 bc bf 6a b7 bc a5 16 8b bc
       -0.01351188 -0.013940671 -0.022389768 -0.016978571
000110 e4 18 0c ba 97 1b 04 bc 91 58 2c ba 36 80 bc 3c
       -0.0005344285 -0.008063219 -0.0006574477 0.023010354
000120 b6 e4 b2 3b 01 60 d9 3b c3 8f 1c 39 b3 7e 7a 3b
       0.0054593934 0.006633759 0.00014930875 0.0038222491
000130 3c 6d 7d 3f 52 8f 81 bb 21 e2 4d bb dc cc c4 ba
       0.98994803 -0.0039538527 -0.00314153 -0.0015014666
000140 39 27 1b 3b
       0.0023674502

bias f4 [3]
000000 44 fb 7a 3b cf bd f1 3d 34 e3 71 3d
       0.0038296739 0.11803781 0.05905457

weight f4 [3, 3, 3, 3]
000000 41 b1 94 bc 1b 3a 78 bc 81 23 bd bc 5d 3d cb bc
       -0.018150927 -0.015150572 -0.023088219 -0.024809534
000010 99 d1 72 3f 61 04 86 bc b2 50 b3 bb 00 16 d0 bb
       0.9485107 -0.01635951 -0.005472266 -0.006350279
000020 32 30 06 bc 6b c4 09 3d 7d 63 bf 3c 40 61 49 bc
       -0.008190202 0.033634584 0.02336287 -0.012291253
000030 af 95 bb 3c f6 a2 83 3c 97 36 c5 3b 72 95 b2 3c
       0.022898523 0.016068917 0.0060184705 0.021799777
000040 59 aa 9d 3c 86 c7 a9 3a a5 a6 16 bd 4f 42 df bc
       0.019246267 0.0012953139 -0.03678002 -0.027253298
000050 f5 39 38 3c 05 e7 46 bc 2d 5f e3 bc 04 4a 53 bc
       0.011244287 -0.01214004 -0.027755344 -0.012896065
000060 13 e1 87 bc 58 a6 fd bc 98 7b 46 bc 6d a7 0b bb
       -0.016586816 -0.030963108 -0.012114428 -0.002130951
000070 7e 64 98 3c 20 4c 12 bd e6 92 db 3b dd eb 1e bc
       0.018602606 -0.03571713 0.0067008613 -0.009699789
000080 75 fd 10 bd 8d f2 83 ba 44 41 75 bc c9 a0 33 bd
       -0.035397965 -0.0010066793 -0.014969174 -0.04385451
000090 10 f7 14 3c b9 1b 07 3d c6 5b 91 bb 5a c8 0d 3b
       0.009092107 0.032985423 -0.004435989 0.0021634311
0000a0 8a 46 82 3f 1d a2 0c 3d d7 15 40 bc 3b 60 9b 3c
       1.0177777 0.03433429 -0.011723957 0.018966785
0000b0 6e f4 db 3c f7 a9 f8 ba f7 bc 26 3c 14 7c c3 bc
       0.026849952 -0.0018971552 0.010176889 -0.023862876
0000c0 2a 64 e9 3b 4a f5 76 bb d5 af 55 bc e6 af 31 3c
       0.007122536 -0.0037682825 -0.01304241 0.01084516
0000d0 9c b6 ce 3c 94 07 a9 3b 77 a5 3b bc a4 4d 26 bd
       0.02523356 0.005158374 -0.011453024 -0.040601388
0000e0 e3 ac c0 bc 9e 90 03 bd d5 d2 b4 bd a6 22 25 bd
       -0.023519939 -0.03212034 -0.088292755 -0.040316246
0000f0 64 2d 47 bc b6 3a 30 bd 0e d4 04 bd 10 88 55 bb
       -0.012156818 -0.04302474 -0.032428794 -0.003258232
000100 b0 e4 1a 3c c2 b1 ec ba ac 05 c8 bb 71 f2 39 3c
       0.009453937 -0.0018058347 -0.0061041918 0.011349306
000110 ba 33 88 3c f7 18 21 3c 2c 77 d4 3c 9c e4 1b 3d
       0.016626228 0.009832612 0.025935732 0.038059816
000120 74 17 c8 3b 67 10 06 3c ee 66 03 3a 88 73 0d 3b
       0.0061063115 0.008182622 0.0005012591 0.0021583755
000130 2e b9 7d 3f 4c f7 6f bb 74 6b 82 bb db 44 d2 3a
       0.99110687 -0.0036615906 -0.0039800946 0.0016042249
000140 a6 a0 9c 3b
       0.004779893

bias f4 [3]
000000 4a 1f 84 3d 39 5e dc 3d 29 76 79 3d
       0.064512804 0.10760159 0.060903702

weight f4 [3, 3, 3, 3]
000000 67 a3 95 bc 39 c7 27 bc 23 5d a5 bc 50 2a db bc
       -0.018266393 -0.0102403695 -0.020186013 -0.026753575
000010 4a 52 73 3f ea 30 4f bc 5b ed e0 bb f3 6e 47 bb
       0.9504744 -0.012645939 -0.0068642325 -0.003043112
000020 57 93 bd 3b f8 b0 fd 3c 00 38 fe 3c 27 ca 19 bc
       0.0057853865 0.030968174 0.031032562 -0.009386576
000030 b2 6e bb 3c 31 1f e1 3c b6 93 89 3c 7d d9 9b 3c
       0.022879932 0.027480694 0.016794067 0.019024605
000040 c5 0e d3 3c 9e 96 49 3c e3 24 14 bd 6d 39 b3 bc
       0.025763879 0.012303976 -0.03616799 -0.021877969
000050 83 3e 14 3c df 43 c7 bb c0 1b a8 bc 26 de 55 bc
       0.009048107 -0.006081089 -0.020521045 -0.013053453
000060 af 8e 78 bc 59 a8 e5 bc 8f c7 a7 bb 26 ff a3 3c
       -0.015170737 -0.028034376 -0.005120225 0.020019125
000070 a8 4f f1 3c a8 4f 95 bc f5 95 f8 3c 45 70 02 3c
       0.029456928 -0.01822646 0.030344943 0.007961337
000080 f7 58 6b bc 3f 06 02 3d f6 de a8 3c 8d 7b 96 bc
       -0.014364473 0.031744238 0.020614129 -0.01836946
000090 ce 0d ab 3b f8 e5 0c 3d 89 46 9b ba 52 30 09 ba
       0.0052201515 0.034399003 -0.0011846583 -0.00052333355
0000a0 fc 4f 82 3f 36 37 0f 3d 62 58 b8 bc 91 d2 a2 3c
       1.0180659 0.034964763 -0.022503082 0.019875797
0000b0 a5 aa 91 3c 90 a0 c6 ba 5d a2 38 bb 55 fe 3d bc
       0.017781565 -0.0015154053 -0.0028172948 -0.011596282
0000c0 bd 05 fe 3a 6f 0d 42 bc e2 f1 e2 bb 91 ff e8 39
       0.0019380372 -0.011844023 -0.0069258073 0.000444409
0000d0 2f e7 fa 3c 16 95 af 3c bb 15 32 3b d6 0b cf bc
       0.030627815 0.021433394 0.0027173597 -0.025274199
0000e0 da 4f 56 bc 13 f1 b0 bc e5 e3 94 bd cb b9 08 bd
       -0.0130805615 -0.021599328 -0.0727003 -0.03338031
0000f0 45 2c 57 ba 36 8d d6 bc 24 26 a1 bc 46 a8 12 3c
       -0.0008208196 -0.026190381 -0.019671507 0.008951252
000100 b7 96 f5 3c 9d 06 1b 3c c0 b5 17 3c fa 2a 14 3d
       0.029979093 0.009462026 0.009259641 0.0361738
000110 21 3a 07 3d ed c6 ca 3c 19 ed 44 3d 71 56 49 3d
       0.03301442 0.024753058 0.048077676 0.049154703
000120 cf 0b c6 3b 0a 70 15 3c 93 7f 72 3a 8f 3c a7 3a
       0.006043888 0.0091209505 0.00092505774 0.0012759137
000130 5d 00 7e 3f 71 40 45 bb 16 84 87 bb 4e 77 76 3b
       0.99219304 -0.0030098225 -0.004135619 0.0037607732
000140 2b cf ce 3b
       0.0063113174

bias f4 [3]
000000 af 51 e8 3d 68 40 9d 3d 7d ab 81 3d
       0.11343705 0.076783 0.06331537

weight f4 [3, 3, 3, 3]
000000 7a 10 15 3c 3f 3a b9 3c be 5d aa 3b 85 9b de bc
       0.009098167 0.022610782 0.005199163 -0.027173767
000010 2e 65 74 3f 83 b9 fd bc d0 53 bd ba f4 f3 de 3b
       0.9546689 -0.030972248 -0.0014444534 0.006803984
000020 f7 7f 0e 3c 13 8d 18 3d 02 fe 64 3d d2 45 cd bb
       0.008697501 0.037243914 0.055906303 -0.0062644267
000030 f6 2b 3f 3c ca 33 e1 3c 60 c0 83 bb 7d 1a 04 3c
       0.011668196 0.027490515 -0.0040207356 0.008062956
000040 15 47 eb 3c 40 d3 f8 ba c2 8b 99 bc 91 d4 55 bc
       0.028720418 -0.0018983856 -0.0187434 -0.013051168
000050 39 a4 78 bb 92 ab 06 3d a2 69 37 3c fc c2 ac 3b
       -0.0037939681 0.032878466 0.011194618 0.0052722674
000060 58 22 1d 3c d2 7a 38 3b 49 38 7d bc dd 9c 4d bc
       0.009590708 0.0028149378 -0.015455314 -0.012549606
000070 89 91 2a bc df 55 39 bd 28 74 61 3c 70 91 83 ba
       -0.010410675 -0.04524791 0.013760604 -0.0010037851
000080 1e fc ec bc 5f 42 92 bc 25 39 9d bc 37 22 50 bd
       -0.028928813 -0.017853914 -0.019192288 -0.05081388
000090 dd 8a 8f 3b 8c 2a 02 3d 03 25 1c b9 c5 24 2c 3b
       0.0043805675 0.031778857 -0.00014891107 0.0026267034
0000a0 7a 2f 82 3f 21 2f 02 3d f3 55 c0 bc 43 52 5f 3c
       1.0170739 0.031783227 -0.023478484 0.013630453
0000b0 b6 a2 18 3c 63 98 19 bc 20 fd 27 bc 29 69 32 3a
       0.009316137 -0.009374711 -0.010253221 0.0006805831
0000c0 10 3d 8f bb db ba 94 bc 00 19 80 bb 63 c4 49 bc
       -0.004371293 -0.018155506 -0.00390923 -0.012314889
0000d0 77 89 b5 3c 88 35 ed 3c 1f 3c e9 3b 31 2d 6d bc
       0.022160275 0.02895619 0.0071177627 -0.0144761065
0000e0 64 3b 71 bb ea fb a0 3b 0e cb 2b bd a5 8f 91 bc
       -0.0036809081 0.004912843 -0.041941695 -0.01776869
0000f0 5c 47 4b bb 8f a2 f9 bc 25 8c 80 bd 2f 7b 81 bb
       -0.0031017875 -0.030473022 -0.062767304 -0.003951452
000100 d4 e4 6f 3c 8f 67 b5 bb ac 0c 4b 3b d2 c1 fb 3c
       0.014641959 -0.005536027 0.0030982895 0.03073207
000110 1a 1c d3 3c 96 94 f5 3c 61 f6 49 3d 0e 4f 0e 3d
       0.025770236 0.029978078 0.04930723 0.03474336
000120 4e ca 91 bb 94 da e8 ba d6 81 2f bc 36 09 86 3a
       -0.0044491654 -0.0017765337 -0.010712108 0.0010226134
000130 6a 45 7e 3f c3 6e f3 bb 66 c0 84 bc dd 6e b7 bb
       0.9932467 -0.0074289753 -0.016205024 -0.0055979327
000140 a3 53 a0 bb
       -0.004892783

bias f4 [3]
000000 53 78 78 3d 19 32 6e 3d ad c6 45 3d
       0.060661625 0.058153246 0.048285175

weight f4 [3, 3, 3, 3]
000000 93 24 bc 3b 54 c1 e8 3c db b4 08 3c 1a b1 05 bd
       0.0057416647 0.028412499 0.008343901 -0.0326396
000010 7c 72 75 3f 95 60 e8 bc 7e 6d c9 bb 2a f5 e0 3b
       0.95877814 -0.028366366 -0.0061470857 0.0068651633
000020 46 56 19 3c eb 96 f5 3c d5 fa 6e 3d 16 ae c4 bb
       0.009358948 0.02997919 0.05834468 -0.006002198
000030 24 98 1b 3c b7 04 0a 3d b0 cd 33 ba 18 4a 7c 3b
       0.009496722 0.033695903 -0.0006858958 0.0038496312
000040 31 b7 ee 3c ce c8 9f 3a a6 16 9c bc 97 55 9b bb
       0.029140087 0.0012190582 -0.019053768 -0.0047404277
000050 f1 e8 01 bc eb 57 09 3d 1c 7d 94 3c 98 eb ba 3b
       -0.007929073 0.03353111 0.018126063 0.0057043545
000060 e3 4e 19 3c e8 86 1a 3c 6a 74 31 bc b9 01 38 bc
       0.009357187 0.009431578 -0.010830978 -0.011230879
000070 25 21 a0 bb 6c 77 07 bd b8 62 97 3c 97 80 fa 3b
       -0.0048867636 -0.033072874 0.01847969 0.0076447236
000080 97 8e 61 bc 38 e0 71 bb b9 90 15 ba 24 d4 10 bd
       -0.013766906 -0.0036907326 -0.0005705464 -0.035358563
000090 e7 8e 87 3b df 34 de 3c 90 9b 82 b9 af 50 93 3b
       0.0041369083 0.02712482 -0.00024911435 0.004495702
0000a0 0a bc 81 3f 59 a2 d0 3c 14 59 dd bc a3 81 9b 3b
       1.013551 0.025468038 -0.027020015 0.0047456785
0000b0 57 39 c7 ba 50 dc b4 3c c7 05 5b 3c 02 a4 df 3c
       -0.0015199584 0.02207771 0.013368077 0.027299885
0000c0 95 20 82 3c d6 b1 12 bc bc 59 00 3c 6c 14 ad 39
       0.015884677 -0.008953532 0.007833894 0.00033012347
0000d0 56 97 b9 3c a6 e4 fa 3c fd 70 78 3c 9f 38 9f ba
       0.02265517 0.030626606 0.015163657 -0.0012147612
0000e0 42 08 a8 3b 58 91 51 3c 58 82 be bc ee 0b 5c bb
       0.0051279375 0.012791 -0.023255512 -0.0033576447
0000f0 7c 7e 9d 3b 65 08 52 bc 1f e3 44 bd cd 8c 4a 3b
       0.004806338 -0.012819384 -0.048068162 0.0030906678
000100 41 cd b9 3c 5a 9f c6 3b 7d 65 19 3c 6a bf 1b 3d
       0.02268088 0.0060614767 0.009362576 0.038024344
000110 1a e2 13 3d c3 15 13 3d f0 ff 6b 3d 70 a7 34 3d
       0.0361043 0.035909425 0.057617128 0.044104993
000120 75 9c 8a bb f3 d7 27 bb 94 e7 27 bc e3 58 01 3b
       -0.004230077 -0.0025610893 -0.010248084 0.0019736819
000130 1b 67 7e 3f 8b f7 bb bb 90 b1 5f bc c4 80 50 bb
       0.99376076 -0.0057362965 -0.013653174 -0.0031815032
000140 ca 03 f9 ba
       -0.0018998322

bias f4 [3]
000000 5a 9a 93 3d 51 8c 1a 3d a7 f3 56 3d
       0.072071746 0.037731472 0.05247846

weight f4 [3, 3, 3, 3]
000000 e0 55 eb 3a 18 8a f9 3c 6e a3 a9 3b 47 30 0e bd
       0.001795467 0.030461356 0.005176953 -0.03471401
000010 85 f4 76 3f 6f 6d d9 bc 8b fc 18 bc 06 21 13 3c
       0.9646686 -0.02654144 -0.009337555 0.008980041
000020 51 81 03 3c 87 a4 b9 3c 70 88 69 3d a2 3f 13 bc
       0.008026437 0.02266146 0.057014883 -0.008987339
000030 eb 8b 16 3c 88 6a 20 3d 1f 5f 5f 3a 3b db 49 3b
       0.0091886325 0.039164096 0.0008520949 0.0030800838
000040 6c a0 02 3d e6 f4 2b 3b 48 b6 52 bc 88 46 0d 3c
       0.03189127 0.00262385 -0.012860842 0.008622773
000050 33 69 3a bc 3c 28 00 3d be 8c bf 3c 05 35 6e 3b
       -0.0113776205 0.03128837 0.02338254 0.003634752
000060 12 fa 23 3c 26 c5 96 3c 0d c6 a2 bb 21 3f 21 bc
       0.010008352 0.018404555 -0.004967457 -0.009841711
000070 d7 d8 8c ba 2d 35 d2 bc 7c a0 98 3c e8 34 06 3c
       -0.0010745776 -0.025660122 0.018631212 0.008191325
000080 e4 0d ab bb aa 0d 11 bb 5c c5 da 3a 10 7b f2 bc
       -0.0052201618 -0.0022133389 0.0016690898 -0.029599696
000090 2f 94 11 3b f3 49 98 3c 64 2c c6 bb 3d 9f 49 3b
       0.0022213568 0.01858995 -0.0060477722 0.003076508
0000a0 58 ac 80 3f 07 e3 2b 3c 73 b4 00 bd 53 98 2d bc
       1.0052595 0.010491139 -0.03142209 -0.010595399
0000b0 2d 6e a7 bc 2c ec 10 3d ae 3e f9 3c 5a 77 04 3d
       -0.020438278 0.03538148 0.030425396 0.032340385
0000c0 90 55 c6 3c 09 35 1a bb e9 32 0a 3c b7 5e 8f bb
       0.024210721 -0.0023530147 0.0084349895 -0.0043753046
0000d0 a9 c7 df 3b 67 0a 38 3c 6e 87 b9 3c 74 06 48 3c
       0.0068292213 0.011232949 0.022647586 0.01220857
0000e0 c5 38 8d 3c ed f8 a2 3c b3 16 c0 bb 9b 7c 5b 3c
       0.017238984 0.019894088 -0.005862081 0.0133964075
0000f0 5f e1 42 3c 14 b6 53 3b 4b 21 f1 bc a0 84 4a 3c
       0.011894553 0.0032304572 -0.02943482 0.012360722
000100 56 e3 f8 3c 71 13 a1 3c 67 09 95 3c fd 3a 35 3d
       0.03038184 0.01966259 0.01819296 0.04424571
000110 05 c8 3d 3d 7c d4 2e 3d aa 45 82 3d c8 6a 5a 3d
       0.04633333 0.04268311 0.063609436 0.05332449
000120 47 71 90 bb 1b 3d 6d bb 48 e4 17 bc de c1 4c 3b
       -0.004408035 -0.0036199752 -0.009270735 0.0031243484
000130 11 97 7e 3f 87 1b 51 bb 70 b2 35 bc 73 fb bf ba
       0.9944926 -0.0031907277 -0.011089906 -0.0014647081
000140 95 11 bd 3a
       0.0014424796

bias f4 [3]
000000 da 9a 91 3d 83 51 08 3c 91 eb 6d 3d
       0.07109614 0.008320215 0.05808598
