data/perturbations/palace/2018-07-22 16:02:56.023002/pert_model.pt (torch_old, 19901 bytes, 20 tensors)

weight f4 [3, 3, 3, 3]
0	0x00000000	0.0
1	0x00000000	0.0
2	0x00000000	0.0
3	0x00000000	0.0
4	0x3f800000	1.0
5	0x00000000	0.0
6	0x00000000	0.0
7	0x00000000	0.0
8	0x00000000	0.0
9	0x00000000	0.0
10	0x00000000	0.0
11	0x00000000	0.0
12	0x00000000	0.0
13	0x00000000	0.0
14	0x00000000	0.0
15	0x00000000	0.0
16	0x00000000	0.0
17	0x00000000	0.0
18	0x00000000	0.0
19	0x00000000	0.0
20	0x00000000	0.0
21	0x00000000	0.0
22	0x00000000	0.0
23	0x00000000	0.0
24	0x00000000	0.0
25	0x00000000	0.0
26	0x00000000	0.0
27	0x00000000	0.0
28	0x00000000	0.0
29	0x00000000	0.0
30	0x00000000	0.0
31	0x00000000	0.0
32	0x00000000	0.0
33	0x00000000	0.0
34	0x00000000	0.0
35	0x00000000	0.0
36	0x00000000	0.0
37	0x00000000	0.0
38	0x00000000	0.0
39	0x00000000	0.0
40	0x3f800000	1.0
41	0x00000000	0.0
42	0x00000000	0.0
43	0x00000000	0.0
44	0x00000000	0.0
45	0x00000000	0.0
46	0x00000000	0.0
47	0x00000000	0.0
48	0x00000000	0.0
49	0x00000000	0.0
50	0x00000000	0.0
51	0x00000000	0.0
52	0x00000000	0.0
53	0x00000000	0.0
54	0x00000000	0.0
55	0x00000000	0.0
56	0x00000000	0.0
57	0x00000000	0.0
58	0x00000000	0.0
59	0x00000000	0.0
60	0x00000000	0.0
61	0x00000000	0.0
62	0x00000000	0.0
63	0x00000000	0.0
64	0x00000000	0.0
65	0x00000000	0.0
66	0x00000000	0.0
67	0x00000000	0.0
68	0x00000000	0.0
69	0x00000000	0.0
70	0x00000000	0.0
71	0x00000000	0.0
72	0x00000000	0.0
73	0x00000000	0.0
74	0x00000000	0.0
75	0x00000000	0.0
76	0x3f800000	1.0
77	0x00000000	0.0
78	0x00000000	0.0
79	0x00000000	0.0
80	0x00000000	0.0

bias f4 [3]
0	0x00000000	0.0
1	0x00000000	0.0
2	0x00000000	0.0

weight f4 [3, 3, 3, 3]
0	0xbcaac475	-0.020845631
1	0xbd3e7be4	-0.04650487
2	0xbc45c775	-0.01207148
3	0xbca2d630	-0.019877523
4	0x3f693aff	0.91105646
5	0xbd08d8b3	-0.033409785
6	0xbc81906e	-0.01581594
7	0xbd8b3f59	-0.06799192
8	0xbd35fc4d	-0.044430066
9	0x3c8a190e	0.01685765
10	0xbc94b8af	-0.01815447
11	0x3c8c4896	0.017124455
12	0x3cc4f6a7	0.024043394
13	0xbd44a663	-0.04801024
14	0xbca50746	-0.02014507
15	0x3d382571	0.044957582
16	0xbc0e5190	-0.008686438
17	0x3ccc3307	0.024926675
18	0xbbce097a	-0.006287751
19	0x3a77db25	0.00094549573
20	0x3d5b3677	0.05351874
21	0x3cfc3483	0.030786758
22	0xbce82de9	-0.028342204
23	0x3cf5be98	0.029998109
24	0x3cda0d78	0.02661775
25	0xbc3e2c19	-0.011607193
26	0x3d162d62	0.036664374
27	0xbd846d1f	-0.06466126
28	0x3c2fe8de	0.010736672
29	0xbcc4d5bc	-0.024027698
30	0xbd9d7a95	-0.07689396
31	0xbd0dcbaf	-0.034618076
32	0xbcf47a94	-0.029843606
33	0xbd8e414b	-0.069460474
34	0x3c83fcfb	0.016111841
35	0xbaff66d2	-0.0019485599
36	0xbc8c5f6a	-0.01713534
37	0x38a15168	7.692241e-05
38	0x3cdba1ea	0.026810605
39	0xbcf673b2	-0.030084465
40	0x3f750c75	0.9572213
41	0xbbb7e428	-0.005611915
42	0xbce7d2e9	-0.028298812
43	0xbcd6c64b	-0.0262176
44	0x3c525d41	0.012839616
45	0xbb57db07	-0.0032936947
46	0x3d1b6b8d	0.037944365
47	0x3be5a58a	0.007008259
48	0xbd2facd3	-0.042889427
49	0x3bf466c3	0.007458539
50	0xbc8075c3	-0.015681153
51	0xbd582c5e	-0.052776687
52	0xbc002cbd	-0.007823166
53	0xbcc5ce84	-0.024146326
54	0xbd313ea9	-0.043272648
55	0xbd829750	-0.06376517
56	0xbcdb7e7e	-0.026793715
57	0xbd9d9e01	-0.076961525
58	0xbde52ce6	-0.11190204
59	0xbd85a47c	-0.065255135
60	0xbd138df6	-0.036024056
61	0xbd54c545	-0.051945943
62	0xbd0b38f1	-0.03398985
63	0xbbe436dd	-0.006964548
64	0xbc7b535f	-0.015339701
65	0xbc19ee09	-0.009395131
66	0xbba71a65	-0.005099582
67	0xbc5fca88	-0.013659127
68	0xbb95ef86	-0.0045756726
69	0xba06037d	-0.0005112214
70	0xbc83aa60	-0.016072452
71	0xbb1866a2	-0.0023254533
72	0xbbb35494	-0.005472729
73	0xbbde856b	-0.006790807
74	0x3ba499d9	0.005023223
75	0xbc47632d	-0.012169641
76	0x3f7beb1b	0.9840562
77	0xbab1ce27	-0.0013565467
78	0xbb1c5b45	-0.0023858112
79	0xbbd85148	-0.0066014864
80	0x3c80a8dd	0.01570552

bias f4 [3]
0	0x3e619e47	0.22033034
1	0x3d07e0d1	0.033173386
2	0x3da2a89c	0.07942316

weight f4 [3, 3, 3, 3]
0	0xbcc0c291	-0.023530276
1	0xbd221b94	-0.03957708
2	0xbbf6c896	-0.007531236
3	0xbccc1cbc	-0.024916045
4	0x3f6b1fdc	0.9184549
5	0xbcf3e86f	-0.029773919
6	0xbcc603b4	-0.024171688
7	0xbd80e57a	-0.06293769
8	0xbd1a266a	-0.03763429
9	0x3c3b6681	0.011438013
10	0xbc96fe7b	-0.018431893
11	0x3d28fd5e	0.041257255
12	0x3cfd1c0c	0.030897163
13	0xbd20f02d	-0.03929155
14	0xba85ddca	-0.0010213193
15	0x3d0f37e7	0.034965422
16	0xbaaefb9a	-0.001335013
17	0x3d0d31d9	0.034471367
18	0xbccc7474	-0.024957873
19	0xbb90bf1a	-0.0044173123
20	0x3d3a99eb	0.045556944
21	0x3c9609bf	0.018315194
22	0xbc857b8f	-0.016294269
23	0x3d401f1c	0.04690467
24	0xbc6bc330	-0.014389798
25	0xbcf604ce	-0.030031588
26	0x3caa07b1	0.02075562
27	0xbd738820	-0.05945599
28	0x3c09efc1	0.008418978
29	0xbcdc889a	-0.026920605
30	0xbd8f55be	-0.06998776
31	0xbd0b5d68	-0.034024626
32	0xbd05049c	-0.0324751
33	0xbd897031	-0.06710852
34	0x3c9a56bf	0.018840192
35	0xbc43f8b6	-0.011961153
36	0x3ad36a22	0.0016129653
37	0x3c0988bf	0.008394419
38	0x3ced7f42	0.028991345
39	0xbc5e0528	-0.013551034
40	0x3f75d4ea	0.96028006
41	0xbc3f1afa	-0.011664147
42	0xb8c5e43c	-9.436204e-05
43	0xbc6aecf0	-0.014338717
44	0x3cbec361	0.023286523
45	0x3cd8a836	0.026447397
46	0x3d566c2d	0.05234926
47	0x3c257d02	0.010100605
48	0xbcb972f0	-0.022637814
49	0x3c9a5046	0.018837105
50	0xbc61dd1f	-0.0137856295
51	0xbcc34645	-0.023837218
52	0x3be97029	0.0071239662
53	0xbc8defae	-0.017326202
54	0xba4ed211	-0.00078895787
55	0xbcfd84ab	-0.03094705
56	0xbbc39447	-0.005968604
57	0xbd05ea2f	-0.032694038
58	0xbd97b555	-0.07407633
59	0xbd2217d4	-0.039573506
60	0xb9d57b65	-0.00040718462
61	0xbc950508	-0.018190876
62	0xbc256908	-0.010095842
63	0x3b8f4f41	0.0043734615
64	0xbc557346	-0.013027972
65	0xbb880fff	-0.0041522975
66	0x3ba069f3	0.0048954426
67	0xbc39877c	-0.011323806
68	0x3a2d275c	0.0006605291
69	0x3bf27638	0.0073993467
70	0xbc718563	-0.0147412745
71	0x3a09412b	0.0005235846
72	0x3adc9c3e	0.0016831232
73	0xbb2c34b3	-0.0026276528
74	0x3c1c3b55	0.00953563
75	0xbbaadd42	-0.0052143643
76	0x3f7cd721	0.9876576
77	0x3b4a8817	0.003090387
78	0x3b60ada9	0.0034283197
79	0xbb9f9362	-0.0048698643
80	0x3c8d1df3	0.017226195

bias f4 [3]
0	0x3ecedd03	0.40402994
1	0x3d8e3476	0.069436
2	0x3da44a9e	0.080220446

weight f4 [3, 3, 3, 3]
0	0xbc0f1189	-0.008732208
1	0xbc348dc3	-0.011020127
2	0x3c82ab7b	0.015950909
3	0xbbfc7ce2	-0.007705317
4	0x3f72db59	0.9486595
5	0x3ad978c6	0.001659178
6	0xbc7a9589	-0.015294441
7	0xbd16e841	-0.03684259
8	0xbc384729	-0.011247435
9	0x3b194118	0.0023384746
10	0xbb822f7c	-0.0039729457
11	0x3d98fbd2	0.07469906
12	0x3d12f052	0.03587372
13	0xbc27fa8b	-0.010252605
14	0x3cf32832	0.029682253
15	0x3cb134f1	0.02163169
16	0x3ce683e3	0.02813906
17	0x3d5663ed	0.05234139
18	0xbbf48217	-0.007461797
19	0x3b8a56fc	0.004221795
20	0x3d133203	0.035936367
21	0x3cb87750	0.02251783
22	0xbbc56893	-0.006024429
23	0x3d2170b0	0.039414108
24	0xbc6ba9d3	-0.014383751
25	0xbcadb668	-0.021205142
26	0x3c56e756	0.013116678
27	0xbd5d8931	-0.054085914
28	0x3c2077a7	0.009794152
29	0xbd08e91f	-0.033425447
30	0xbd6cdb4b	-0.05782632
31	0xbcaf3495	-0.021387378
32	0xbce136db	-0.027491977
33	0xbd7cff90	-0.06176716
34	0x3d154614	0.036443785
35	0xbbd87888	-0.0066061653
36	0x3cdc6176	0.026901942
37	0x3c327d82	0.010894181
38	0x3ca13265	0.01967735
39	0x3c1229e8	0.008921124
40	0x3f76e727	0.9644646
41	0xbcae18d3	-0.021252071
42	0x3cb8f04a	0.022575516
43	0xbc5478c0	-0.012968242
44	0x3c6e9e75	0.014564146
45	0x3d5c761f	0.053823587
46	0x3d882969	0.06648523
47	0x3c8a2f68	0.016868308
48	0xbb470946	-0.0030370518
49	0x3cfb0295	0.03064088
50	0xbbc89f81	-0.00612253
51	0x3a93ccd5	0.0011276255
52	0x3ccf63e4	0.025316186
53	0xbaa2098e	-0.0012362467
54	0x3d85e1d6	0.065372154
55	0x3caf6330	0.021409601
56	0x3ce5a8ea	0.028034646
57	0x3d28de66	0.04122772
58	0xbc34d26a	-0.011036495
59	0x3b9355f2	0.0044963295
60	0x3d64a22b	0.055818718
61	0x3d04f769	0.03246251
62	0x3cf6184c	0.030040883
63	0x3c125919	0.008932375
64	0xbc480efa	-0.012210602
65	0xb9d145a0	-0.0003991546
66	0x3bed2936	0.0072375787
67	0xbc2e62f0	-0.010643706
68	0x3bb710f8	0.0055867396
69	0x3c0a3f04	0.008437876
70	0xbc6a1601	-0.014287473
71	0x3b801e12	0.0039098347
72	0x3b7d8717	0.0038685256
73	0xba4e278e	-0.00078641705
74	0x3c3c17ee	0.011480315
75	0xbb660d12	-0.0035103005
76	0x3f7d33c3	0.9890711
77	0x3b9c80c2	0.0047760913
78	0x3bac4dbb	0.0052582896
79	0xbb35d455	-0.0027744968
80	0x3c9e238d	0.019304061

bias f4 [3]
0	0x3ef347ee	0.47515815
1	0x3db31a21	0.08745218
2	0x3d999fbe	0.075011715

weight f4 [3, 3, 3, 3]
0	0xbc3c9bd9	-0.011511766
1	0x3c542c61	0.012950034
2	0xbacfbe42	-0.0015849548
3	0xbc0a9058	-0.008457266
4	0x3f80180b	1.0007337
5	0x3bcb63c0	0.0062069595
6	0xbd084e90	-0.033278048
7	0xbb9c12de	-0.0047629913
8	0xbc3c1bbd	-0.011481223
9	0xbd262b2f	-0.040568527
10	0xbc5b5d02	-0.013388874
11	0xbd25cb8c	-0.04047732
12	0xbd1a8a69	-0.037729654
13	0x3c7bb6b7	0.015363387
14	0xbd048280	-0.032351017
15	0xbd3ef582	-0.046620853
16	0xba80914a	-0.0009808925
17	0xbce2f22e	-0.02770337
18	0x3caffeea	0.021483857
19	0x3c9cb477	0.019129021
20	0xbc2bb962	-0.01048121
21	0x3ae327c1	0.0017330573
22	0xbc001bb9	-0.00781911
23	0xbceacd9a	-0.028662492
24	0x3d3a19cf	0.04543477
25	0x3ca52a2c	0.02016171
26	0xbcf3912f	-0.029732315
27	0xbc2f6676	-0.010705581
28	0xbc1ca8d6	-0.009561738
29	0x3c9208e9	0.017826514
30	0x3d13ad7b	0.036054116
31	0x3bf638a6	0.0075140772
32	0x3d6dbfb4	0.05804415
33	0xbd10f19d	-0.03538667
34	0xbcacc741	-0.021091105
35	0xbc86a830	-0.01643762
36	0x3ca0522d	0.019570434
37	0xbcc675a1	-0.024226012
38	0xbce3def8	-0.02781628
39	0x3c6435a6	0.013928806
40	0x3f7962ae	0.974162
41	0xbc1536f0	-0.009107336
42	0xbcda1f2a	-0.026626188
43	0xbcf4c331	-0.02987823
44	0xbcb2ade6	-0.021811437
45	0x3bd5323a	0.0065062316
46	0x3b61d599	0.003445959
47	0xbcb37b26	-0.021909308
48	0xbc2a3475	-0.010388483
49	0x3d003ea8	0.031309754
50	0xbc88be20	-0.016692221
51	0xbca0cd2b	-0.019629082
52	0x3b6c0aad	0.0036017105
53	0xbcfc0e87	-0.030768646
54	0xbcd62852	-0.026142273
55	0xbcee9603	-0.029124266
56	0xbd826bc0	-0.06368208
57	0x3b0a8844	0.002113835
58	0xbad39cca	-0.0016144749
59	0xbc9394c5	-0.018015275
60	0xbcdd37ca	-0.027004141
61	0xbbbba7a7	-0.005726773
62	0xbd2b3b25	-0.04180445
63	0x39087fd7	0.00013017595
64	0xbb008a25	-0.001961359
65	0xbc006656	-0.007836899
66	0xbb1315c0	-0.0022443384
67	0xba858c2c	-0.0010188869
68	0x3a89faaf	0.001052698
69	0x3af7edef	0.0018915514
70	0xbb40c54f	-0.002941448
71	0xbc132b54	-0.008982498
72	0x3a6f002f	0.0009117154
73	0xba2786e8	-0.0006390647
74	0xbb113e35	-0.0022162322
75	0xbbf2ad4c	-0.0074059125
76	0x3f7dc60e	0.9913033
77	0xbb5b8974	-0.0033498676
78	0xbaf37d61	-0.0018576795
79	0xbb852ccd	-0.0040641786
80	0x3c105f84	0.008811835

bias f4 [3]
0	0x3dc5e94f	0.09663641
1	0x3c5bfd1d	0.013427046
2	0x3d12fc1d	0.035884965

weight f4 [3, 3, 3, 3]
0	0x3bd2aab2	0.00642904
1	0x3cb3958e	0.0219219
2	0xbbb0a05e	-0.005390211
3	0x3c067c77	0.008208386
4	0x3f8171c4	1.0112844
5	0x3bc5863e	0.006027966
6	0xbb8bb702	-0.0042637596
7	0x3c91daa3	0.01780445
8	0xbb1839d0	-0.0023227818
9	0xbcc771a3	-0.024346178
10	0x3b115d1d	0.0022180744
11	0xbd029780	-0.031882763
12	0xbcc2fc02	-0.023801807
13	0x3d0c42eb	0.034243505
14	0xbc916a0a	-0.017750759
15	0xbd3f1c2e	-0.046657734
16	0x3acdf3a8	0.0015712874
17	0xbcac14aa	-0.021005947
18	0x3c1361a9	0.008995452
19	0x3c3b6c8f	0.011439457
20	0xbcc977d2	-0.024593268
21	0xbbd80165	-0.006591963
22	0xbb19e92d	-0.002348493
23	0xbcbf04c3	-0.0233177
24	0x3ccbdcf9	0.024885641
25	0x3c96d262	0.018410865
26	0xbce2a007	-0.027664198
27	0x3b740004	0.0037231455
28	0xbc1923f0	-0.009346947
29	0x3c58a964	0.01322398
30	0x3d2759fc	0.0408573
31	0xba845579	-0.0010096274
32	0x3d3bdb53	0.04586346
33	0xbb71501c	-0.003682143
34	0xbc585df6	-0.013205996
35	0xbb97b1cc	-0.0046293493
36	0x3bfe46fd	0.0077599273
37	0xbcb7a9fb	-0.02241992
38	0xbcda62f1	-0.026658507
39	0x3b9896bd	0.0046566413
40	0x3f79f60d	0.9764107
41	0x3a6959c9	0.00089016237
42	0xbd048e3e	-0.032362215
43	0xbce3cfec	-0.027809106
44	0xba925cc6	-0.0011166565
45	0x3c0ef62b	0.008725683
46	0xbb748a9b	-0.003731406
47	0xbd4dc795	-0.050239164
48	0x3b954013	0.0045547574
49	0x3d373988	0.0447326
50	0xbcca15a0	-0.024668515
51	0x3c12958f	0.00894679
52	0x3ca537f2	0.020168278
53	0xbd2174f2	-0.03941817
54	0xbc50e05c	-0.012748804
55	0x3b3a58df	0.002843432
56	0xbca05c0e	-0.019575145
57	0x3c4fc5fa	0.012681479
58	0x3cb5de52	0.022200737
59	0x3c79cae9	0.015246131
60	0xbc7ccca2	-0.015429648
61	0x3c026809	0.007959374
62	0xbc5aa25c	-0.013344374
63	0x3a03a0b9	0.0005021203
64	0xba17415c	-0.0005769932
65	0xbbbc738f	-0.0057510803
66	0x3945f11a	0.00018877201
67	0x39ea5e9e	0.00044702453
68	0x3acf258c	0.0015804037
69	0x3b8f0314	0.0043643806
70	0xbaa1fbf7	-0.0012358417
71	0xbc0c0ac6	-0.00854749
72	0x3b2a00e1	0.0025940465
73	0x3a66a07d	0.00087977183
74	0x3ace1e3a	0.0015725561
75	0xbbd74918	-0.0065699928
76	0x3f7dcb7c	0.9913862
77	0xbb3fdf93	-0.0029277548
78	0xbb154884	-0.0022778818
79	0xbb8b44c5	-0.0042501413
80	0x3bebfaf6	0.0072015477

bias f4 [3]
0	0x3de854b6	0.11344282
1	0x3cf9a48b	0.030473968
2	0x3d13efab	0.036117237

weight f4 [3, 3, 3, 3]
0	0x3cbe0464	0.023195453
1	0x3cef7762	0.02923173
2	0xba1a17f5	-0.00058782037
3	0x3ca068e0	0.019581258
4	0x3f82162b	1.0163015
5	0x3c2a7584	0.0104039945
6	0x3ca02f6b	0.01955386
7	0x3d0b92a6	0.0340754
8	0x3c5487a4	0.012971792
9	0x3c8a9ac3	0.0169195
10	0x3cee4d1b	0.029089501
11	0xbc17d11c	-0.009266164
12	0x3b25dab5	0.0025307362
13	0x3d3dd890	0.04634911
14	0x3ae03375	0.0017105179
15	0xbcf1f633	-0.029536342
16	0x3ae1bb06	0.0017221875
17	0xbb300391	-0.0026857594
18	0xba356988	-0.00069203274
19	0x3b9fb2d8	0.0048736148
20	0xbd131429	-0.035907898
21	0xbc80bd29	-0.015715199
22	0x3b679237	0.0035334954
23	0xbcd1b3bc	-0.0255984
24	0x3bb78280	0.0056002736
25	0x3c39ae2e	0.011333032
26	0xbd1b838f	-0.03796726
27	0x3c3b55b6	0.011434009
28	0xbc1ff8a7	-0.009763873
29	0x3c10cbdd	0.008837667
30	0x3d2d61fb	0.04232977
31	0xbb79c20c	-0.0038110046
32	0x3d1fd202	0.03901864
33	0x3c8c072e	0.017093267
34	0xbb827562	-0.0039812783
35	0x3c447f41	0.01199323
36	0x3be056e9	0.006846298
37	0xbc8747ad	-0.01651367
38	0xbc8fb6b9	-0.017543184
39	0x3b90603a	0.0044060024
40	0x3f7ac553	0.9795734
41	0x3c8b5eeb	0.017013034
42	0xbcb15a25	-0.02164943
43	0xbcbab0ed	-0.022789443
44	0x3cb1de8d	0.021712566
45	0x3c70ab60	0.0146892965
46	0x3b857c48	0.0040736534
47	0xbd30d0c7	-0.043167856
48	0x3c74022e	0.014893098
49	0x3d749acc	0.05971794
50	0xbc6232e9	-0.013806083
51	0x3cc69604	0.024241455
52	0x3d0c89ad	0.034310985
53	0xbcfc7b31	-0.030820461
54	0x3ba9d42e	0.0051827645
55	0x3d04487a	0.03229568
56	0x3ca97f16	0.020690482
57	0x3ccf4387	0.025300754
58	0x3d301361	0.04298723
59	0x3d302246	0.043001436
60	0x3b16967e	0.0022977884
61	0x3cdf72d0	0.027276427
62	0x3c9dab2d	0.019246662
63	0xba5f107c	-0.0008509231
64	0x3a39385f	0.000706559
65	0xbba89c9b	-0.005145622
66	0x3a0336bd	0.000500541
67	0x3af63a80	0.0018785745
68	0x3ac571a1	0.0015063771
69	0x3b8d9c38	0.0043216012
70	0x3a2100c0	0.00061417744
71	0xbc08ba03	-0.00834513
72	0x3ad34ebe	0.001612149
73	0x395f25a3	0.00021280958
74	0x3a6ac715	0.0008956057
75	0xbbd56c28	-0.0065131374
76	0x3f7dbf3e	0.9911994
77	0xbb92a34e	-0.004475034
78	0xbb6ae04f	-0.0035839265
79	0xbb8d06fa	-0.00430381
80	0x3b9a33b3	0.00470587

bias f4 [3]
0	0x3db5a6ff	0.088697426
1	0x3d339868	0.043846518
2	0x3d12eff2	0.03587336

weight f4 [3, 3, 3, 3]
0	0x3cd76660	0.026293933
1	0x3cf64988	0.03006436
2	0xbaf64f09	-0.0018791865
3	0x3cbc1e0a	0.022963542
4	0x3f82941e	1.0201452
5	0x3c3f32f1	0.01166986
6	0x3d0ca500	0.034337044
7	0x3d4203f2	0.047367044
8	0x3ce99271	0.028512212
9	0x3d06db9e	0.032924287
10	0x3cd9c84a	0.026584763
11	0xbc4ebf4d	-0.012618852
12	0x3cc9e016	0.024642985
13	0x3d316db6	0.04331752
14	0x3b89916f	0.0041982452
15	0xbc52db2b	-0.0128696365
16	0xbb6da7e6	-0.0036263405
17	0x3c06a182	0.008217217
18	0x3b2ccad0	0.0026366003
19	0x3c1adb54	0.009451706
20	0xbcb2379a	-0.021755029
21	0xbc92673f	-0.017871497
22	0x3cf2b034	0.029625036
23	0xbc6868e4	-0.014185164
24	0xba911c0a	-0.0011070978
25	0x3ca0a415	0.01960949
26	0xbce3501a	-0.027748156
27	0x3c714cf8	0.014727823
28	0xbc0a336e	-0.008435113
29	0x3c12255a	0.008920038
30	0x3d1cfe17	0.038328256
31	0xbbf3a118	-0.0074349754
32	0x3cf2e1a6	0.029648613
33	0x3cb1065c	0.021609478
34	0xbbd6c49a	-0.0065541985
35	0x3c8e494a	0.017368931
36	0x3bfacf4c	0.0076541062
37	0xbc11f68e	-0.008908881
38	0x3cb8c0fc	0.02255296
39	0x3b8207ca	0.0039682137
40	0x3f7b7f8d	0.982415
41	0x3d2706e2	0.04077805
42	0xbbfbcadb	-0.0076840944
43	0xbc7be342	-0.015374007
44	0x3d4e834a	0.050418176
45	0xbc6e44ac	-0.01454274
46	0xbc630012	-0.013854997
47	0xbd1504bd	-0.036381472
48	0xbc9b6048	-0.018966809
49	0x3d044126	0.032288693
50	0xbd379a19	-0.044824693
51	0x3bc978f7	0.0061484533
52	0x3cc86e84	0.02446676
53	0xbd0d9618	-0.03456697
54	0xbc9bc700	-0.019015789
55	0x3baaa970	0.005208187
56	0xbd04d82f	-0.03243273
57	0x3c845e03	0.01615811
58	0x3d0c79c3	0.03429581
59	0x3c098ead	0.008395833
60	0xbb4dcf7a	-0.0031404183
61	0x3cafcd7e	0.021460291
62	0xbbf0655d	-0.007336302
63	0xbab96ce5	-0.0014146833
64	0x3b2e47e3	0.002659314
65	0xbc09c17f	-0.0084079495
66	0x3a7ce0ec	0.0009646553
67	0x3b9b94e0	0.004747972
68	0xbb37412d	-0.0027962432
69	0x3b52836e	0.0032121795
70	0x3b93136a	0.0044883983
71	0xbc3a4529	-0.011369028
72	0xba7fc0e7	-0.0009756223
73	0xb9b84c20	-0.00035151932
74	0xbb4e4626	-0.0031474917
75	0xbbf03309	-0.0073303026
76	0x3f7dcb58	0.991384
77	0xbc0fa37a	-0.008767003
78	0xbbae8e1e	-0.0053270003
79	0xbb728d49	-0.0037010482
80	0x39abf0c7	0.00032795055

bias f4 [3]
0	0x3d252261	0.04031599
1	0x3ce5e5aa	0.028063614
2	0x3d57d1b7	0.052690234

weight f4 [3, 3, 3, 3]
0	0x3cbabf59	0.02279632
1	0x3cc435cc	0.023951434
2	0xbba38f5b	-0.0049914545
3	0x3c8d06bd	0.017215127
4	0x3f81e78f	1.0148791
5	0x3c2e2954	0.010629971
6	0x3d22879c	0.03968011
7	0x3d47292c	0.04862325
8	0x3d1c6a47	0.03818729
9	0x3cb5b1a4	0.022179432
10	0x3c539bf5	0.012915601
11	0xbc830cce	-0.015997317
12	0x3b5ed6b1	0.0034002478
13	0x3c8441b0	0.016144603
14	0xbadf9aaa	-0.0017059643
15	0xbce946d8	-0.028476164
16	0xbc907ba3	-0.01763708
17	0x3ce0d60e	0.02744582
18	0xbc90846f	-0.017641274
19	0xbca7dd8a	-0.02049138
20	0xbd12b908	-0.03582099
21	0xbc99c377	-0.018769963
22	0x3d554d7f	0.05207586
23	0x3b6f7ec6	0.0036544069
24	0xbcdcb628	-0.026942328
25	0x3c3e3be0	0.011610955
26	0xbc1c3bbf	-0.009535729
27	0x3ce5af49	0.028037684
28	0xbad15a38	-0.0015972322
29	0x3c4392b9	0.011936837
30	0x3d4db37b	0.050219994
31	0xba2ad8b3	-0.0006517276
32	0x3cfb0d5f	0.030646024
33	0x3d387032	0.045028873
34	0x3be428b8	0.006962862
35	0x3d020623	0.031744134
36	0x3bb3d18f	0.005487628
37	0xbc1a1562	-0.009404512
38	0x3cd9bfe5	0.02658076
39	0x3b8252de	0.0039771637
40	0x3f7bbb0c	0.98332286
41	0x3d4df11d	0.05027877
42	0x3b4ff5e4	0.0031732256
43	0xbc1dd35a	-0.00963291
44	0x3d8ba2ab	0.06818136
45	0xbc9264cc	-0.01787033
46	0xbca1a9e9	-0.01973434
47	0xbd2d2258	-0.04226908
48	0xbc4c4f52	-0.012470083
49	0x3d11f77b	0.035636406
50	0xbd07371a	-0.033011533
51	0x3c7c3fc4	0.015396062
52	0x3cf014f5	0.029306868
53	0xbca00bbd	-0.019536847
54	0x3c3751c5	0.011188929
55	0x3d2dbfa1	0.04241908
56	0x3c95a742	0.018268231
57	0x3d0bac6a	0.034099974
58	0x3d62451f	0.0552417
59	0x3d0e137c	0.03468655
60	0x3c888989	0.016667144
61	0x3d3ca42f	0.046055015
62	0x3ccd6fb6	0.025077682
63	0xba02eb59	-0.0004994176
64	0x3bb44791	0.0055016954
65	0xbbb8f040	-0.0056438744
66	0x3b043de7	0.0020178498
67	0x3c06fb07	0.0082385605
68	0xbad8606d	-0.0016508229
69	0x3b6066d0	0.0034240969
70	0x3c12e7e1	0.008966417
71	0xbc3594c9	-0.011082836
72	0xbaf891d9	-0.0018964364
73	0xba7295ae	-0.00092538714
74	0xbb86c89a	-0.004113269
75	0xbbf68057	-0.0075226235
76	0x3f7dda7d	0.9916151
77	0xbc1b60ff	-0.009483575
78	0xbbd0e26e	-0.006374649
79	0xbb4e83cf	-0.003151167
80	0xbab52375	-0.0013819771

bias f4 [3]
0	0xbd93da7e	-0.072194085
1	0x3cb7adf7	0.02242182
2	0x3d54722d	0.0518667

weight f4 [3, 3, 3, 3]
0	0x3bc61d56	0.0060459776
1	0x3c21590d	0.0098478915
2	0xbc8501c6	-0.016236197
3	0x3ad3f11e	0.0016169881
4	0x3f809c34	1.004767
5	0x3bc31eaa	0.005954583
6	0x3ce459cf	0.027874855
7	0x3d216d71	0.039411012
8	0x3d1aca1d	0.037790406
9	0xbcc1520f	-0.023598699
10	0xbc6fc002	-0.014633181
11	0xbd574603	-0.052557003
12	0xbd5ca97d	-0.053872574
13	0xbcc3d13e	-0.023903485
14	0xbd420a24	-0.047372952
15	0xbd8278dd	-0.06370709
16	0xbd013c36	-0.031551562
17	0xbb93386b	-0.0044928095
18	0xbcc4f058	-0.024040386
19	0xbba036cd	-0.0048893453
20	0xbd171323	-0.036883485
21	0xbcc6bbfd	-0.024259562
22	0x3d205722	0.039145596
23	0xbc011d1d	-0.007880476
24	0xbd1909c9	-0.037362847
25	0x3cac9eeb	0.021071872
26	0xbb347982	-0.0027538245
27	0x3d4a91f0	0.049455583
28	0x3c8839db	0.01662915
29	0x3c934f4c	0.017982148
30	0x3d8e3304	0.06943324
31	0x3c674539	0.014115625
32	0x3d0ff7c8	0.035148412
33	0x3d916aa3	0.071004175
34	0x3cd4790b	0.025936624
35	0x3d4a71d0	0.049424946
36	0x3c03ba40	0.008040011
37	0xbb23731c	-0.0024940437
38	0x3cdf64de	0.027269777
39	0x39497b38	0.00019214756
40	0x3f7c0f72	0.9846107
41	0x3d3ec36f	0.0465731
42	0x3c845875	0.01615546
43	0x3b92bb87	0.0044779214
44	0x3da2181b	0.07914754
45	0xbc671c9b	-0.014105941
46	0xbc6090a7	-0.013706363
47	0xbd1025a4	-0.035192147
48	0xbb55f732	-0.003264856
49	0x3cfc2bd4	0.030782618
50	0xbc9553b2	-0.018228386
51	0x3d039784	0.03212692
52	0x3d297977	0.041375604
53	0x3bcda7ed	0.006276122
54	0x3cc4b7ad	0.024013365
55	0x3d769de1	0.06020916
56	0x3d2afb84	0.04174377
57	0x3d02eb2c	0.03196256
58	0x3d67b7ae	0.056571655
59	0x3d2494ca	0.04018096
60	0x3c7339d5	0.014845331
61	0x3d5397af	0.05165833
62	0x3d10b82b	0.035331886
63	0x3a16fd9b	0.0005759836
64	0x3c14f20e	0.009090913
65	0xbb1be4c0	-0.0023787469
66	0x3b16178b	0.0022902216
67	0x3c3cc28c	0.011520993
68	0xba2dc175	-0.00066282536
69	0x3a9877e5	0.0011632411
70	0x3c437697	0.0119301295
71	0xbc4540ea	-0.0120394025
72	0xbbac14a9	-0.0052514863
73	0xbaf53c60	-0.001871001
74	0xbbd247a2	-0.0064172307
75	0xbc20cdd6	-0.0098147
76	0x3f7dea07	0.9918522
77	0xbc3b92eb	-0.011448602
78	0xbc2dce59	-0.010608279
79	0xbb59891e	-0.00331933
80	0xbb815cbd	-0.003947823

bias f4 [3]
0	0xbe287903	-0.16452412
1	0xbd2b2020	-0.041778684
2	0x3d44f3fd	0.048084248
