data/perturbations/dog/to_polar_bear/2018-07-23 15:47:53.201220/pert_model.pt (torch_old, 19945 bytes, 20 tensors)

weight f4 [3, 3, 3, 3]
000000 00 00 00 00 00 00 00 00 00 00 00 00 00 00 00 00
       0.0 0.0 0.0 0.0
000010 00 00 80 3f 00 00 00 00 00 00 00 00 00 00 00 00
       1.0 0.0 0.0 0.0
000020 00 00 00 00 00 00 00 00 00 00 00 00 00 00 00 00
       0.0 0.0 0.0 0.0
000030 00 00 00 00 00 00 00 00 00 00 00 00 00 00 00 00
       0.0 0.0 0.0 0.0
000040 00 00 00 00 00 00 00 00 00 00 00 00 00 00 00 00
       0.0 0.0 0.0 0.0
000050 00 00 00 00 00 00 00 00 00 00 00 00 00 00 00 00
       0.0 0.0 0.0 0.0
000060 00 00 00 00 00 00 00 00 00 00 00 00 00 00 00 00
       0.0 0.0 0.0 0.0
000070 00 00 00 00 00 00 00 00 00 00 00 00 00 00 00 00
       0.0 0.0 0.0 0.0
000080 00 00 00 00 00 00 00 00 00 00 00 00 00 00 00 00
       0.0 0.0 0.0 0.0
000090 00 00 00 00 00 00 00 00 00 00 00 00 00 00 00 00
       0.0 0.0 0.0 0.0
0000a0 00 00 80 3f 00 00 00 00 00 00 00 00 00 00 00 00
       1.0 0.0 0.0 0.0
0000b0 00 00 00 00 00 00 00 00 00 00 00 00 00 00 00 00
       0.0 0.0 0.0 0.0
0000c0 00 00 00 00 00 00 00 00 00 00 00 00 00 00 00 00
       0.0 0.0 0.0 0.0
0000d0 00 00 00 00 00 00 00 00 00 00 00 00 00 00 00 00
       0.0 0.0 0.0 0.0
0000e0 00 00 00 00 00 00 00 00 00 00 00 00 00 00 00 00
       0.0 0.0 0.0 0.0
0000f0 00 00 00 00 00 00 00 00 00 00 00 00 00 00 00 00
       0.0 0.0 0.0 0.0
000100 00 00 00 00 00 00 00 00 00 00 00 00 00 00 00 00
       0.0 0.0 0.0 0.0
000110 00 00 00 00 00 00 00 00 00 00 00 00 00 00 00 00
       0.0 0.0 0.0 0.0
000120 00 00 00 00 00 00 00 00 00 00 00 00 00 00 00 00
       0.0 0.0 0.0 0.0
000130 00 00 80 3f 00 00 00 00 00 00 00 00 00 00 00 00
       1.0 0.0 0.0 0.0
000140 00 00 00 00
       0.0

bias f4 [3]
000000 00 00 00 00 00 00 00 00 00 00 00 00
       0.0 0.0 0.0

weight f4 [3, 3, 3, 3]
000000 4d 32 e2 bc 0b 00 7d bd 1e c9 5a bd 6d 55 60 bd
       -0.027611876 -0.06176762 -0.053414457 -0.05476897
000010 f7 75 6c 3f 38 6d e7 bc 0f 11 02 bd 43 9e 4b bd
       0.923675 -0.028250322 -0.03175455 -0.049711477
000020 0d cc d7 bc 30 ac 87 bc 01 b6 44 bd de 6e 84 bd
       -0.026342416 -0.016561598 -0.048025135 -0.06466459
000030 f5 e3 c7 bb 71 28 15 bd a7 21 8c bc 6a b3 89 bc
       -0.0061001726 -0.03641552 -0.01710589 -0.016809184
000040 62 fc e3 bc 2c 6e 82 bc 1b 2b c9 bc 5e 33 3b bd
       -0.027830306 -0.015921675 -0.024556687 -0.045703284
000050 e7 f0 7c bd 83 71 b6 bb 67 e9 94 bc 43 62 6b bc
       -0.06175318 -0.005567731 -0.018177701 -0.014366689
000060 08 41 bf bc 3e 05 d1 bc f3 d4 b6 bc 68 28 00 bd
       -0.023346439 -0.025515195 -0.022318339 -0.031288534
000070 05 6a a1 bc 44 21 99 bc a7 9e 0b 3c a2 45 17 bd
       -0.019703874 -0.01869262 0.008521712 -0.03693164
000080 42 a1 71 bc b1 2e ea 3a c5 45 c5 bc ec 41 19 bc
       -0.0147479195 0.0017866698 -0.02408112 -0.009354096
000090 a2 65 a6 bc be 3e e7 bc 1b 7e de bc 77 7e 2e 3d
       -0.020312134 -0.02822816 -0.027159741 0.042601075
0000a0 17 3f 78 3f ce ea 96 bb 1c 03 81 3c 68 0c 93 bc
       0.9697127 -0.0046056276 0.015748553 -0.017950252
0000b0 9b 3a b2 bb 43 db 96 bd ba 3a 89 bd d0 0c 92 bd
       -0.005439115 -0.073660396 -0.06700654 -0.0713135
0000c0 77 89 09 bc f2 1e 31 bd 9e b6 04 bd d5 b7 d2 bc
       -0.008394591 -0.043242402 -0.03240072 -0.025722424
0000d0 5b 6f 2a bd 4f 40 f3 bc b7 a2 e3 3c 25 61 77 3c
       -0.041610103 -0.02969375 0.02778755 0.015098845
0000e0 41 ae f7 3c 0b 42 e4 3b 0e 1e ab bc 38 59 b6 3c
       0.030234458 0.0069658807 -0.020888355 0.02225934
0000f0 1b 4e 3b 3c 8c 7e 13 3c 78 53 a3 3c ec 31 97 3b
       0.011432196 0.009002339 0.019937262 0.0046141054
000100 73 75 49 bb ad 10 22 3c ba e3 17 bc 08 13 59 bd
       -0.0030740171 0.009891671 -0.009270603 -0.052996665
000110 7c ce eb 3b 21 3b 96 bc 7d f6 b4 bc 52 fb c2 bc
       0.0071962457 -0.018338742 -0.022090191 -0.02380148
000120 c9 a0 e5 bc c3 ea 22 bd c6 3b 0c bd ea 6f 04 bd
       -0.02803077 -0.039774667 -0.034236692 -0.032333292
000130 95 3f 6b 3f 92 cf bc bc c9 32 2c bd 2a 13 3a bd
       0.91893893 -0.023048196 -0.04204062 -0.045428433
000140 55 31 28 bd
       -0.04106267

bias f4 [3]
000000 a7 3a 06 3e d9 9b d7 3d 25 2f 69 3e
       0.13108312 0.105277725 0.2277189

weight f4 [3, 3, 3, 3]
000000 7d 47 b7 bc c3 41 47 bd 65 87 ef bc 0e 1a 1e bd
       -0.022372955 -0.0486467 -0.029239366 -0.038599066
000010 74 bf 71 3f 59 b1 0e bc ad 24 98 bc 46 0d fd bc
       0.9443276 -0.008709275 -0.018572176 -0.030890118
000020 b3 06 61 bc c4 81 a1 3c 44 26 cf bc 27 ca 2e bd
       -0.013734507 0.019715197 -0.025286801 -0.042673256
000030 ef 9f ae 3c 25 5d 7e bc f7 2f ad 3b 14 a2 f2 3b
       0.021316497 -0.015525137 0.005285259 0.007404575
000040 44 3b 94 bb 2d be 5b 3b e7 ac 2f b9 35 43 a3 bc
       -0.0045236666 0.0033530102 -0.00016753712 -0.019929508
000050 27 59 18 bd 1a 7d 80 3c 5e 3f 8e 3b 44 c7 1a 3c
       -0.037194397 0.015684653 0.00434105 0.009446923
000060 34 20 f1 bb 2f 5d cc bb 58 25 12 bb fa 89 f0 3a
       -0.0073585752 -0.0062366943 -0.002230009 0.0018351667
000070 fa 71 b6 bb 62 eb 0b 3b d8 9f 91 3c 72 0d 01 bd
       -0.0055677863 0.0021350016 0.017776415 -0.031506963
000080 c5 81 03 bc 46 fa 56 bc e0 7a 21 bd f0 be 45 bc
       -0.008026545 -0.013121193 -0.039423823 -0.012069449
000090 e9 7c dc 3c 47 92 2b 3b 50 e0 e3 3b 9d 79 8a 3d
       0.02691503 0.0026179717 0.0069542304 0.06761477
0000a0 c3 40 7b 3f 52 de 1b 3c d9 5c 98 3c 43 45 a6 bc
       0.98145694 0.0095134545 0.01859896 -0.020296698
0000b0 8f e5 2a 3b de 89 51 bd 2c aa 34 bd 44 41 57 bd
       0.002607677 -0.05115687 -0.0441076 -0.052552477
0000c0 04 da b5 ba f4 36 eb bc 8a d0 7c bc 75 2b 9c bc
       -0.0013874178 -0.028712727 -0.015430579 -0.01906369
0000d0 ed a2 de bc 8e 4d 2e bc b6 5f b4 3c 80 48 46 3c
       -0.027177298 -0.010638608 0.022018295 0.012102246
0000e0 35 a7 a0 3c 53 25 99 ba fa bc d4 bc f0 75 2a 3c
       0.01961098 -0.0011684097 -0.025969017 0.010404095
0000f0 6e 03 2d 3b 2a 8f c1 3b 39 11 2d 3c 03 d6 bc 3c
       0.002639975 0.005906959 0.010563188 0.023051267
000100 e5 46 7c 3c 78 93 94 3c a6 59 b3 3b 14 93 3b bd
       0.015397762 0.018136725 0.0054733334 -0.04579456
000110 34 b5 18 3c 63 95 d3 bb a7 1c f8 bb a1 ea ab bc
       0.009320546 -0.0064570173 -0.007571775 -0.020985903
000120 15 15 d1 bc 1e 2e f3 bc d4 1b fe bc c4 06 ca bc
       -0.025522748 -0.029685076 -0.031019129 -0.02466143
000130 0f 30 6e 3f 7c a8 2f bc 24 9a 00 bd 23 b0 f3 bc
       0.9304208 -0.010721322 -0.031397 -0.029747074
000140 29 85 d7 bc
       -0.026308613

bias f4 [3]
000000 66 51 29 3e 50 da 03 3e b2 84 82 3e
       0.16534957 0.12876248 0.25491863

weight f4 [3, 3, 3, 3]
000000 65 72 0f bc 0f c7 03 bd fe 40 1f bc 51 48 94 bc
       -0.008755301 -0.03217226 -0.009720085 -0.01810089
000010 2a 31 77 3f 89 c5 00 3c 69 07 fa 3a ba bd 45 bc
       0.96559393 0.007859596 0.0019075695 -0.01206916
000020 31 a0 4c bb 04 31 83 3d 8d ef 0a 3c 9d 8c 78 bc
       -0.0031223411 0.06405833 0.008479965 -0.015170244
000030 d0 ab 52 3d 30 f4 e7 3b e9 c3 d1 3c 90 ba 09 3d
       0.051433384 0.00707867 0.025606113 0.033625185
000040 5d a5 b9 3c 88 23 d3 3c 5f dc cb 3c 26 c6 02 3c
       0.02266186 0.025773779 0.024885355 0.007981813
000050 0d 9e 11 bc d6 d3 1e 3d 75 a8 eb 3c e4 3d 0e 3d
       -0.00888778 0.03877624 0.02876685 0.034726992
000060 33 d9 68 3c c8 47 8a 3c c4 b1 ad 3c 23 c7 85 bc
       0.014211941 0.016879931 0.02120293 -0.016330307
000070 a0 f9 bb bc 20 19 8f bc d0 22 07 3c 1d 9d e7 bc
       -0.022946179 -0.017468035 0.008248046 -0.02827316
000080 4d 67 85 bc 7a 88 31 bd 0b 60 58 bd 2e 96 c6 bc
       -0.01628461 -0.043343045 -0.05282597 -0.024241533
000090 82 32 37 3d 5e 60 38 3c 65 b7 63 3c fa b6 8c 3d
       0.044725902 0.0112534445 0.013898705 0.068708375
0000a0 74 7f 7c 3f e8 be 1f 3c 21 48 1e 3c 89 2b aa bc
       0.9863198 0.009750105 0.009660752 -0.020772712
0000b0 07 b5 d7 3b 5d e2 e7 bc a4 c6 84 bc 63 13 d6 bc
       0.0065828594 -0.02830618 -0.016208 -0.026132291
0000c0 46 b5 c3 3a 19 4d 49 bc 3e bc a1 3a ee 2b 2f bc
       0.0014931343 -0.012286448 0.0012339426 -0.010691626
0000d0 bf 3f b1 bb d4 2f 32 3c 00 51 8e 3c cb 7c 32 3c
       -0.0054092105 0.010875661 0.017372608 0.010894011
0000e0 bf 7a 3e 3c de 39 be bb bc cd e5 bc bf b8 38 3b
       0.011625945 -0.005805238 -0.028052203 0.002818629
0000f0 32 9b 2b b9 87 33 0e 3c dd 36 25 3c 67 cd 45 3d
       -0.00016365646 0.008679277 0.010083881 0.04829159
000100 9a 70 40 3d 5a 43 19 3d 3c 65 cd 3c f6 c7 04 bd
       0.046982385 0.037417747 0.025072686 -0.03241726
000110 c2 27 6c 3c 45 d4 d2 3b 74 10 36 3c f3 20 36 bc
       0.014413776 0.006433996 0.011112321 -0.011116254
000120 0c f9 53 bc f9 00 fd bb 6d 5a 68 bc 43 ba 9a bb
       -0.012937795 -0.007721063 -0.014181715 -0.004721911
000130 44 00 75 3f d6 dd 36 3c e1 b4 14 bc d6 46 2d bb
       0.9570353 0.011161288 -0.009076328 -0.0026439927
000140 36 5b be ba
       -0.0014523033

bias f4 [3]
000000 55 27 53 3e e0 87 07 3e 9f ce 81 3e
       0.20620473 0.13235426 0.25352952

weight f4 [3, 3, 3, 3]
000000 2b a4 8b 3b 9a d5 30 3c 4a 0b c1 3c db d4 ad 3b
       0.0042615137 0.010793114 0.023564953 0.0053049154
000010 9c 51 7f 3f d4 c3 99 3c 9e fd 0d 3d 2d 5b 2b 3d
       0.997339 0.018770136 0.034665696 0.041835
000020 1e 98 b3 bb b1 92 c0 bc f3 9c 8d bc d7 bb 9f bc
       -0.0054807803 -0.023507448 -0.017286753 -0.019498749
000030 80 ac 95 3c 38 13 8a 3c 4d d0 d0 3c 57 69 d3 bb
       0.018270731 0.016854867 0.02548995 -0.0064517665
000040 dd e0 99 3c c2 51 1a bc a8 87 30 3c 6a 6d 9d 3c
       0.018783981 -0.009418907 0.0107745305 0.019217212
000050 8c 11 2a bc db f3 c6 3b c6 fd dc 3b e7 69 86 3c
       -0.01038016 0.0060715503 0.0067441193 0.01640792
000060 75 10 6d bc 74 6a ab 3b e0 a1 2e 3a 15 20 c3 bc
       -0.014469256 0.005231196 0.00066616945 -0.023819009
000070 28 7a 69 3a 5e b0 0d 3c 5d d6 92 bc 48 59 5e 3a
       0.00089064473 0.008648006 -0.017924482 0.0008481932
000080 b5 bb 3a 3a 7d 27 2c bb 1e db 0e 3d d8 dc 2d bd
       0.00071233074 -0.0026268654 0.034876935 -0.04244694
000090 70 96 2c bb 61 75 40 bc 81 01 7a 3b 1e 10 e4 3c
       -0.0026334785 -0.011746735 0.003814787 0.027839717
0000a0 aa 67 7e 3f 18 7f a3 3c 32 cf b4 bc e9 44 8a bc
       0.9937693 0.019958064 -0.022071455 -0.016878562
0000b0 9f 78 58 bd 73 14 1b 3c b9 11 c5 3c 39 e9 4b 3b
       -0.05284941 0.009465325 0.024056302 0.0031114353
0000c0 8c d8 d0 3a de 5f 10 bb f6 be 71 3c d2 fc 07 3c
       0.0015933677 -0.0022029798 0.014755001 0.008300023
0000d0 52 f1 47 3c ab 54 2e ba ca 5d 24 3c 55 fb 36 3c
       0.012203531 -0.000665019 0.010032127 0.011168321
0000e0 88 2f e6 3b c3 db 87 3b d7 76 dd bb a4 15 d4 bb
       0.007024709 0.0041460707 -0.0067585516 -0.0064723063
0000f0 f2 a2 cf 3b cb d5 69 3c a9 cb cd 3b 4c 63 66 3c
       0.0063365633 0.014272164 0.0062803817 0.01406176
000100 bb b0 ed 3b db 6e ed 3b 26 dc 34 3c 5f 0b b1 bc
       0.007253734 0.007245881 0.011038816 -0.021611867
000110 0d 1e 94 bc 84 92 fe bc 7f 3b 04 bd 09 ef 73 bd
       -0.018080736 -0.031075723 -0.032283302 -0.059554134
000120 92 a6 10 bc e2 fa 1a 3c 72 7d cd 3b 33 6e aa 3b
       -0.008828776 0.009459229 0.0062710578 0.005201125
000130 11 10 7d 3f 22 0a c9 3c 0d d3 d6 3b 8a 71 18 3c
       0.9885264 0.024540965 0.006555921 0.009304414
000140 ab a6 a8 3b
       0.0051468215

bias f4 [3]
000000 3d bd 83 bc cc f6 82 3d f4 20 4e 3d
       -0.016081447 0.06394729 0.050324395

weight f4 [3, 3, 3, 3]
000000 9d 9d 57 3b 8a 7f d1 3b 95 c0 be 3c a9 98 a4 3b
       0.0032900341 0.0063933777 0.02328519 0.0050230813
000010 76 63 7f 3f 4b 13 a8 3c aa 79 ff 3c 7f b6 0f 3d
       0.9976114 0.020517012 0.031185944 0.03508615
000020 05 97 07 bc b3 60 d0 bc 6d 2b 87 bc cf 6a bf bc
       -0.008275752 -0.025436735 -0.0165002 -0.02336636
000030 6f f5 67 3c c7 7c 72 3c e8 25 bc 3c 87 78 43 bc
       0.014157637 0.014800257 0.022967294 -0.011930591
000040 ad fe 52 3c 9b 95 ce bb c7 8d 82 3c 48 74 e3 3c
       0.012878102 -0.0063044555 0.015936745 0.027765408
000050 ef 4f e3 ba 89 57 0a 3c d2 28 45 3c f3 49 ac 3c
       -0.0017342548 0.008443722 0.012033658 0.021031355
000060 77 c5 57 bc 88 1f e9 3b 26 65 9d 3b 3f 78 58 bc
       -0.013169638 0.0071143545 0.0048033176 -0.013212263
000070 3b 48 9e 3b 9c 9a 8e 3c 64 d5 46 bc b9 44 b4 3b
       0.004830388 0.017407708 -0.012135837 0.0055013564
000080 b2 99 18 3c 4a b2 83 bb 93 9f 1c 3d 14 fe 06 bd
       0.009313988 -0.0040190564 0.03823812 -0.03295715
000090 f8 9b d5 bb d2 be 19 bc b6 4b 1e bb 6d c3 ad 3c
       -0.006518837 -0.009383874 -0.0024154014 0.02121135
0000a0 78 19 7e 3f 65 30 7f 3c fd 44 e2 bc e6 6d 79 bc
       0.9925761 0.015575503 -0.027620787 -0.015223956
0000b0 b6 94 23 bd e1 ba 42 3c de b9 fa 3c 41 e8 19 3c
       -0.039936744 0.011885376 0.030606207 0.009393753
0000c0 31 d7 a5 3b 46 bc 8f 3b f3 40 a1 3c 6b 86 38 3c
       0.005061053 0.0043864576 0.01968429 0.0112625165
0000d0 18 51 78 3c c2 77 cd 3b 2e 72 e7 3a b1 6c dd 3a
       0.015156053 0.0062703798 0.001765793 0.0016893354
0000e0 05 1c 80 bb 69 86 4e 3a f8 d6 09 bc 76 c4 59 bc
       -0.00390959 0.0007878305 -0.008413069 -0.013291469
0000f0 ce 8e a6 ba cd b0 37 3c b9 fe 7b ba 14 04 bf 3b
       -0.0012707354 0.011211586 -0.0009612847 0.0058293436
000100 16 31 9a 3b d0 cb 51 bb 92 5f 60 3c 7f c8 29 bc
       0.0047055585 -0.003201235 0.013694661 -0.010362743
000110 3b 72 30 bc f5 74 c6 bc 13 91 a2 bc 9d 86 31 bd
       -0.010769422 -0.024225691 -0.019844567 -0.043341268
000120 ab 24 dc bb 7a 38 38 3c 86 f0 fd 3b d5 4e 02 3c
       -0.0067182384 0.011243934 0.00774962 0.007953365
000130 71 34 7e 3f a9 ad c0 3c 34 6f 52 3c f0 be 71 3c
       0.9929877 0.023520308 0.012843896 0.014754996
000140 68 27 21 3c
       0.009836055

bias f4 [3]
000000 61 53 66 bc b2 cd 88 3d f3 3d 90 3d
       -0.014057965 0.06679858 0.07043066

weight f4 [3, 3, 3, 3]
000000 27 1b 26 3b ea ac 6c 3b 24 75 ca 3c dd f2 a4 3b
       0.0025345774 0.0036113807 0.02471406 0.0050338344
000010 cc 71 7f 3f b8 ac bc 3c 19 14 e3 3c 1c d3 f1 3c
       0.99783015 0.023031577 0.027719544 0.02951961
000020 07 0a 06 bc 4e da ad bc bc 95 39 bc 9e 9a a4 bc
       -0.008181102 -0.02122226 -0.011327203 -0.020093258
000030 a9 e6 63 3c 48 e4 80 3c c2 fb c7 3c f9 39 60 bc
       0.013909974 0.015733853 0.02441204 -0.013685697
000040 0a e1 29 3c 23 5d 17 bb 88 73 9a 3c e1 c3 0b 3d
       0.010368595 -0.0023096285 0.018853918 0.03412235
000050 33 bf a7 3b 7c a7 2d 3c e1 21 89 3c 93 d1 ca 3c
       0.0051192283 0.010599013 0.016739788 0.024758136
000060 58 0f 51 bc 04 8a 04 3c 40 75 f3 3b c5 a5 3e bc
       -0.012760006 0.008089546 0.007429749 -0.011636202
000070 d4 35 a3 3b 99 5a a5 3c 72 a7 02 bc 25 87 28 3c
       0.004980782 0.020184802 -0.007974492 0.010286127
000080 5f 7a 87 3c 3e 17 d0 bb cc b2 19 3d d4 6f d2 bc
       0.016537843 -0.006350427 0.03752403 -0.02568809
000090 86 5b 44 bc 37 00 04 bc d9 b3 f7 bb 28 ad 85 3c
       -0.0119847115 -0.008056692 -0.0075592813 0.016317919
0000a0 47 53 7e 3f 88 eb 60 3c ab 8a e2 bc 0b 9e 3d bc
       0.9934582 0.01372803 -0.027654013 -0.011573325
0000b0 df 22 e1 bc da e8 52 3c 60 0f 0e 3d 80 9c 57 3c
       -0.027482448 0.012872899 0.03468263 0.013159871
0000c0 76 c2 25 3c 81 21 3b 3c cc 40 bd 3c 5b 6e 63 3c
       0.010117164 0.011421562 0.023102187 0.013881291
0000d0 44 81 97 3c 38 9b 41 3c 58 0a f4 bb 1e ee 03 bc
       0.018494256 0.011816792 -0.007447522 -0.008052377
0000e0 68 1f 66 bc 45 68 74 ba 31 85 06 bc 69 34 93 bc
       -0.014045574 -0.00093233987 -0.008210466 -0.017969327
0000f0 7b 8f fc bb 2b 17 07 3c c9 ec f9 bb 86 8e 51 3b
       -0.007707534 0.00824527 -0.007627104 0.003197582
000100 e6 c7 eb 3b 79 a5 92 bb 11 9b 95 3c b9 70 ff 39
       0.0071954606 -0.0044752923 0.018262418 0.00048721375
000110 42 e6 c9 ba 56 ca 5b bc 33 65 c6 bb ed 4d d6 bc
       -0.0015403705 -0.01341494 -0.0060545444 -0.026160205
000120 3f 89 8d bb c5 1c 50 3c 42 c4 0d 3c 42 95 21 3c
       -0.0043193395 0.012702172 0.008652749 0.009862246
000130 a0 fb 7e 3f 42 67 ab 3c ec 95 8d 3c f8 68 94 3c
       0.996027 0.02092326 0.017283402 0.01811646
000140 00 f1 3f 3c
       0.011715174

bias f4 [3]
000000 c4 4e 4c bc 54 44 8e 3d 2b 44 ba 3d
       -0.012469951 0.06946626 0.09095033

weight f4 [3, 3, 3, 3]
000000 25 63 88 bc 05 19 c5 3a 93 58 e2 3c e9 ee b0 3b
       -0.016648838 0.0015037364 0.027630126 0.005399574
000010 ae 6d 7f 3f 25 9b d1 3c de b4 d0 3c 87 ed cd 3c
       0.9977673 0.025586674 0.02547687 0.025137676
000020 6a cf d1 bb 7f e1 10 bd 4f 6a 2e bc 4e f5 6f bc
       -0.0064028995 -0.0353713 -0.010645463 -0.014645888
000030 07 69 54 3c 71 a7 87 3c 25 0e d3 3c 9d 0a 78 bc
       0.012964494 0.016559334 0.02576358 -0.015139249
000040 3f 35 ff 3b 96 1b 9e b8 ba 8e a8 3b 04 e6 13 3d
       0.00778833 -7.5391654e-05 0.0051439675 0.036108032
000050 bc ee 17 3c 6b f5 f9 3b 8e b3 95 3c 2c a7 d5 3c
       0.009273227 0.007628133 0.018274095 0.02608069
000060 66 75 6b bc 09 52 de 3b d1 04 bc 3b 0a 4b 2c bc
       -0.014371252 0.0067846817 0.005737879 -0.010515938
000070 b1 7b f5 3b 26 87 bd 3c 59 30 12 bb 69 cd 81 3c
       0.007491552 0.023135733 -0.002230665 0.015845018
000080 fa dc bf 3c 80 e7 96 bb 87 65 0f 3d 72 59 a5 bc
       0.0234208 -0.0046052337 0.035008933 -0.020184252
000090 9a 74 80 bc 21 c1 d3 bb de 28 29 bc ce 1c 5e 3c
       -0.0156806 -0.0064622317 -0.010324685 0.013556672
0000a0 1a c5 7e 3f d4 04 56 3c d6 28 c5 bc 3d 18 e7 bb
       0.99519503 0.013062675 -0.024067324 -0.00705245
0000b0 06 81 90 bc c8 3d 62 3c 2f 8b 1a 3d 38 ba 81 3c
       -0.017639648 0.013808675 0.037730392 0.015835866
0000c0 fb f5 82 3c f6 6f 93 3c 55 3a d0 3c 0c e0 89 3c
       0.015986433 0.017997723 0.02541844 0.016830467
0000d0 de 05 b3 3c d2 b9 7f 3c e9 e8 67 bc e0 78 72 bc
       0.021853384 0.015608268 -0.014154651 -0.014799327
0000e0 01 1a 9c bc 44 0f 3c 39 43 41 e1 bb a1 61 a5 bc
       -0.019055368 0.00017934764 -0.006874235 -0.020188155
0000f0 98 c5 2f bc bc 7f 8f 3b 98 ef 69 bc 77 6b 9b 3b
       -0.010728262 0.004379241 -0.014278315 0.0047430354
000100 8d be 44 3c eb 18 c6 b9 e1 02 c6 3c 93 96 26 3c
       0.0120083215 -0.00037784068 0.024171295 0.010167736
000110 a3 73 df 3b 6a 4a 3f bb 6b 9c 96 3b 4f 72 5d bc
       0.006819205 -0.0029188641 0.004596283 -0.013516023
000120 08 a0 bf ba e9 a8 6d 3c a9 6f 24 3c 4e d2 45 3c
       -0.0014619837 0.014505603 0.0100363875 0.012074066
000130 d0 b5 7f 3f 00 3f 95 3c 94 49 aa 3c 8b 0a a1 3c
       0.998868 0.018218517 0.020787038 0.019658348
000140 50 70 38 3c
       0.011257246

bias f4 [3]
000000 8a c2 38 bc 92 71 8f 3d 9e ce de 3d
       -0.0112768505 0.07004084 0.10879253

weight f4 [3, 3, 3, 3]
000000 e7 6a 7f bc 7f 84 89 3a 74 f2 ff 3c b1 bb 90 3b
       -0.015589452 0.0010491757 0.03124354 0.004416906
000010 cf 4c 7f 3f a1 fc eb 3c 77 ff b9 3c 39 78 b5 3c
       0.99726576 0.028806986 0.022704823 0.022152053
000020 80 22 80 bb 66 63 cb bc cf f6 ea ba 8e be 97 bb
       -0.0039103627 -0.02482767 -0.0017926338 -0.00463087
000030 38 ee 86 3c dc b5 a5 3c e7 46 fd 3c f4 a1 45 bc
       0.016471013 0.020228319 0.030917598 -0.012062538
000040 41 eb 1a 3c 62 d9 c5 3b 6a 79 d1 3b d1 ca 1b 3d
       0.009455503 0.006037877 0.0063926475 0.038035218
000050 49 9c 5f 3c fb c9 24 3c d6 a2 b2 3c 6f b0 e8 3c
       0.013648101 0.0100579215 0.021806162 0.028404443
000060 22 c1 64 bc 7b 92 e3 3b de f8 ca 3b 5a d8 1f bc
       -0.013962062 0.006944952 0.006194218 -0.009756172
000070 47 de 07 3c 62 3a ac 3c 52 ff 22 3b b4 04 ae 3c
       0.008292741 0.021023933 0.002487142 0.021242477
000080 d0 81 e5 3c d6 bb 02 bc 4d 71 07 3d fb 81 8f bc
       0.028016001 -0.007979354 0.033067036 -0.017518034
000090 83 91 94 bc 61 07 b9 bb 9f df 42 bc 1a 53 48 3c
       -0.018135792 -0.0056466316 -0.011894136 0.012226844
0000a0 4d 61 7f 3f b0 90 58 3c 3a 4e 9f bc 9a 65 23 bb
       0.99757844 0.01321809 -0.019446481 -0.0024932385
0000b0 3c 98 18 bc 54 25 6e 3c 3b 33 1f 3d bb c1 8e 3c
       -0.009313639 0.014535267 0.038867217 0.017426362
0000c0 22 9c b0 3c 53 6c c0 3c c1 ea de 3c b0 85 a5 3c
       0.021558825 0.023489153 0.027211549 0.020205349
0000d0 5c e5 d3 3c 0a 88 a3 3c 81 cf a7 bc 31 ba a3 bc
       0.025866203 0.01996233 -0.020484688 -0.019986244
0000e0 a5 c0 bf bc 37 44 d8 b9 d6 a6 81 bb bd 17 a8 bc
       -0.02340729 -0.00041249554 -0.003956656 -0.020519132
0000f0 db c7 80 bc a4 1a 42 3b 9f 0e 96 bc 44 8e 1b 3c
       -0.015720299 0.002961793 -0.018317519 0.009494368
000100 8c b1 95 3c 91 ec cc 3b f1 fa f6 3c e3 ed 94 3c
       0.018273138 0.006253787 0.030148955 0.01817984
000110 26 8f 69 3c 83 09 e3 3b 47 7b 6f 3c 20 21 da ba
       0.014255321 0.006928624 0.014616794 -0.0016641952
000120 fa f7 49 3b ff 2d 8d 3c 87 0c 41 3c 4f 3d 70 3c
       0.0030817972 0.017233847 0.011782772 0.014663055
000130 a2 32 80 3f 58 47 83 3c ca dd c5 3c 23 dd b1 3c
       1.0015452 0.01602523 0.024153609 0.021711892
000140 56 47 37 3c
       0.011186441

bias f4 [3]
000000 be ac 1d bc 74 95 8f 3d 22 9f fe 3d
       -0.0096237045 0.07010928 0.12432696

weight f4 [3, 3, 3, 3]
000000 7e 5a 66 bc d1 2c ee 3a 14 0d 14 3d 2f f1 5a 3b
       -0.014059661 0.0018171315 0.036145285 0.0033407917
000010 26 22 7f 3f e8 0a 05 3d c9 e3 a7 3c de 2b a3 3c
       0.9966148 0.032481104 0.020494359 0.019918378
000020 ae 11 81 3a 39 ae 3b bc c4 5c 23 3c 15 03 16 3c
       0.0009847188 -0.011455112 0.0099708475 0.009156008
000030 1b 70 b8 3c a9 44 d4 3c 9d 07 1d 3d c3 c0 ba bb
       0.022514394 0.025911646 0.03833734 -0.0056992485
000040 29 8c 68 3c 09 7e 70 3c e8 66 14 3c e0 ed 22 3d
       0.014193573 0.014678487 0.009057738 0.039777637
000050 ba ff 96 3c be 4d 6e 3c 4c 9c d5 3c ce 6a ff 3c
       0.018432487 0.014544902 0.026075505 0.031178858
000060 74 92 38 bc 10 84 0f 3c 42 67 fb 3b dd f3 4d bc
       -0.011265386 0.0087595135 0.0076722214 -0.012570349
000070 15 1e d1 3b 76 e9 88 3c 91 90 eb 3b 0f 7f ce 3c
       0.00638176 0.016712885 0.0071888645 0.02520707
000080 69 3d f4 3c a1 5b 0f bc fe 60 f6 3c 5b fe 82 bc
       0.029814439 -0.008749873 0.030075546 -0.015990427
000090 54 5e a7 bc 4d a0 cd bb 1a 47 58 bc ed 09 35 3c
       -0.020430721 -0.006275213 -0.013200546 0.01104973
0000a0 4f d3 7f 3f ff bf 51 3c 0e 7b 7d bc 49 02 0c 3a
       0.99931806 0.012802123 -0.015471233 0.00053409167
0000b0 1e 0d 8b bb de 3e 6a 3c e6 f7 1b 3d ae eb 94 3c
       -0.004243507 0.014297215 0.03807821 0.018178787
0000c0 e1 04 d7 3c 21 f4 e3 3c 5b 2c ed 3c de 9d c2 3c
       0.026247444 0.02782637 0.028951814 0.023756918
0000d0 ad ca f5 3c 5d ad c7 3c 63 19 c6 bc d6 47 b9 bc
       0.03000387 0.024374658 -0.024182027 -0.022617262
0000e0 ce 44 c2 bc 87 88 f8 39 13 24 73 ba 11 fd 97 bc
       -0.02371445 0.00047403967 -0.000927509 -0.018553289
0000f0 ec 33 8d bc 28 8f 2b 3b 87 50 a1 bc a8 6d 75 3c
       -0.017236672 0.0026177857 -0.019691719 0.014979757
000100 c7 1d c5 3c 78 fb 58 3c 7c 46 11 3d e7 a5 c9 3c
       0.02406205 0.013243549 0.03546761 0.024615241
000110 10 99 a5 3c 1d 85 75 3c 45 17 b6 3c 3c 68 f0 3b
       0.020214587 0.01498535 0.022227893 0.0073366445
000120 46 1b 0c 3c 31 d4 a6 3c 34 b5 63 3c a8 17 91 3c
       0.008551424 0.020364853 0.013898183 0.017711475
000130 1e 90 80 3f cf e1 70 3c fb 84 df 3c ea 61 c0 3c
       1.0043981 0.014702274 0.02728509 0.023484189
000140 cc e5 36 3c
       0.011163186

bias f4 [3]
000000 d7 48 f4 bb 93 ff 8c 3d b4 18 07 3e
       -0.0074549722 0.068846844 0.13193017
