data/video_perturbations/javelin_throw/2018-07-23 00:12:48.856662/pert_model.pt (torch_old, 37597 bytes, 54 tensors)

weight f4 [3, 3, 3, 3, 3]
000000 68 b9 75 3d ce d7 75 3d 84 d1 75 3d 23 ba 75 3d
       0.05999127 0.06002026 0.060014263 0.059991967
000010 36 d3 75 3d 1d c4 75 3d f1 9d 75 3d a5 af 75 3d
       0.06001588 0.06000148 0.059965078 0.05998196
000020 d3 9d 75 3d 51 a8 75 3d 9e 86 76 3d c6 2e 76 3d
       0.059964966 0.059974972 0.060186975 0.0601032
000030 de c0 76 3d b9 41 c9 3f b7 a1 76 3d a3 75 75 3d
       0.060242526 1.5723182 0.060212817 0.05992664
000040 34 fe 75 3d 9e b5 74 3d 78 e2 75 3d ef 01 76 3d
       0.06005688 0.059743516 0.06003043 0.060060438
000050 dd 07 76 3d b6 e2 75 3d 90 fb 75 3d 67 fd 75 3d
       0.060066093 0.06003066 0.06005436 0.060056116
000060 17 d2 75 3d 7a dd 75 3d 0f e0 75 3d 8d d3 75 3d
       0.06001481 0.06002567 0.060028132 0.060016204
000070 16 ed 75 3d b4 e8 75 3d 88 f0 75 3d 17 08 76 3d
       0.060040556 0.060036376 0.06004384 0.06006631
000080 f1 fe 75 3d 75 e6 75 3d bf fb 75 3d 7c f5 75 3d
       0.060057584 0.060034234 0.060054537 0.060048565
000090 e7 48 77 3d 3f c7 7d 3d ad d4 77 3d 1d 90 7a 3d
       0.06037226 0.061957594 0.060505558 0.061172593
0000a0 22 6b 6a bd 07 62 7c 3d 5c c7 77 3d 67 00 82 3d
       -0.057231076 0.061616924 0.06049286 0.06347733
0000b0 59 fd 78 3d 18 ca 75 3d 14 ef 75 3d 31 fd 75 3d
       0.060788486 0.060007185 0.060042456 0.060055915
0000c0 57 db 75 3d a6 fa 75 3d 5a 06 76 3d fd da 75 3d
       0.060023632 0.06005349 0.06006465 0.060023297
0000d0 f3 ed 75 3d ea fc 75 3d ec ef 77 3d 31 52 79 3d
       0.06004138 0.06005565 0.06053154 0.0608694
0000e0 06 9c 7c 3d 0c a1 78 3d d3 ed 79 3d 34 e4 7c 3d
       0.061672233 0.06070046 0.061017822 0.06174107
0000f0 ab c3 78 3d 88 3a 7a 3d 5f 99 7e 3d b6 7a 75 bd
       0.06073348 0.061090976 0.062157985 -0.05993148
000100 f0 75 75 bd e4 5a 75 bd 60 81 75 bd 75 77 75 bd
       -0.059926927 -0.059901133 -0.059937835 -0.059928376
000110 c9 6d 75 bd 98 b1 75 bd 0e 96 75 bd 90 94 75 bd
       -0.059919152 -0.05998382 -0.059957556 -0.059956133
000120 ad ec 75 3d fb d1 75 3d f9 34 75 3d 22 00 76 3d
       0.060040165 0.060014706 0.05986497 0.06005872
000130 5e 9c 75 3d 74 d0 74 3d 41 95 75 3d e6 bf 74 3d
       0.059963576 0.05976911 0.059956793 0.05975332
000140 5d de 73 3d 39 91 d0 3d 89 db 1f 3e 82 29 f9 3d
       0.059538234 0.10183949 0.1561109 0.1216612
000150 ae 61 c1 bb 36 a5 af 3c 6f aa fd bc ff a1 9c bd
       -0.005901537 0.021441083 -0.030965058 -0.07648086
000160 aa db 4e bd 4b f7 90 bd 43 a6 86 be 4e 4f cd bd
       -0.050502457 -0.070784174 -0.26298723 -0.10024892
000170 47 8f 2d be 06 e3 ef 3d 51 ab 91 3e eb ac ab bc
       -0.16949187 0.11713223 0.28451017 -0.020956477
000180 d0 87 09 be 77 6d a2 3c 65 a2 a1 be 61 21 62 bd
       -0.13430715 0.019827588 -0.3156921 -0.055207614
000190 01 ff 52 3c 1a b4 47 bd 82 e1 36 bd 8f ef 4e 3d
       0.0128781805 -0.048755743 -0.044648655 0.05052143
0001a0 ba c5 93 bc 52 20 34 be 4f 69 a9 bd cb ac a7 bd
       -0.01803862 -0.17590454 -0.08272039 -0.081872545
0001b0 9a 26 a3 bd a2 9e b1 bc d1 ed 93 bd 1d 0b 86 bd
       -0.07966347 -0.021682087 -0.07223094 -0.065450884
0001c0 2b 09 01 bd 50 f7 b0 bd ff 84 6f bd 68 cc 50 bc
       -0.031502884 -0.08640921 -0.058476444 -0.012744047
0001d0 e6 6b 9c bc 18 0d 87 bd 80 1c 4d 3e 80 cd 44 3c
       -0.019094419 -0.06594294 0.20030403 0.012011886
0001e0 e2 e4 5c 3f 0e 71 09 40 a8 9a 0d 3f ec 67 d0 3e
       0.8628675 2.1475253 0.5531411 0.40704286
0001f0 dd 76 55 3f f1 47 6f 3e 6a 93 72 bd f2 1d 04 3d
       0.83384496 0.23367287 -0.059222616 0.03225512
000200 90 3d b4 3c 80 e3 b2 3c ea b3 0f 3e 03 75 27 3e
       0.022002012 0.021836996 0.14033476 0.1635323
000210 1c df 49 bd d0 1d bc 3d 1d b8 50 3e 94 04 af bd
       -0.04928504 0.09185374 0.20382734 -0.08545795
000220 c4 a5 11 bd 99 70 54 bb a3 29 a2 bd 4c 2c 91 bd
       -0.035558477 -0.0032415746 -0.07918098 -0.07088527
000230 ee 57 95 bd e8 32 46 bd 84 e8 0f bd 21 2f f6 3b
       -0.07292162 -0.04838839 -0.035133854 0.0075129424
000240 9d f9 5c be 87 2d a8 3d f5 56 0e 3e 2e 9b ee 3d
       -0.21579595 0.08211809 0.13900359 0.11650692
000250 f2 c1 bb 3e 18 9a 97 3e 5f 76 14 be ef 05 2e 3e
       0.36671406 0.29609752 -0.1449828 0.16994451
000260 57 83 0c 3e 82 b7 2a 3e 2e 5e 87 3d 30 8a be bd
       0.13721977 0.16671565 0.0660976 -0.09303701
000270 07 37 15 3e 04 43 44 3d 5a 82 e7 bd 58 3f 82 3c
       0.14571773 0.047915474 -0.113041595 0.015899345
000280 1a 22 9a bd 3a 72 35 be d3 c3 24 3e fb c3 75 3e
       -0.075260356 -0.17719355 0.16090326 0.24000542
000290 c6 1a 3b 3e 22 b7 f1 bc cc b7 f3 3c e0 ba 25 bd
       0.18271932 -0.02950627 0.029750727 -0.04046142
0002a0 de 2a 25 be 7d 23 e1 bd ea 56 c7 bd 52 e3 13 bf
       -0.16129634 -0.10993097 -0.097333744 -0.5776874
0002b0 21 4f 55 be 46 08 19 bf 59 f0 de 3e 4e 05 80 3f
       -0.20830967 -0.5977825 0.43542746 1.0001619
0002c0 b0 22 4f 3e 61 92 82 be 37 28 4c 3e 42 93 02 bf
       0.20228076 -0.25502303 0.19937216 -0.5100595
0002d0 32 d2 77 3e 02 1d 69 3e c2 98 8e 3d 9d 7c 2c bc
       0.24201277 0.22764972 0.0696273 -0.010527757
0002e0 b2 9a 76 bc 71 69 db bd f3 15 d7 3c 46 15 78 bd
       -0.015051531 -0.10713471 0.026255583 -0.060567163
0002f0 72 34 45 bd a0 4d a3 3c 0a 50 04 3d 73 fb df bb
       -0.04814572 0.019934475 0.032302894 -0.006835395
000300 0e 96 35 bd b4 fa 19 bd 91 b5 97 bd 93 30 0a be
       -0.044332556 -0.037592605 -0.07407678 -0.13495092
000310 d5 85 da bd 0a 27 1b bd bc 6e 32 be 20 29 e6 3d
       -0.10670058 -0.037879027 -0.17425054 0.11238313
000320 2b 53 d3 be 27 5d 83 3f 5e 1c d4 3f 94 9f 38 3f
       -0.4127439 1.0262803 1.6571157 0.72118497
000330 2c a3 cf 3d 6e df 3d 3f 14 1a dd 3d 3c 05 c6 3d
       0.101385444 0.7416905 0.1079599 0.09668967
000340 86 9e a3 3d 4b 38 82 3c 4d 1b c2 bd 1a 4a 99 bd
       0.0798922 0.015895983 -0.094778635 -0.07484837
000350 32 6f 4d bd de ab 8e bc 80 49 58 bd 99 98 b6 3d
       -0.050154872 -0.017415937 -0.05280447 0.089158244
000360 7c b8 a6 39 95 e8 e2 bb a6 e2 27 bd 87 5a 8a bd
       0.0003179944 -0.0069246986 -0.040987633 -0.06755548
000370 4c 3d de bd 0d 6e 23 be 0f 4d 05 be bf 4a 1e be
       -0.10851535 -0.1595995 -0.13017677 -0.15458201
000380 f7 68 af bd c6 3e 31 bf ce e8 ef bd f4 f6 27 be
       -0.08564942 -0.6923641 -0.11714326 -0.16402799
000390 16 87 cc 3c 22 90 ea 3f 00 c5 1f 3f 87 df 45 bf
       0.024966758 1.8325236 0.62409973 -0.772942
0003a0 07 12 33 3e 2e ad fa 3d 6d ae c1 3e e0 10 ec 3d
       0.17487346 0.12240063 0.3782839 0.11526656
0003b0 34 5f 4b be 97 ba 0a 3e 03 aa 1b be 56 49 db be
       -0.19860536 0.13547741 -0.15201573 -0.42829388
0003c0 94 8a e8 3d d8 93 86 be 54 5e dc be
       0.11354557 -0.2628467 -0.43040717

bias f4 [3]
000000 be fa 75 3d 28 e4 f3 3c bb b7 73 bd
       0.06005358 0.02977188 -0.05950139

weight f4 [3]
000000 1a 5b 1f 3f a0 c9 25 3f f8 61 f5 3e
       0.62248385 0.6476078 0.47926307

bias f4 [3]
000000 02 60 ac 3d 57 bd f1 3e e8 8e 8b 3f
       0.084167495 0.47214767 1.0902987

running_mean f4 [3]
000000 b5 c6 24 bf ab a1 c9 be 78 44 92 be
       -0.643657 -0.39381155 -0.28567863

running_var f4 [3]
000000 2d 23 d5 40 ce f1 16 41 5e 26 a7 40
       6.660544 9.434034 5.2234335

weight f4 [3, 3, 3, 3, 3]
000000 58 e4 75 3d c6 f6 75 3d ef f0 75 3d db e9 75 3d
       0.06003222 0.060049795 0.060044225 0.060037475
000010 5b f6 75 3d 9d e3 75 3d 72 d5 75 3d 4a dd 75 3d
       0.060049396 0.060031522 0.06001801 0.06002549
000020 dd c3 75 3d fc 00 76 3d 43 86 77 3d 62 d0 76 3d
       0.060001243 0.060059533 0.060430776 0.060257323
000030 bc 9d 76 3d cb f0 e5 3f 0f 05 77 3d 26 b3 75 3d
       0.06020902 1.7964109 0.06030756 0.059985302
000040 01 e2 75 3d 78 25 75 3d a9 e6 75 3d eb fe 75 3d
       0.060029987 0.059850186 0.060034428 0.06005756
000050 6a 03 76 3d dc eb 75 3d e4 f9 75 3d 5f f1 75 3d
       0.06006185 0.060039386 0.060052767 0.060044643
000060 ea db 75 3d b4 dc 75 3d 71 cc 75 3d 5f f7 75 3d
       0.06002418 0.060024932 0.060009424 0.060050365
000070 c7 1b 76 3d 13 00 76 3d 73 26 76 3d ff 49 76 3d
       0.060085084 0.060058665 0.06009526 0.060129162
000080 91 1e 76 3d e1 07 76 3d 1c 2a 76 3d 3f 04 76 3d
       0.060087744 0.060066108 0.060098752 0.060062643
000090 59 26 77 3d a0 73 80 3d 60 9a 78 3d 8d 5a 7a 3d
       0.060339306 0.06272054 0.0606941 0.061121512
0000a0 46 d2 66 bd df e7 7e 3d 03 04 77 3d 8a 98 81 3d
       -0.056352876 0.06223285 0.06030656 0.06327923
0000b0 07 d4 78 3d 79 66 75 3d 13 96 75 3d 17 9e 75 3d
       0.06074908 0.05991218 0.059957575 0.05996522
0000c0 a6 79 75 3d a6 99 75 3d b1 9f 75 3d 99 8d 75 3d
       0.059930466 0.059960984 0.059966747 0.05994949
0000d0 58 8a 75 3d d1 91 75 3d 41 c5 74 3d 0a 1d 78 3d
       0.059946388 0.059953514 0.05975843 0.06057457
0000e0 7a d3 70 3d 4d cb 78 3d 1a 98 7c 3d 7a 0e 73 3d
       0.05879543 0.060740758 0.061668493 0.059339978
0000f0 46 09 79 3d ff 45 7d 3d fb 22 74 3d 73 63 75 bd
       0.06079986 0.06183433 0.059603672 -0.059909295
000100 65 d5 74 bd 9a d7 74 bd 3b 18 75 bd cb 97 74 bd
       -0.05977382 -0.059775926 -0.05983756 -0.059715074
000110 13 1c 75 bd 2f 58 75 bd e9 f8 74 bd 7e b7 75 bd
       -0.059841227 -0.05989855 -0.05980769 -0.059989445
000120 1b 44 6e 3d 56 13 71 3d 68 56 73 3d 65 b6 6c 3d
       0.05817042 0.05885633 0.059408575 0.057791132
000130 b4 4f 6e 3d 3b 8f 70 3d 5a 94 6e 3d 07 fb 6c 3d
       0.05818148 0.058730345 0.058246948 0.057856586
000140 5b 35 70 3d b5 e6 0e 3d 08 f9 09 3d 80 b3 05 3c
       0.058644634 0.034887988 0.03368476 0.008160472
000150 1d ad fc 3c 84 f9 b9 3c 7e 09 ec bc 18 d5 a9 3c
       0.030844266 0.022701986 -0.02881312 0.020731494
000160 85 c4 30 3c 96 84 4f bd de 32 25 3d 7d 72 94 3d
       0.010789041 -0.050663553 0.040331714 0.072483994
000170 ec 16 a2 3d 8a 09 85 3d 6c 46 78 3d ce 8b c8 3c
       0.07914528 0.0649596 0.060614035 0.024480727
000180 5b 4d 87 3d 3d 33 16 3d 01 c4 b5 bc 0f db cc 3c
       0.06606551 0.03666996 -0.022188189 0.025006799
000190 30 d0 aa 3d 36 31 c5 3d c8 f9 17 3d 75 ba 94 3d
       0.0834049 0.09628527 0.037103444 0.07262126
0001a0 22 26 40 3d 1a e6 39 3c 78 9d d8 3c e7 94 14 bc
       0.046911366 0.011346364 0.026442274 -0.009068704
0001b0 98 96 61 3d f8 19 f9 3c 86 48 bd bc a1 19 05 3e
       0.055075258 0.03040789 -0.023105871 0.12998058
0001c0 34 24 b2 3d 24 db d3 3b 44 ad 25 3e 7e 97 19 3e
       0.086983114 0.0064653326 0.16179377 0.14999196
0001d0 98 6b 01 3e a6 24 73 3d ef 75 ce 3d 1c 7c 84 3d
       0.126387 0.059361123 0.10081088 0.064689845
0001e0 84 36 8d 3e 95 dc a8 3f 1c 29 3a 3e d4 08 3f 3e
       0.27580655 1.3192316 0.18179744 0.18655711
0001f0 2b 5a 95 3e 41 43 24 3e 55 18 a1 bc e2 36 48 3d
       0.29170355 0.1604128 -0.019664923 0.048880465
000200 a4 57 2c 3d 23 6c b1 3c 30 bb b7 3d be f7 c4 3d
       0.042075768 0.021658009 0.0897125 0.096175656
000210 00 cc d5 b9 3c 0b 81 3d 80 cd cd 3d b8 5d a4 3e
       -0.00040778518 0.06300971 0.10048962 0.32102752
000220 99 72 61 3e d7 9f 2f 3e 7c 2e 9c 3e af 4e 20 3e
       0.22016372 0.17150818 0.30504215 0.15655015
000230 0a 52 6f 3d e0 c7 c8 3e b8 62 94 3e f9 70 8a 3e
       0.058427848 0.39214993 0.28981566 0.27039316
000240 79 fe 8a 3e 85 19 41 3e 44 f0 dc 3d fa 5b d4 3e
       0.27147272 0.18857391 0.107880145 0.41476423
000250 89 51 bb 3e 78 3b 0a 3e 94 7d 85 3e 39 40 a3 3e
       0.36585644 0.13499248 0.2607237 0.31884935
000260 e8 73 02 3e 4a 0d c0 3d 8e af dd 3d 57 c3 98 3d
       0.12739527 0.09377535 0.108245 0.07459133
000270 1e a0 7a 3d 34 4e 9e 3d 3c 0b 0a 3d d9 eb 40 bd
       0.061187856 0.0772976 0.03370212 -0.04709992
000280 40 55 f1 bc 4b 58 f7 bc 3a 6b f6 bd 31 9d 20 3d
       -0.029459596 -0.030193469 -0.120321706 0.03921241
000290 16 6f 4f 3d a9 87 f3 bd 73 40 b6 3c 89 b1 39 bd
       0.05064305 -0.118911095 0.022247529 -0.045335326
0002a0 08 50 42 be c3 77 46 bd 3e 35 de bd cb 0e b2 bc
       -0.18975842 -0.048454057 -0.10849999 -0.02173557
0002b0 95 05 d8 3d c3 a9 36 3d 47 b0 32 3e 0b 0e 99 3e
       0.1054794 0.04459549 0.17450057 0.29893526
0002c0 af 0b e8 3d cb 8a d2 3d 65 59 29 3e 53 84 ac 3c
       0.113303535 0.10280379 0.16538008 0.02105919
0002d0 2f cd 78 bd 4a 99 8c 3d c3 2c 9b bb 97 d8 a0 bd
       -0.060742553 0.06865175 -0.0047355606 -0.07853811
0002e0 62 70 16 3d db 8b a1 bd e6 a5 04 be bf ec 4c bd
       0.03672827 -0.078880034 -0.1295391 -0.050030466
0002f0 cf b9 de bd 08 99 3e bc ac 0b e4 3a 38 ad 85 bd
       -0.10875284 -0.011633165 0.0017398498 -0.065271795
000300 91 d3 19 3d b9 68 0f 3d ca 7b 18 bd ce 92 37 bd
       0.03755528 0.03501198 -0.03722743 -0.04481774
000310 1b 2e d3 bc c4 79 48 3b c6 f3 36 38 93 a9 cc 3e
       -0.02577882 0.0030590156 4.3619213e-05 0.39973125
000320 92 94 0b be 24 8f 2e 3f c8 df c1 3f b5 43 07 3f
       -0.13630894 0.68187165 1.5146418 0.5283769
000330 fa c5 2f be c9 17 c3 3e cb 7e 18 be 29 76 25 3c
       -0.17165366 0.38104084 -0.14892118 0.010098972
000340 4e 00 b3 3c 7c 4d 4d bd 36 ad 1a be 23 57 d9 bd
       0.021850731 -0.050122723 -0.15105137 -0.10612323
000350 28 4e b2 bd 51 57 02 be 5c e2 d8 bd e2 29 15 3d
       -0.08706313 -0.12728621 -0.105900496 0.036416896
000360 e2 7b 73 bc ca fb 4f bd f2 6f 14 be 29 30 7e bd
       -0.014861079 -0.050777234 -0.14495829 -0.062057648
000370 8c 9e 01 be 4b f5 66 be 83 ee 17 bd 64 c0 b2 bd
       -0.12658137 -0.2255451 -0.037092697 -0.08728102
000380 38 7f 50 bd 07 20 38 bf 9a da 84 3d 3d da 75 bf
       -0.050902575 -0.7192387 0.064870074 -0.9603613
000390 67 43 28 3f 19 5b 46 40 03 3e 4c 3e 1c 67 3c bf
       0.6572785 3.0993102 0.1994553 -0.7359483
0003a0 8e 5d 73 3f a6 de 18 bf 00 a4 7f 3e 46 08 1a 3e
       0.9506463 -0.59714735 0.24964905 0.15042219
0003b0 6e 94 60 bd 41 9b 49 3d 8f 7b eb bc cd 7a 26 be
       -0.054829054 0.049220327 -0.02874544 -0.16257782
0003c0 1c 4e 42 3e 39 67 98 3d 32 fb f4 3d
       0.18975109 0.07441563 0.11961974

bias f4 [3]
000000 6f ec 75 bd cb 37 74 3d a0 9e 7c bd
       -0.060039934 0.05962352 -0.061674714

weight f4 [3]
000000 b3 2c 13 3f ee 72 d5 3e 2c 7a a4 3f
       0.5749008 0.41689247 1.2849784

bias f4 [3]
000000 72 04 06 bd 39 3a 50 3f bb 03 16 bd
       -0.032719083 0.8133884 -0.03662465

running_mean f4 [3]
000000 fc cf b9 3f df 16 de 40 0f 4f 44 40
       1.4516597 6.940292 3.0673254

running_var f4 [3]
000000 4d 44 19 41 b6 56 b0 41 82 c2 ed 40
       9.579175 22.04234 7.4299936

weight f4 [3, 3, 3, 3, 3]
000000 0a d2 75 3d a6 d8 75 3d e6 cc 75 3d 10 d9 75 3d
       0.060014762 0.060021065 0.06000986 0.06002146
000010 42 df 75 3d 26 d0 75 3d 3b d1 75 3d 3e d6 75 3d
       0.06002737 0.06001296 0.06001399 0.06001877
000020 b7 c4 75 3d 2b 57 76 3d a3 61 77 3d d8 76 76 3d
       0.060002055 0.060141724 0.060395848 0.060171932
000030 2b f3 76 3d e6 0a 0b 40 8a d9 76 3d a8 53 76 3d
       0.060290497 2.1725402 0.060266055 0.060138375
000040 26 14 77 3d b2 e0 75 3d 0d df 75 3d fb e4 75 3d
       0.06032195 0.06002874 0.06002717 0.060032826
000050 61 da 75 3d 6c e1 75 3d 4f e3 75 3d 3e d3 75 3d
       0.060022715 0.060029432 0.06003123 0.06001591
000060 04 d6 75 3d 7f d1 75 3d 6b bc 75 3d 37 d7 75 3d
       0.060018554 0.060014244 0.059994143 0.060019698
000070 b8 dd 75 3d 68 d0 75 3d 58 e2 75 3d c2 eb 75 3d
       0.0600259 0.060013205 0.06003031 0.06003929
000080 a6 de 75 3d e5 da 75 3d 2b e5 75 3d 3a da 75 3d
       0.060026787 0.060023207 0.060033005 0.06002257
000090 55 89 76 3d 64 51 79 3d 50 69 76 3d 16 9a 77 3d
       0.060189564 0.060868636 0.060159028 0.060449682
0000a0 0f 92 71 bd 30 ec 77 3d f8 6b 76 3d 38 34 79 3d
       -0.058977183 0.06052798 0.06016156 0.060840815
0000b0 83 1d 76 3d ab ce 75 3d 5a d4 75 3d 1a c8 75 3d
       0.06008674 0.060011547 0.060016967 0.060005285
0000c0 5b d6 75 3d 69 d8 75 3d ef c8 75 3d be ce 75 3d
       0.06001888 0.060020838 0.06000608 0.060011618
0000d0 30 c6 75 3d 88 b0 75 3d 3d 05 77 3d 87 ec 78 3d
       0.06000346 0.059982806 0.06030773 0.060772445
0000e0 cc 68 78 3d 74 f2 77 3d f1 93 7a 3d 1f 9b 7b 3d
       0.060646817 0.060533956 0.061176244 0.061427232
0000f0 bb 70 77 3d d2 87 7a 3d ef cc 7c 3d ba e0 75 bd
       0.060410243 0.061164685 0.061718877 -0.06002877
000100 84 bf 75 bd 51 fa 75 bd 0e c9 75 bd 9b a9 75 bd
       -0.059997097 -0.060053173 -0.060006194 -0.0599762
000110 f0 d4 75 bd 5e fa 75 bd 3c e1 75 bd 01 0e 76 bd
       -0.060017526 -0.060053222 -0.060029253 -0.06007195
000120 42 ff 74 3d e8 8b 75 3d 59 57 75 3d 44 6b 75 3d
       0.059813745 0.059947878 0.059897754 0.05991675
000130 72 c5 75 3d d9 78 75 3d 08 7d 75 3d 2c 1d 75 3d
       0.06000275 0.059929702 0.059933692 0.059842274
000140 0d 67 74 3d 4c 42 dd 3d e2 46 a4 3d 6c 0f cb 3d
       0.05966859 0.10803661 0.08021332 0.09915051
000150 4c 28 00 3e 59 49 be 3d ed e8 cc 3d 6a 51 79 3e
       0.12515372 0.09291334 0.100053646 0.24347463
000160 d9 ad 56 3e 22 92 3e 3e 52 f3 98 bc df 32 84 bd
       0.20964755 0.18610433 -0.018670712 -0.064550154
000170 16 71 da bc c7 d6 ec 3a 9d c3 6b bd 49 7a f6 bc
       -0.026665252 0.001806938 -0.0575596 -0.030087607
000180 d3 b7 22 3e 7c aa 81 3d 5a f3 27 3d 01 1c 02 3e
       0.15890436 0.063313454 0.041003563 0.12705995
000190 a8 0b d3 3d fb 1e b3 3d ba 0d 03 3e da 44 ca 3d
       0.10304958 0.087461434 0.12798205 0.09876414
0001a0 03 44 82 3d a3 b4 43 3e f1 df 29 3e e0 8c c2 3d
       0.063606285 0.19111876 0.16589333 0.09499526
0001b0 e1 28 a4 3e a7 77 25 3e 72 89 2b 3e 86 09 67 3e
       0.32062438 0.16158925 0.1675165 0.22562227
0001c0 60 4f 7c 3d 04 35 6f 3d 7d ba ba 3e 09 2f 56 3e
       0.061599135 0.05840017 0.36470404 0.2091638
0001d0 15 74 85 3e dc 6a ab 3e 5c 83 92 bc ba c4 17 bd
       0.26065126 0.33479965 -0.017884903 -0.037052847
0001e0 1b 22 aa 3e c2 82 54 3f 8e c6 a9 be 6d c3 b6 3e
       0.33229145 0.8301202 -0.33159298 0.35695973
0001f0 4f 77 08 3e de bb f2 bd c4 64 e9 3e d5 38 90 3e
       0.13326763 -0.11852239 0.4558469 0.2816836
000200 cd 92 6b 3e 20 4f 93 3e e7 02 35 3e 91 61 f0 3d
       0.23005219 0.28771305 0.17676888 0.11737359
000210 bb 49 83 3e 15 8f 46 3e 02 3f 16 3e c2 78 84 3d
       0.2564219 0.19390519 0.14672473 0.06468345
000220 ec 3e 00 bc 86 0c ae 3d e4 18 7d 3d 6e 59 ec 3b
       -0.007827502 0.084984824 0.061791316 0.0072128093
000230 b6 69 cb 3d 0a 7f 3b 3e 6f 48 04 3e e5 b8 75 3e
       0.09932272 0.1831018 0.12918256 0.23996313
000240 77 c1 7b 3e fd 0e c6 3c 91 6f 34 3d 8a fc 46 3e
       0.2458552 0.024177069 0.04405171 0.19432274
000250 b1 b0 0a 3c dc a6 83 bc 8b ce 56 3e 7e 6e b3 3d
       0.008464978 -0.016070776 0.20977227 0.08761309
000260 db 62 9d bb 20 5c 1d 3e 37 5e 03 3e d6 e4 fa 3d
       -0.0048030443 0.15367174 0.12828909 0.12250678
000270 b8 51 11 3e 0a 75 2b 3e 60 bc 2f 3e 3f 30 f0 3d
       0.1419133 0.16743866 0.17161703 0.11727952
000280 c2 8f 31 3e 01 b0 31 3e a3 17 22 3c ed d3 f5 3d
       0.17339996 0.17352296 0.009893331 0.12003312
000290 14 85 50 3d fd 49 16 3d 1b 29 13 3e b6 af 10 3c
       0.050908163 0.036691654 0.14371149 0.008830955
0002a0 f9 0a c2 bd ba 05 58 bb 29 9c 34 be a3 33 9f 3d
       -0.09474749 -0.0032962398 -0.17637695 0.07773521
0002b0 99 d6 94 3e e5 d3 85 3e 5c 2b 84 3e 5e 12 e0 3e
       0.29069975 0.26138225 0.2581433 0.43764013
0002c0 63 26 af 3e 0b ca 8d 3d f3 0f 40 3e 6b 9b 85 3d
       0.34208974 0.06923302 0.18756084 0.06523784
0002d0 fe 24 13 bd 48 b9 38 3e 4a f9 29 3e 30 72 c3 3d
       -0.03592395 0.18039429 0.16599002 0.09543264
0002e0 31 e2 88 3e d2 31 4c 3e 8a cb fb 38 3a 6c dc 3d
       0.2673507 0.1994088 0.00012006525 0.1076283
0002f0 44 71 d3 3b 01 e1 c4 3c 05 43 d7 3d b9 4f ae 3d
       0.0064527113 0.024033071 0.1051083 0.085113
000300 d4 86 8a 3d 45 d1 10 3e e3 bc d7 3d 27 a6 01 3d
       0.06763998 0.1414233 0.10534074 0.031652596
000310 9a a6 ea 3d 1c bd d7 3d 07 89 c5 3d f5 56 9d 3e
       0.11457558 0.105341166 0.096452765 0.30730405
000320 f9 96 8a 3e f1 1d 61 3e 29 52 eb 3e a4 9b cd 3e
       0.27068308 0.21984078 0.4596112 0.40157807
000330 94 6f 11 bd 23 55 3c 3e 21 07 18 3e 17 e4 8a bd
       -0.0355068 0.18391852 0.1484647 -0.06781786
000340 f0 64 f9 3d 98 c6 ba 3d 4c 0b b8 bc 65 fc 29 3e
       0.121774554 0.0911991 -0.022466324 0.16600187
000350 83 cb 0c 3e 67 b3 f2 bd d2 5d 12 3c df d0 de bc
       0.13749509 -0.118506245 0.008933501 -0.027199207
000360 bf bc 15 bd 19 08 ee 3b b0 f6 c8 bd b0 55 67 ba
       -0.036556955 0.007264149 -0.09812677 -0.0008824719
000370 c5 dc b7 3c d1 9c c2 bd 87 53 ad bd 60 d3 b7 bd
       0.022444138 -0.095025666 -0.08463197 -0.089758635
000380 0c 17 22 be d5 f2 07 bf d7 46 76 3e 66 7e da be
       -0.15829104 -0.5310491 0.24050461 -0.4267456
000390 a0 85 d3 3e 68 c6 29 40 15 81 33 3f ad 80 34 bf
       0.41312885 2.6527348 0.7011884 -0.70508844
0003a0 52 17 65 3e fc de 17 bf ef 6c f4 bd b4 a8 cb 3c
       0.22372177 -0.5932462 -0.1193484 0.024860717
0003b0 25 d7 73 bd e5 1a 7b bd e5 8e 79 3d 41 74 90 3c
       -0.05953135 -0.061304945 0.06092729 0.01763356
0003c0 e5 f2 ac bd 46 41 c9 bd 3f ed 04 be
       -0.08444766 -0.09826903 -0.12981127

bias f4 [3]
000000 62 fa 75 bd d0 e4 51 bd 33 0c 53 bc
       -0.060053237 -0.051243603 -0.0128813265

weight f4 [3]
000000 d3 d4 10 bd 4b 0e 87 3e 3b 6f af 3e
       -0.035359215 0.26378092 0.3426455

bias f4 [3]
000000 3f 59 77 3d ee 08 92 3e 43 3a 21 3f
       0.060387846 0.28522438 0.62979525

running_mean f4 [3]
000000 59 04 81 3f 03 10 83 40 33 c0 19 40
       1.0079452 4.0957046 2.402356

running_var f4 [3]
000000 be 6b 2e 41 9c 66 2c 42 e2 8b a5 41
       10.901304 43.100204 20.693302

weight f4 [3, 3, 3, 3, 3]
000000 9f 17 76 3d bf 32 76 3d b5 1f 76 3d 7e 00 76 3d
       0.06008112 0.06010699 0.060088832 0.060059063
000010 44 12 76 3d 66 e9 75 3d 46 d3 75 3d 2a dd 75 3d
       0.060076013 0.06003704 0.06001594 0.06002537
000020 20 9f 75 3d 4b 57 74 3d b9 80 74 3d 20 31 75 3d
       0.059966207 0.05965356 0.059693072 0.059861302
000030 95 a5 72 3d a5 b4 4c 3f 39 ff 73 3d 93 6c 72 3d
       0.059239943 0.7996314 0.05956957 0.059185576
000040 df 99 6f 3d ce 36 72 3d 82 7f 76 3d 92 9c 76 3d
       0.058496352 0.059134297 0.060180195 0.06020791
000050 84 84 76 3d 6a 61 76 3d d8 75 76 3d 00 54 76 3d
       0.06018497 0.060151495 0.06017098 0.060138702
000060 a4 39 76 3d 09 42 76 3d b4 16 76 3d e1 d7 75 3d
       0.060113564 0.06012157 0.060080245 0.06002033
000070 ea d8 75 3d 5b f5 75 3d 7c cf 75 3d 99 d0 75 3d
       0.06002132 0.060048442 0.060012326 0.060013387
000080 33 e9 75 3d f9 e6 75 3d 8b eb 75 3d 40 fe 75 3d
       0.06003685 0.060034726 0.060039084 0.060056925
000090 1c 30 76 3d 12 fa 75 3d ed 47 76 3d 7c fe 75 3d
       0.060104474 0.06005294 0.060127188 0.06005715
0000a0 34 c3 77 bd e2 0e 76 3d bb 25 76 3d 74 d2 76 3d
       -0.060488895 0.060072787 0.060094576 0.060259297
0000b0 34 8d 76 3d 39 f8 75 3d 17 f6 75 3d f2 02 76 3d
       0.060193256 0.060051177 0.060049143 0.060061403
0000c0 85 ec 75 3d 5e f0 75 3d e2 fa 75 3d 29 d5 75 3d
       0.060040016 0.060043685 0.060053714 0.06001774
0000d0 6e e8 75 3d 07 f8 75 3d 3c 50 75 bd 37 f7 76 bd
       0.060036115 0.06005099 -0.05989097 -0.060294356
0000e0 c5 21 75 bd 44 75 76 bd 7f 78 78 bd ba 9b 76 bd
       -0.05984666 -0.060170427 -0.06066179 -0.060207106
0000f0 98 36 75 bd 68 57 77 bd 0a 4f 76 bd eb 04 76 bd
       -0.059866518 -0.06038609 -0.06013397 -0.060063284
000100 67 2a 76 bd a2 c4 75 bd ce 55 76 bd 7e 76 76 bd
       -0.06009903 -0.060001977 -0.060140423 -0.060171597
000110 02 27 76 bd b1 2e 76 bd 5c 50 76 bd 30 0f 76 bd
       -0.060095794 -0.060103122 -0.06013523 -0.060073078
000120 20 50 71 bd a4 88 73 bd 77 99 73 bd 17 2e 74 bd
       -0.058914304 -0.059456483 -0.059472527 -0.059614267
000130 d1 ba 75 bd 5f 9e 75 bd 93 31 74 bd e5 5a 74 bd
       -0.059992615 -0.059965488 -0.05961759 -0.059656996
000140 1a e7 74 bd 45 30 9d bd 84 3e 2d bd db e6 36 be
       -0.059790708 -0.07675222 -0.042295948 -0.17861502
000150 06 2c 31 bd e2 c4 0b 3b 46 51 12 be 31 d7 e1 3b
       -0.043254875 0.0021327068 -0.14288816 0.006892108
000160 2d 67 f8 3c 70 4a 09 be ce d5 fe 3d 95 b5 74 3e
       0.030322636 -0.13407302 0.12443124 0.23897393
000170 11 04 a4 3d b9 73 39 3e de 44 80 3e e8 67 13 3d
       0.08008588 0.18110551 0.25052541 0.035987765
000180 61 21 8e 3e 07 45 8d 3e 31 02 de bc 1f 65 91 bd
       0.2775984 0.27591726 -0.027100654 -0.070993654
000190 b3 01 83 3c eb 33 7a bd f6 02 43 bd 5d 40 08 3d
       0.015992021 -0.06108467 -0.047610246 0.033264507
0001a0 15 2e 89 bd f4 d8 5d 3c 23 97 5c 3d 20 2e 98 bd
       -0.066982426 0.013540495 0.053855073 -0.07430673
0001b0 a3 d6 c8 bd 03 b0 55 bd 91 5c 80 bd 38 5d cf bd
       -0.09806564 -0.05216981 -0.06267656 -0.10125202
0001c0 d7 a7 47 bd 9c 4d 08 be d9 2d 5b bd 91 50 a6 3c
       -0.04874405 -0.13310856 -0.05351052 0.020302089
0001d0 bc 1a a5 3a e5 ad ec 3d d8 aa 6e 3e 8a 39 94 3e
       0.0012596468 0.11556605 0.23307359 0.2895015
0001e0 bf d5 af 3d 51 43 94 3f de a2 40 3e a1 f5 50 3d
       0.08585691 1.1583043 0.18812129 0.0510155
0001f0 25 8c 37 3e d5 43 3c 3e 93 80 77 bc 3a 16 c5 3c
       0.17924555 0.18385251 -0.015106338 0.02405845
000200 da 14 b2 3b 61 5a a5 bd bb bf 1b bd 2a 21 4c bd
       0.0054346146 -0.08073879 -0.038024645 -0.049836315
000210 18 db 86 bd b0 e7 d5 bc 21 eb 35 bd 21 83 22 3d
       -0.065847576 -0.026111454 -0.04441369 0.039675836
000220 b3 bd e3 3d 78 22 cc 3d 20 15 b2 3b 1f 3f a3 3d
       0.11120167 0.09967512 0.005434647 0.07971024
000230 41 26 65 3d 11 c8 5e bd d6 b4 4b 3d de 9a 87 3d
       0.055944685 -0.054390017 0.049733005 0.066213354
000240 33 dd 85 3e 14 54 6b 3e f4 8a 8f 3d 2c 37 bb 3e
       0.26145324 0.22981292 0.07008925 0.3656553
000250 39 1b de 3e ef 57 80 3e 59 13 09 bd 76 37 de 3d
       0.43380144 0.25067088 -0.033465717 0.10850422
000260 0a 1b 77 bd 10 c5 e5 3d b4 a2 ea 3d 97 02 c7 3c
       -0.06032852 0.11219227 0.114568144 0.024293227
000270 33 33 b6 3d ef d7 2a 3e ae d3 30 3e b5 d6 6b bd
       0.08896484 0.16683935 0.1726825 -0.057577807
000280 e6 c9 f6 3c 19 93 db 3d d8 61 b5 bd a9 af 2e bc
       0.03012557 0.10721416 -0.08856553 -0.010661998
000290 fa 4b 68 3e 9c da 9c be a5 56 92 be 4b 58 17 bd
       0.22685233 -0.30635536 -0.2858173 -0.036949437
0002a0 e6 76 49 be df 67 7c be b7 3b 8a bb 0b f4 5d bd
       -0.19674262 -0.24648999 -0.0042185443 -0.054187816
0002b0 54 49 e4 3c de 3f 35 3e 97 85 8e be d3 b2 6e be
       0.027866997 0.17700145 -0.27836296 -0.23310404
0002c0 b0 b0 e5 bd 2b 6c 38 be 43 ff 1d be 87 bc 9a bd
       -0.11215341 -0.18010013 -0.15429406 -0.0755549
0002d0 04 b4 88 be 73 66 a9 be d0 a8 67 be d3 c3 0d bf
       -0.2669984 -0.33085975 -0.2262299 -0.5537693
0002e0 56 79 1d bf ea 0e fd be a0 59 f1 be dc a2 08 bf
       -0.6151327 -0.4942544 -0.4713869 -0.53373504
0002f0 e2 d0 ca be fa 87 61 3e ad b8 98 3d c3 94 de bd
       -0.3961249 0.22024527 0.07457099 -0.10868218
000300 45 df 78 3e 91 12 1f 3e 59 e6 88 bc a3 5a 38 3e
       0.2430392 0.15534426 -0.0167114 0.18003325
000310 4a 84 1a 3e 1b 27 1b 3c f4 79 5b 3e 00 52 13 3e
       0.15089527 0.009469773 0.2143324 0.1438675
000320 a6 7e 2b 3d bd 16 66 3e ae 40 42 3e 33 38 b0 3d
       0.04186883 0.22469611 0.18969986 0.08604469
000330 f3 e3 b1 3d 71 22 a0 3d 14 92 91 bc bb d8 df 3c
       0.08686056 0.07819069 -0.01776985 0.027325025
000340 24 cb a7 3d 8a 54 8b 3c 17 65 02 3e 77 cd 38 3e
       0.08193043 0.017008085 0.12733875 0.18047129
000350 02 73 c3 3d ee d8 0a 3e 1a c9 2a 3e 8b 42 45 3d
       0.095434204 0.13559315 0.16678277 0.048159163
000360 e7 b0 04 be e1 86 2a be f2 87 89 be c8 9e 0f be
       -0.12958108 -0.16653015 -0.2686153 -0.14025414
000370 10 ba fc bd 4d 74 5a be 9b 9d 7e be fc 8b 39 be
       -0.12340176 -0.21333428 -0.24864809 -0.18119806
000380 bc 4e 42 be bf 2b 7e bd 9e ff 00 3f 92 cb 19 be
       -0.18975347 -0.06205344 0.5039004 -0.15019062
000390 4a 6d 2b 3f 26 f1 1e 40 32 d4 28 3f eb 39 00 bf
       0.66963637 2.4834685 0.65948784 -0.50088376
0003a0 b6 d6 8d 3e 22 26 ef be 80 ff 4c be cc a9 37 be
       0.27702874 -0.4670878 -0.2001934 -0.17935866
0003b0 e7 20 9d be 1c a0 f7 bd 34 83 a3 bd 6b 11 3b be
       -0.30689165 -0.12091085 -0.079840094 -0.18268363
0003c0 6b 45 1e be 97 1a 41 be 22 42 89 be
       -0.15456168 -0.188578 -0.26808268

bias f4 [3]
000000 a7 fb 75 3d 58 ef 7c bd f1 71 a9 3c
       0.060054448 -0.061751693 0.020684214

weight f4 [3]
000000 df 77 57 3f 99 b5 38 3f d9 7d 20 3f
       0.84167284 0.72152096 0.6269203

bias f4 [3]
000000 e2 7c 4a 3e a9 d8 25 bf 4c 54 59 be
       0.19774202 -0.6478372 -0.21223563

running_mean f4 [3]
000000 04 0d b8 be fe 95 0f 40 79 98 1d 3f
       -0.3594743 2.2435298 0.6156078

running_var f4 [3]
000000 cd 35 56 3d b1 12 d1 3f 2f 81 b6 3f
       0.052297402 1.6333829 1.4258174

weight f4 [3, 3, 3, 3, 3]
000000 42 71 75 3d 9e 29 76 3d b0 f9 75 3d 31 c4 75 3d
       0.059922464 0.060098283 0.060052574 0.060001556
000010 25 91 76 3d 09 2e 76 3d 39 6b 75 3d 3a 7a 76 3d
       0.060197014 0.060102496 0.05991671 0.060175158
000020 8b 43 76 3d e6 4f 72 3d 06 b3 74 3d b6 3d 75 3d
       0.060123008 0.05915823 0.059741043 0.059873305
000030 ff 3f 74 3d f5 d8 97 3f f3 08 79 3d 85 de 74 3d
       0.059631344 1.1863085 0.06079955 0.059782524
000040 57 6d 7d 3d 7b 75 79 3d e1 97 75 3d c0 a2 75 3d
       0.061871853 0.060903054 0.059959296 0.059969664
000050 4a 6a 75 3d 69 c6 75 3d 20 a3 75 3d 82 58 75 3d
       0.05991582 0.06000367 0.05997002 0.05989886
000060 03 87 76 3d bd f7 75 3d cf a9 75 3d b9 05 76 3d
       0.06018735 0.060050715 0.059976395 0.06006405
000070 a0 a9 75 3d 0f 33 76 3d 0b 9a 75 3d 3c 05 75 3d
       0.05997622 0.060107287 0.05996136 0.059819445
000080 8c 94 75 3d 58 fa 75 3d e6 2f 75 3d 36 9d 75 3d
       0.05995612 0.0600532 0.059860133 0.05996438
000090 b2 fa 75 3d 44 14 6f 3d dd 0a 75 3d fa 60 70 3d
       0.060053535 0.058368936 0.059824813 0.058686234
0000a0 50 cb 9c bd 61 5d 6e 3d 87 f5 73 3d 67 b7 66 3d
       -0.07655966 0.05819452 0.059560325 0.05632725
0000b0 74 00 73 3d bd 64 76 3d 42 e5 75 3d 50 e3 75 3d
       0.059326604 0.060154665 0.06003309 0.060031235
0000c0 c3 e2 75 3d 5c 74 75 3d 2f 95 75 3d 74 99 75 3d
       0.06003071 0.059925422 0.059956726 0.059960797
0000d0 a7 66 75 3d c7 ab 75 3d 5c 5d 63 bd 4a 4f 79 bd
       0.05991235 0.059978273 -0.055508956 -0.06086663
0000e0 27 d6 62 bd b1 0b 73 bd 5f db 87 bd ec 0d 77 bd
       -0.055380013 -0.05933732 -0.066336386 -0.06031601
0000f0 cd 8e 6a bd 65 7a 85 bd 20 55 7b bd d1 c9 78 bd
       -0.05726509 -0.065174855 -0.06136048 -0.060739342
000100 2f e3 79 bd 8d 0b 74 bd 5a 56 7c bd 48 05 7d bd
       -0.061007675 -0.05958133 -0.06160579 -0.061772615
000110 1b eb 77 bd 1e e4 79 bd d5 82 7a bd 07 6f 75 bd
       -0.06052695 -0.061008565 -0.061159927 -0.059920337
000120 9f 58 34 bd 09 1e 53 bd 33 69 54 bd 5f 7c 57 bd
       -0.04402983 -0.051542316 -0.05185814 -0.052608844
000130 0b 4c 74 bd ab e1 71 bd 07 91 52 bd 80 14 64 bd
       -0.059642833 -0.059053104 -0.05140784 -0.055683613
000140 e0 97 64 bd ff 7d ac 3d a5 fa bd 3c 91 cf ca bd
       -0.0558089 0.08422469 0.023190806 -0.099028714
000150 46 4f 76 3d 17 73 d8 3c 39 47 c4 bc 12 8a 30 3d
       0.060134195 0.026422067 -0.023959743 0.043100424
000160 72 f3 d8 bd 52 e8 07 be df 5b 5c 3d 53 b9 ff 3d
       -0.105933085 -0.13272217 0.053798553 0.1248652
000170 2a f5 d6 bd 1d eb 15 3d 30 89 91 3d 37 07 21 be
       -0.1049598 0.036601175 0.071062446 -0.15725408
000180 a4 b5 e6 3e 62 d1 93 3e 26 f5 d6 bd 69 ed a8 3d
       0.45060456 0.28870684 -0.10495977 0.082484074
000190 b5 8a 22 3e 01 fe dd 3d c1 56 d8 3c 71 2b 97 3d
       0.15873225 0.10839463 0.026408555 0.07381333
0001a0 89 85 69 bd d8 fd 17 3e 00 6f 2e 3e 91 81 36 bd
       -0.057012115 0.14842927 0.1703453 -0.044557158
0001b0 b3 0e 40 be ed a8 15 be 19 78 37 3e a8 43 b6 3d
       -0.18755607 -0.14615221 0.17916907 0.08899623
0001c0 4f bc 8e 3d 78 6b 24 3e 21 7f b4 3c 5c b9 52 3d
       0.06969511 0.16056621 0.022033276 0.051446304
0001d0 bc 5a 82 3e b6 cd 63 be 5f 9b 7d be ee 59 b7 3e
       0.2545985 -0.22246441 -0.247663 0.35810798
0001e0 17 13 30 3e df 4e b3 3f 91 e7 35 3f c3 2f 3c be
       0.17194782 1.4008445 0.7105647 -0.18377595
0001f0 e4 d2 2f be 06 55 12 3e ab 0a dc bc e2 04 17 bd
       -0.17170292 0.14290246 -0.026860556 -0.03686989
000200 97 94 1a 3e 6a a2 b5 3d 78 09 a2 3d 54 9f 83 3e
       0.15095745 0.08868869 0.07911962 0.25707495
000210 b5 3b ab 3d c2 e5 03 3d 02 dc 35 3e cf 33 6e bd
       0.083609976 0.032201536 0.17759708 -0.058154877
000220 26 39 53 3c 71 e4 31 bd 8d c7 84 3d bf 75 69 3e
       0.012892043 -0.04343075 0.06483374 0.22798823
000230 ef 25 1d 3e 43 06 45 be 31 38 bd 3d 6d 0f cf 3d
       0.15346502 -0.1924067 0.09239233 0.10110364
000240 e6 0a 09 3c 33 b1 a5 3e 71 82 84 be b9 87 55 3f
       0.008364415 0.32361755 -0.2588077 0.8341022
000250 e3 88 9c 3f 15 e9 ff 3e 03 c9 a6 be 54 b2 17 3e
       1.2229275 0.49982515 -0.32575235 0.1481412
000260 3f 8a 1d bf af f5 fc bd 91 35 8a 3b d0 90 86 bd
       -0.6153907 -0.12351548 0.0042178114 -0.065705895
000270 e4 26 25 3c 2a 63 62 3e 90 79 85 3e a0 aa 0a be
       0.010080073 0.2210814 0.26069307 -0.13541651
000280 51 e8 da 3c e6 30 2c 3e 50 d8 a2 3e 8c d7 51 3e
       0.026722105 0.16815528 0.31805658 0.20492381
000290 c4 aa 6b 3e 4d 13 84 3e 2f 40 aa 3d ae e1 0b 3e
       0.2301436 0.25795975 0.08313023 0.13660309
0002a0 95 1f e9 3e c9 5e 3a 3e b8 aa 3e 3e a5 9f c9 3d
       0.45531908 0.1820022 0.18619812 0.09844903
0002b0 0f b7 bf 3d 19 5c 3a 3e 6c 96 b7 bb f2 ee a1 bd
       0.093610875 0.18199195 -0.0056026485 -0.07906903
0002c0 fd d3 92 3b 09 b3 96 3e af 8b 3c 3e 1b cd 49 3e
       0.0044808374 0.29433468 0.1841266 0.19707148
0002d0 ba 97 99 3e 84 2f 95 3e 20 67 c2 3e 3b 6b 21 3e
       0.2999857 0.29137814 0.37969303 0.15763561
0002e0 9a 4c df 3d c9 48 1f 3e 91 81 8e 3e ab bf 68 3e
       0.109032825 0.15555109 0.27833226 0.22729366
0002f0 63 62 8a 3e d2 8e 81 3d bb 1e 6d 3c 40 0a 46 bc
       0.27028188 0.06326069 0.014472659 -0.012087405
000300 3f 41 09 3e d7 f4 f4 3d 10 d5 92 3d fc 9e 7d bc
       0.13403796 0.11960762 0.07169545 -0.015479799
000310 cc 3e e4 3b 9d 47 e3 bc ac d3 6a 3e 3a 97 60 3e
       0.006965494 -0.027744109 0.22932309 0.21932688
000320 4f 67 35 3e 5a 7a 96 3e 44 af ab 3e 27 0b 96 3e
       0.1771519 0.29390222 0.33532155 0.29305384
000330 9b dd b4 3d d3 e8 0b 3e af 67 04 3e bf f0 7f bd
       0.088313304 0.13663034 0.12930177 -0.062485453
000340 09 06 ed bc a8 02 36 bd ad 31 18 3d c0 0f 8d 3d
       -0.028933542 -0.044436127 0.03715675 0.0688777
000350 3a ca 1c 3d c1 6e 21 3c 1f 10 96 3c cb d9 e8 bc
       0.038278796 0.009853066 0.018318234 -0.028424164
000360 fd ea b5 3b 85 2f 19 be 98 48 32 be 63 c5 b8 3d
       0.0055516944 -0.14959534 -0.17410505 0.090220235
000370 c1 ec bd bc 99 0a dd bc 70 36 a1 bd e5 6f 1f be
       -0.023184182 -0.026982592 -0.07871711 -0.15570028
000380 89 a9 a4 bd b7 6d 33 3e d6 66 98 3e 79 ce 6e 3d
       -0.08040149 0.17522322 0.29765958 0.058302376
000390 2a d2 51 3f f9 cc 02 40 3c ea 3c 3f e8 88 7e 3e
       0.8196131 2.0437605 0.73794913 0.24856913
0003a0 66 65 12 3f d6 8a 86 3e 21 c6 bd bd 0a 7a 68 be
       0.5718597 0.26277798 -0.09266306 -0.22702804
0003b0 45 29 81 be 38 92 c7 bd 70 68 46 be 95 d0 27 be
       -0.252268 -0.09744686 -0.19375777 -0.16388161
0003c0 5e 51 74 bd 3f cc 24 be 80 f7 ad bd
       -0.05964791 -0.16093539 -0.084944725

bias f4 [3]
000000 fb 04 76 3d 82 25 8c bd f3 f4 ff bc
       0.060063343 -0.068430915 -0.03124473

weight f4 [3]
000000 46 37 59 3f 50 0c b1 3e e6 f7 10 3f
       0.84849966 0.34579706 0.56628263

bias f4 [3]
000000 be 05 31 3c 37 f0 c5 bd e1 c8 cb 3e
       0.010804592 -0.09664958 0.39801696

running_mean f4 [3]
000000 8f 19 be 3c cb e2 20 c0 b1 36 9c bf
       0.023205547 -2.5138423 -1.220419

running_var f4 [3]
000000 70 63 74 40 4f 9f 01 41 30 95 97 40
       3.8185692 8.101394 4.7369614

weight f4 [3, 3, 3, 3, 3]
000000 00 f3 75 3d 42 46 76 3d d3 1d 76 3d f6 d8 75 3d
       0.060046196 0.060125597 0.060087036 0.060021363
000010 88 49 76 3d 60 3e 76 3d 05 85 75 3d 85 fa 75 3d
       0.06012872 0.06011808 0.05994131 0.060053367
000020 2e 1f 76 3d 0c 18 74 3d c2 93 73 3d 14 c7 73 3d
       0.06008833 0.059593245 0.059467085 0.059516028
000030 e7 71 72 3d c6 f3 aa 3f 1f f7 74 3d 5a a6 75 3d
       0.059190657 1.3355644 0.059805986 0.0599731
000040 d2 c3 7b 3d 27 04 7a 3d 52 f9 75 3d 5c d7 75 3d
       0.061466046 0.061039116 0.060052224 0.060019836
000050 1e b5 75 3d dd 78 75 3d 59 52 75 3d 11 3c 75 3d
       0.05998718 0.059929717 0.059892986 0.059871737
000060 3c 3b 76 3d 52 e2 75 3d d6 d9 75 3d 04 36 77 3d
       0.060115084 0.06003029 0.060022198 0.060354248
000070 84 e8 75 3d 86 d4 77 3d b4 3d 76 3d e6 f4 73 3d
       0.060036197 0.060505413 0.06011744 0.059559725
000080 d4 60 75 3d cc a5 76 3d 09 a8 73 3d 25 36 74 3d
       0.059906796 0.06021671 0.059486423 0.05962195
000090 7e 21 73 3d 6a 0e 66 3d af 74 7b 3d ed a7 61 3d
       0.059358113 0.05616609 0.061390575 0.055091787
0000a0 23 42 ce bd 2a 44 6f 3d 14 75 6b 3d d8 65 4f 3d
       -0.10071208 0.058414616 0.0574847 0.050634235
0000b0 c9 e5 72 3d 54 82 79 3d b3 53 78 3d dd 52 78 3d
       0.05930117 0.060915306 0.060626697 0.0606259
0000c0 00 45 78 3d b3 d4 76 3d ee be 76 3d 3a 2a 79 3d
       0.06061268 0.06026144 0.06024068 0.060831286
0000d0 60 ef 77 3d 3c 76 77 3d 5d 18 68 bd a9 27 6f bd
       0.06053102 0.06041549 -0.05666386 -0.058387432
0000e0 81 48 69 bd 6b 8e 71 bd 0e 18 7f bd 86 f1 78 bd
       -0.05695391 -0.05897371 -0.0622788 -0.06077721
0000f0 88 b8 71 bd 24 82 81 bd 58 47 80 bd 96 47 7e bd
       -0.059013873 -0.063236505 -0.06263608 -0.06207999
000100 68 52 7a bd 24 4c 77 bd 18 5e 7f bd 71 dd 7a bd
       -0.061113745 -0.060375348 -0.062345594 -0.06124634
000110 b7 52 78 bd 9f 3a 7d bd e0 51 78 bd ae 9e 75 bd
       -0.060625758 -0.061823484 -0.060624957 -0.059965782
000120 96 f1 36 bd 09 95 49 bd 83 10 64 bd 4f d3 4b bd
       -0.044663988 -0.049214397 -0.05567981 -0.049762066
000130 51 01 5f bd 6b 1f 76 bd f2 84 42 bd 34 13 53 bd
       -0.054444615 -0.060088556 -0.047490068 -0.051531985
000140 46 72 6a bd 22 a7 cc 3d e2 23 a4 3c 38 7a 44 bd
       -0.057237886 0.099928156 0.020036642 -0.04796812
000150 e3 98 ec 3c da 2b 81 bd 43 ce 5c bd e2 fb 33 3c
       0.028881496 -0.06307192 -0.053907644 0.0109853465
000160 db 8a 39 be 16 08 29 be 25 8d 08 be a4 bf 0c be
       -0.18119375 -0.16506991 -0.13335092 -0.1374498
000170 10 8b 4f be 05 b4 99 be 28 a7 93 be 79 51 87 be
       -0.20267892 -0.30020157 -0.28838468 -0.26429346
000180 2c 69 84 be f3 70 97 be a1 64 82 be ec 0a 93 bd
       -0.2586149 -0.2957836 -0.254674 -0.071798176
000190 8c 56 7f bd ea 51 9a bd 1f 2f 81 be b9 9a 78 be
       -0.062338397 -0.07535155 -0.25231263 -0.24277772
0001a0 cb c7 4c be e7 38 13 be 0b ad 0d be fe e2 f8 bd
       -0.1999809 -0.14377175 -0.13835542 -0.1215267
0001b0 99 4c 6d be 44 da 04 be 46 ce 19 be d7 db e8 3c
       -0.23173751 -0.12973887 -0.15020093 0.02842514
0001c0 f2 21 60 3d 35 a7 be bd ee 68 23 3c 85 4e 33 3d
       0.054719873 -0.09309236 0.009973748 0.043776054
0001d0 ba 52 13 bd 9c 53 8b be 3e 20 98 bd 42 ad 3e bb
       -0.035967566 -0.27212226 -0.07428025 -0.002909497
0001e0 e9 4f 07 3e fb 0d ba 3f 19 ef ad 3e d2 d7 11 be
       0.13214077 1.4535517 0.3397148 -0.14242485
0001f0 21 a8 4e 3e 70 a7 4c 3d 91 8f 6d bc 57 25 b3 3d
       0.20181324 0.04996437 -0.014499561 0.087473564
000200 e6 66 c9 3d ae 09 16 3e bc 73 88 3e 40 e7 8f 3e
       0.098340794 0.1465213 0.26650798 0.28106117
000210 fb 3e d8 3d 6f c9 5f 3e 56 ea 91 3e 4f 8a 7c 3d
       0.105588876 0.21854185 0.28499097 0.06165534
000220 8b 8b a7 bd 68 f3 55 bd f1 c1 7e bc e8 19 19 be
       -0.081809126 -0.052234083 -0.015549169 -0.14951289
000230 36 cf 06 bd bd 98 b1 3d c0 7a 32 bd 98 d8 57 3e
       -0.032912455 0.08671711 -0.043574095 0.21078718
000240 f0 74 26 3e f6 7b 94 3e 1f 32 f2 3c 54 17 f5 3e
       0.16255546 0.29000825 0.029564915 0.4786936
000250 e3 a8 1c 3f e4 e1 86 3e 3f fe 08 3e 72 c4 92 3e
       0.611952 0.26344216 0.13378237 0.286655
000260 15 a2 d8 bd e3 b6 cd 3d 1e 73 3d bd 7b 9b 48 be
       -0.1057779 0.100446485 -0.046252362 -0.19590561
000270 b2 9b 0e 3e 65 87 d1 3d cb bb 0a 3d a9 ac c7 3d
       0.1392658 0.102309026 0.0338705 0.09749729
000280 78 70 eb 3d 62 80 23 3e f8 cf 73 bb 18 3c 87 3b
       0.11496061 0.15966943 -0.0037202816 0.004127037
000290 29 db 5b 3d 31 d7 de 3d 4d ab a5 3d 6d 38 ca 3d
       0.053675804 0.10880888 0.08089314 0.098740436
0002a0 b8 19 73 3e 49 97 34 3e 55 28 20 3e 07 e1 25 ba
       0.2374028 0.17635836 0.15640385 -0.0006327782
0002b0 0c 28 3f 3c ee b5 11 3d 28 53 90 3d 78 c5 1a 3d
       0.011667263 0.035573892 0.07047111 0.037785977
0002c0 21 e5 cc 3c f1 f6 41 3e c4 cd ee 3d 5a d9 5e 3d
       0.0250116 0.18941857 0.116603404 0.0544065
0002d0 dc 48 ca 3d f5 7d d9 3d 7f d3 b2 3d 48 2e f3 3d
       0.09877178 0.106197275 0.08731746 0.11874062
0002e0 8b 95 be 3d a7 2f ad 3c cf 98 40 3e 0a 2a 0a 3e
       0.09305867 0.021140886 0.18808292 0.13492599
0002f0 e7 51 58 3d c8 0a 4a 3e 2d 02 36 3e 48 c0 00 3e
       0.052812483 0.19730675 0.17774267 0.1257335
000300 da ef 6e 3e 13 2f 64 3e 78 27 2a 3e 0b 56 1c 3e
       0.23333684 0.22283582 0.16616619 0.15267198
000310 d1 28 28 3e 21 4c fe 3d 6a e7 0e 3e ec d2 1b 3e
       0.1642182 0.12416864 0.13955465 0.15217179
000320 57 79 10 3e b8 0d 43 3e de 35 5c 3e 00 f0 51 3e
       0.14108787 0.19048202 0.21504924 0.20501709
000330 f7 53 f9 3d 15 bc 2d 3e b3 c9 33 3e ab 41 18 3d
       0.12174218 0.16966279 0.17557411 0.037172
000340 00 74 a5 3d d5 15 99 3d b3 0f fb 3d 92 1b 3b 3e
       0.08078766 0.07474867 0.12258854 0.18272236
000350 9d 82 3e 3e ea b0 c0 3d d3 f6 2e 3e 05 bf 47 3e
       0.18604513 0.09408744 0.17086343 0.19506462
000360 2b 81 4b 3e 10 c0 0b 3e 93 74 2a 3e f6 ca a9 3e
       0.19873492 0.13647485 0.16646032 0.3316266
000370 c0 7f 69 3e 7a bb 52 3e 82 81 93 3e f3 1b 26 3e
       0.22802639 0.20579329 0.28809744 0.162216
000380 3b e2 de 3d c5 f6 df 3d eb f7 03 3e 70 be 98 3e
       0.10882994 0.109357394 0.12887542 0.29832792
000390 6c 66 6c 3e 42 83 92 3f 3e e7 7d 3e f5 15 e2 3d
       0.23085946 1.1446307 0.24795243 0.11039344
0003a0 dd 87 00 bc c3 55 15 bc 25 a4 9c 3d d6 e6 03 3e
       -0.007844892 -0.0091146855 0.076484956 0.12881026
0003b0 3b c0 05 3e 14 5a 19 3e 2c ca 35 3e 1b 54 2f 3e
       0.13061611 0.14975768 0.17752904 0.17121927
0003c0 be 31 d1 3a 98 99 00 3b f2 ca 61 bc
       0.0015960259 0.00196228 -0.013781296

bias f4 [3]
000000 df 60 77 3d 81 19 88 3d 1c e2 ee 3c
       0.060395118 0.066454895 0.029160552

weight f4 [3]
000000 ce 45 7b 3e bf 44 01 3e 12 28 fe 3e
       0.24538347 0.12623881 0.49639946

bias f4 [3]
000000 d6 de 66 3d 15 ce b3 3e 61 0b 83 bf
       0.056364857 0.35118166 -1.0237848

running_mean f4 [3]
000000 32 d8 25 bf ca 59 54 3f 73 26 c6 3f
       -0.6478301 0.8294951 1.5480484

running_var f4 [3]
000000 64 76 35 40 6d 9a 55 41 c7 4b 8d 40
       2.835351 13.350202 4.4155

weight f4 [3, 3, 3, 3, 3]
000000 68 51 76 3d 85 7d 76 3d f5 8a 76 3d a5 65 76 3d
       0.06013623 0.0601783 0.060191114 0.06015553
000010 51 8d 76 3d 2c ab 76 3d b2 56 76 3d ee 7d 76 3d
       0.060193364 0.060221836 0.060141273 0.06017869
000020 a8 aa 76 3d ec 94 75 3d 1a f5 74 3d 2e 80 75 3d
       0.060221344 0.059956476 0.05980406 0.059936695
000030 bf 6f 76 3d cb 3e 85 3f 95 62 76 3d 57 12 77 3d
       0.060165163 1.0409788 0.06015261 0.060320225
000040 59 07 77 3d 70 61 77 3d 72 43 76 3d f8 46 76 3d
       0.06030974 0.060395658 0.060122915 0.060126275
000050 0e 50 76 3d 3d c4 76 3d 08 bf 76 3d e6 d2 76 3d
       0.06013494 0.06024574 0.060240775 0.060259722
000060 d5 19 77 3d cf ff 76 3d 6c 15 77 3d 9b 19 74 3d
       0.06032737 0.06030255 0.060323164 0.05959473
000070 ce 32 74 3d e4 47 74 3d a7 f1 73 3d 33 0f 74 3d
       0.059618764 0.059638873 0.05955663 0.059584808
000080 68 2d 74 3d 09 94 74 3d f8 c0 74 3d 69 ec 74 3d
       0.059613615 0.05971149 0.05975434 0.05979577
000090 f8 b6 74 3d 85 4c 74 3d 47 4c 74 3d b0 04 74 3d
       0.059744805 0.059643287 0.059643056 0.059574783
0000a0 80 cb 75 bd df e5 73 3d 9d 8a 76 3d f6 f8 7c 3d
       -0.060008526 0.059545394 0.060190786 0.061760865
0000b0 29 31 79 3d d0 b8 73 3d 9f b3 73 3d 3b 5e 73 3d
       0.0608379 0.059502423 0.059497472 0.059416037
0000c0 1e 64 73 3d 41 57 73 3d 30 f7 72 3d 28 dd 73 3d
       0.05942165 0.059409384 0.059317768 0.059537083
0000d0 6d e6 73 3d 08 99 73 3d 78 e3 75 bd 57 08 76 bd
       0.059545923 0.059472114 -0.060031384 -0.060066547
0000e0 82 0a 76 bd 5b 82 75 bd 3e c7 75 bd c1 df 75 bd
       -0.060068615 -0.05993877 -0.060004465 -0.06002784
0000f0 d9 21 75 bd 32 8c 75 bd 92 ba 75 bd 34 3b 76 bd
       -0.059846733 -0.059948154 -0.05999238 -0.060115054
000100 56 39 76 bd 5b 36 76 bd 98 10 76 bd 11 1b 76 bd
       -0.060113274 -0.06011043 -0.06007442 -0.060084406
000110 46 1f 76 bd 43 fe 75 bd c0 11 76 bd c7 16 76 bd
       -0.06008842 -0.060056936 -0.06007552 -0.060080316
000120 ad b5 77 bd 6b ba 77 bd 89 ba 77 bd e2 2f 77 bd
       -0.060475994 -0.060480516 -0.06048063 -0.0603484
000130 e3 2d 77 bd 9f 41 77 bd e9 01 77 bd 42 fd 76 bd
       -0.060346495 -0.060365316 -0.060304556 -0.06030012
000140 6e 03 77 bd 92 e9 8d 3d 0d 8b ee 3c d4 d6 0e 3e
       -0.060306005 0.069293156 0.029119039 0.13949138
000150 1c 5f a0 be f0 84 c6 be 9b e5 6b bc c8 23 1e 3c
       -0.31322563 -0.38773298 -0.014398004 0.009652086
000160 1a 6b 27 bd 6e ee d7 3e f0 17 7c 3e b7 d9 21 be
       -0.040873624 0.42174095 0.24618506 -0.15805708
000170 31 50 87 3d 12 f7 0d 3e bd 43 0b bf b9 f6 33 be
       0.06607092 0.13863781 -0.54400235 -0.17574586
000180 f7 91 e9 3e 5a 46 89 be ee db d9 3d 24 af 12 bb
       0.45619175 -0.26811486 0.106376514 -0.0022382224
000190 26 23 9c be 62 49 6b 3e 24 93 05 3e dd 7a d1 be
       -0.30495566 0.22977212 0.13044411 -0.4091405
0001a0 2f 77 2c 3e 9d 76 2a 3e de de c3 be 4c 02 5d 3e
       0.1684234 0.1664681 -0.38255972 0.21582907
0001b0 86 3f d1 bc fe 7c 91 3d 33 d3 3b bd 38 75 b1 3d
       -0.025542986 0.071039185 -0.045855712 0.08664936
0001c0 6e e7 33 3e e1 d1 c5 3c e0 e0 56 bd dd dd c0 3d
       0.17568752 0.02414793 -0.05246055 0.09417317
0001d0 85 c2 4b 3c e8 a1 33 bd 42 d1 ef 3e 32 19 22 bc
       0.012436514 -0.043855578 0.4683934 -0.009893702
0001e0 89 9e 03 3f 23 b2 07 40 ec bd de 3e aa 16 2b be
       0.5141378 2.1202476 0.43504274 -0.16707864
0001f0 6b cd e6 3e a2 ac 4e be dd 64 21 be 87 89 ab bd
       0.45078596 -0.20183042 -0.15761133 -0.08375841
000200 dc 7a 4e be 29 e0 80 bd 39 63 80 3d ad 04 98 bc
       -0.20164055 -0.06292755 0.06268925 -0.018556917
000210 61 f2 ff bd 5b 14 2d bc 8d 83 a2 3c c8 c7 2e 3d
       -0.12497402 -0.010563935 0.019838119 0.042670995
000220 b4 93 9f bd 2d c2 85 bd 30 8b 56 3e 71 1e ab 3d
       -0.07791844 -0.06531177 0.20951533 0.083554156
000230 c2 b7 0b 3d f6 6e 59 3e 7b ed 06 3e 7f 74 96 3d
       0.034110792 0.21233734 0.13176529 0.073464386
000240 a0 ab 31 be 8a 72 ac bd bd a1 5e bd 66 3c b3 bd
       -0.17350626 -0.08420284 -0.054353464 -0.087517545
000250 22 47 30 bd 42 b2 82 bc 29 e9 04 be 00 3e c8 bd
       -0.043036588 -0.01595414 -0.12979569 -0.097774506
000260 70 d7 90 bd 31 4c 1e bd 82 5b f1 bb 48 e5 2a 3c
       -0.070723414 -0.03864688 -0.007365645 0.0104306415
000270 4d fd 22 3c 4f 88 74 3c 88 36 10 3d ac be ae bc
       0.009948087 0.014925077 0.035208255 -0.021331154
000280 48 25 e7 bc 64 6c 9e 3b bb 5f f0 bc 52 f3 26 bd
       -0.02821602 0.0048346985 -0.029342523 -0.040759392
000290 10 de 25 bd ff ee be bc e0 cf a8 bb 1a 96 45 bd
       -0.04049498 -0.023307322 -0.0051517338 -0.04823885
0002a0 78 5c 50 bd c5 57 ce bc a8 9f bd bd 76 1a 4e ba
       -0.050869435 -0.025188336 -0.09258968 -0.00078622194
0002b0 8b be b1 3d af 35 66 3c 70 48 a7 3c 60 21 12 3e
       0.08678921 0.014050885 0.020420283 0.14270544
0002c0 39 ef 52 3d 90 8c c9 bc 53 97 c8 3d 63 26 6b bc
       0.05149767 -0.024603158 0.09794488 -0.014352414
0002d0 ab 68 9e ba b5 f6 23 bc 41 9b e3 bd be a2 43 bd
       -0.0012085637 -0.01000755 -0.11113597 -0.047762625
0002e0 2c 52 9b bb 34 3b be bd 55 f7 11 bd a4 22 8b 3d
       -0.0047400203 -0.09288636 -0.035636265 0.067937165
0002f0 a4 c4 9d bb 0d 01 df bc e2 98 69 3d e6 f1 0a bd
       -0.004814701 -0.02722218 0.057030566 -0.0339221
000300 d6 6e 23 3d 7d 57 d3 3d db c2 11 3c e9 e2 08 bd
       0.039900623 0.103194214 0.008896555 -0.033419523
000310 9d fb a0 ba e0 b7 ce bd 53 3c b8 bd ad 4c b7 b8
       -0.0012282018 -0.10093665 -0.08995881 -8.740402e-05
000320 32 1f 69 bd 19 c0 1d 3c b7 f3 9d 3d fe 45 60 3b
       -0.056914516 0.009628319 0.077125005 0.0034221406
000330 76 3b c1 3b f3 74 41 3d 5a ab 2a bd e1 14 62 bd
       0.005896981 0.047230672 -0.04166732 -0.055195693
000340 a1 dd 94 bc 7f 40 20 bd dc 13 8c bc ba 4f 84 3c
       -0.018172087 -0.03912401 -0.017099313 0.016151298
000350 c1 56 66 bc cf 43 fa 3b 2c 7a 15 3d bb b4 e0 ba
       -0.01405877 0.007637478 0.036493465 -0.0017143706
000360 9d 49 2a bc f3 42 45 3d 9a b5 a6 bd 19 95 29 3d
       -0.010393527 0.04815955 -0.081401065 0.041401956
000370 69 c2 31 3e c5 3a 9d 3d b7 f9 0d bd 93 a8 ca 3d
       0.17359318 0.07677225 -0.034661975 0.09895434
000380 6a 91 3e bc 81 26 7e 3f fb 88 8d 3f f8 fc 77 3f
       -0.011631349 0.992775 1.1057428 0.96870375
000390 bf 73 91 3f 74 9b 12 40 48 6c 9d 3f 47 85 85 3f
       1.1363448 2.290738 1.229867 1.0431298
0003a0 68 d6 a0 3f 63 63 98 3f d2 11 00 3f 9e 28 16 3f
       1.2565432 1.190533 0.5002719 0.58655727
0003b0 a8 42 ee 3e cf 39 2e 3f 69 41 52 3f 4b 48 38 3f
       0.4653523 0.6805696 0.8213106 0.7198531
0003c0 bd e0 17 3f 05 aa 3c 3f c3 4a 20 3f
       0.593273 0.7369693 0.6261408

bias f4 [3]
000000 eb 11 76 bd e4 b6 1e 3c fc 3d dd bb
       -0.06007568 0.009687159 -0.006751774

weight f4 [3]
000000 64 bf c6 3d 0d f2 fd 3e e0 f9 4f 3f
       0.097044736 0.49598733 0.81240654

bias f4 [3]
000000 bf e7 5a 3e 8f 82 4d bf dc b2 60 3e
       0.21377467 -0.8027734 0.2194323

running_mean f4 [3]
000000 e9 3e 45 3f 88 d1 8e 3f 02 93 88 3e
       0.7704912 1.1157694 0.26674658

running_var f4 [3]
000000 e7 4a 48 3d b5 3d 7a 3e 8c 52 34 40
       0.048899557 0.24437602 2.8175383
