data/perturbations/cat/2018-07-22 15:23:36.936765/pert_model.pt (torch_old, 19859 bytes, 20 tensors)

weight f4 [3, 3, 3, 3]
0.0 0.0 0.0 0.0 1.0 0.0 0.0 0.0
0.0 0.0 0.0 0.0 0.0 0.0 0.0 0.0
0.0 0.0 0.0 0.0 0.0 0.0 0.0 0.0
0.0 0.0 0.0 0.0 0.0 0.0 0.0 0.0
0.0 0.0 0.0 0.0 0.0 0.0 0.0 0.0
1.0 0.0 0.0 0.0 0.0 0.0 0.0 0.0
0.0 0.0 0.0 0.0 0.0 0.0 0.0 0.0
0.0 0.0 0.0 0.0 0.0 0.0 0.0 0.0
0.0 0.0 0.0 0.0 0.0 0.0 0.0 0.0
0.0 0.0 0.0 0.0 1.0 0.0 0.0 0.0
0.0
00000000: 0000 0000 0000 0000 0000 0000 0000 0000
00000010: 0000 803f 0000 0000 0000 0000 0000 0000
00000020: 0000 0000 0000 0000 0000 0000 0000 0000
00000030: 0000 0000 0000 0000 0000 0000 0000 0000
00000040: 0000 0000 0000 0000 0000 0000 0000 0000
00000050: 0000 0000 0000 0000 0000 0000 0000 0000
00000060: 0000 0000 0000 0000 0000 0000 0000 0000
00000070: 0000 0000 0000 0000 0000 0000 0000 0000
00000080: 0000 0000 0000 0000 0000 0000 0000 0000
00000090: 0000 0000 0000 0000 0000 0000 0000 0000
000000a0: 0000 803f 0000 0000 0000 0000 0000 0000
000000b0: 0000 0000 0000 0000 0000 0000 0000 0000
000000c0: 0000 0000 0000 0000 0000 0000 0000 0000
000000d0: 0000 0000 0000 0000 0000 0000 0000 0000
000000e0: 0000 0000 0000 0000 0000 0000 0000 0000
000000f0: 0000 0000 0000 0000 0000 0000 0000 0000
00000100: 0000 0000 0000 0000 0000 0000 0000 0000
00000110: 0000 0000 0000 0000 0000 0000 0000 0000
00000120: 0000 0000 0000 0000 0000 0000 0000 0000
00000130: 0000 803f 0000 0000 0000 0000 0000 0000
00000140: 0000 0000

bias f4 [3]
0.0 0.0 0.0
00000000: 0000 0000 0000 0000 0000 0000

weight f4 [3, 3, 3, 3]
-0.039180707 -0.0035702079 -0.06593794 -0.04063081 0.98044616 -0.058323406 -0.043311536 -0.0003659771
-0.030057264 0.00032839575 0.010704424 -0.033401195 -0.013029617 -0.009391837 -0.0042124256 -0.017182382
-0.0024935892 0.018838493 0.03403595 0.015619329 -0.013831498 -0.006241248 -0.020404398 0.014069705
-0.022866935 -0.02923742 0.009477914 0.052370485 0.064955436 0.063623615 0.03225899 -0.005121836
0.0010720828 0.06080346 0.07546694 0.034732383 -0.059952352 -0.03288513 -0.05318241 -0.048571292
0.9210084 -0.036492087 -0.01252507 -0.031611048 -0.03977349 -0.034342293 -0.007732904 -0.031498846
-0.018913746 -0.037565544 0.0031381184 -0.019264491 -0.033749066 -0.023018235 -0.011412207 -0.0057790224
-0.004891184 -0.0058282586 -0.021211747 -0.007174372 -0.0010750568 -0.0064049386 -0.009853266 -0.009487043
-0.0052877576 -0.0039079846 -0.0037947455 -0.024896333 -0.0047933934 -0.002990807 -0.007059843 -0.008233371
-0.008863949 -0.0065269964 -0.0030179876 0.0011686804 0.97748905 -0.0010445346 -0.00036486087 -0.0037189992
-0.002247958
00000000: f37b 20bd 26fa 69bb 780a 87bd 7e6c 26bd
00000010: 85fe 7a3f 86e4 6ebd 7067 31bd 9de0 bfb9
00000020: a73a f6bc 882c ac39 9c61 2f3c b1cf 08bd
00000030: 2d7a 55bc 38e0 19bc 6308 8abb 11c2 8cbc
00000040: 7c6b 23bb 2f53 9a3c 4869 0b3d 37e8 7f3c
00000050: 829d 62bc 6283 ccbb 2027 a7bc 9f84 663c
00000060: 7053 bbbc 5083 efbc 4149 1b3c 6f82 563d
00000070: 5b07 853d 194d 823d 0122 043d 13d5 a7bb
00000080: 2185 8c3a 0d0d 793d 698e 9a3d 8b43 0e3d
00000090: 9990 75bd 8fb2 06bd ccd5 59bd b1f2 46bd
000000a0: 35c7 6b3f ba78 15bd f435 4dbc 967a 01bd
000000b0: 87e9 22bd 81aa 0cbd 4d64 fdbb ef04 01bd
000000c0: 00f1 9abc 54de 19bd e4a8 4d3b 91d0 9dbc
000000d0: 763c 0abd bd90 bcbc 44fa 3abc f45d bdbb
000000e0: 3a46 a0bb fafa bebb 42c4 adbc ff16 ebbb
000000f0: ece8 8cba 85e0 d1bb 986f 21bc 8b6f 1bbc
00000100: ed44 adbb 8d0e 80bb 44b1 78bb 65f3 cbbc
00000110: e611 9dbb 6a01 44bb 4156 e7bb 43e5 06bc
00000120: 193a 11bc 6ae0 d5bb 6ec9 45bb 682e 993a
00000130: b93c 7a3f c4e8 88ba cc4a bfb9 74ba 73bb
00000140: 7a52 13bb

bias f4 [3]
-0.32676843 0.1200602 0.089385286
00000000: 314e a7be 1fe2 f53d a20f b73d

weight f4 [3, 3, 3, 3]
-0.02431852 0.028283317 -0.03752327 -0.014839213 0.9994298 -0.037384845 -0.022632137 0.02051776
-0.019160522 -0.02669772 -0.0021890071 -0.039338987 -0.030966567 -0.023333738 -0.014741969 -0.024735985
-0.017530592 0.0004637591 0.014169553 0.014971563 -0.007068657 -0.02334177 -0.021805454 0.014709848
-0.0328585 -0.027284445 0.0041021057 -0.008906408 0.011541164 0.025603255 -0.014118412 -0.03894406
-0.01609348 0.014030955 0.016476436 -0.014347672 -0.039161358 0.00013044431 -0.028903045 -0.024704129
0.9431708 -0.015313921 0.019329555 -0.007923055 -0.02657389 -0.023472533 0.0018329379 -0.016583437
-0.009494662 -0.026431631 0.01630334 -0.009055857 -0.018763069 -0.010883073 -0.01627544 -0.012145797
-0.011280272 -0.011022318 -0.028601296 -0.014329106 -0.0052138404 -0.014490653 -0.017816056 -0.004409667
-0.001024183 -0.0010670356 0.00037527762 -0.020163674 -0.00066745246 0.0014952173 -0.003951047 -0.004507947
-0.006328806 -0.0043996884 -0.0013197794 0.0032611194 0.9794819 0.0005149849 0.001975143 -0.0012970266
-9.641451e-05
00000000: a237 c7bc 6ab2 e73c 00b2 19bd 2c20 73bc
00000010: a2da 7f3f da20 19bd 0867 b9bc dd14 a83c
00000020: 87f6 9cbc 2db5 dabc 7275 0fbb eb21 21bd
00000030: 99ad fdbc 6526 bfbc 4d88 71bc 1fa3 cabc
00000040: 519c 8fbc b124 f339 6a27 683c 494b 753c
00000050: 31a0 e7bb 3d37 bfbc 5aa1 b2bc 9301 713c
00000060: a296 06bd a183 dfbc f56a 863b 2fec 11bc
00000070: 2617 3d3c ebbd d13c e950 67bc cf83 1fbd
00000080: 79d6 83bc 17e2 653c 97f9 863c 8012 6bbc
00000090: a967 20bd e1c7 0839 14c6 ecbc 5060 cabc
000000a0: a473 713f 3de7 7abc 0459 9e3c b4cf 01bc
000000b0: 7db1 d9bc 7849 c0bc 313f f03a fdd9 87bc
000000c0: 808f 1bbc 2687 d8bc 958e 853c 045f 14bc
000000d0: 02b5 99bc eb4e 32bc 1254 85bc 2aff 46bc
000000e0: e4d0 38bc f496 34bc 444d eabc a0c4 6abc
000000f0: ddd8 aabb 346a 6dbc faf2 91bc f87e 90bb
00000100: e13d 86ba c6db 8bba e9c0 c439 4a2e a5bc
00000110: faf7 2eba 2bfb c33a c977 81bb 66b7 93bb
00000120: df61 cfbb 432b 90bb 73fc acba 81b8 553b
00000130: 53bf 7a3f 0d00 073a 6771 013b fe00 aaba
00000140: 2532 cab8

bias f4 [3]
-0.21466942 0.15002242 0.09143535
00000000: 4dd2 5bbe 7a9f 193e 7542 bb3d

weight f4 [3, 3, 3, 3]
-0.036030218 0.021849804 -0.049193464 -0.020280916 0.97850555 -0.06583171 -0.023097074 0.0040787575
-0.061793648 -0.021213356 0.009333514 -0.025131898 -0.029497096 -0.022970637 -0.013597638 -0.0022982517
-0.0067401 -0.0010035142 0.008262278 0.024224037 0.010590953 -0.027614087 -0.014246962 0.020332187
-0.020847082 -0.0059245913 0.014636051 -0.03729319 -0.0143460175 0.007233043 -0.03666586 -0.05738052
-0.028812328 -0.010185897 -0.013319598 -0.044605713 -0.030740522 0.017526938 -0.009276897 -0.008330485
0.9655568 0.016537676 0.02934164 0.006703146 -0.008255575 -0.011148219 0.013906592 0.000807664
0.0023965333 -0.01197306 0.031975023 0.002269076 -0.0012911193 0.004409973 -0.019964524 -0.01631837
-0.01469665 -0.014669546 -0.033359986 -0.018117968 -0.008337021 -0.020158503 -0.022222875 -0.00050033827
0.002557907 0.0009611203 0.0038747338 -0.01565317 0.0032481803 0.004551538 -0.0017692631 -0.0011221641
-0.003928543 -0.0020065282 0.00069974223 0.0056756577 0.9820179 0.0025888814 0.004205724 0.0011306737
0.0023837222
00000000: 6c94 13bd 5cfe b23c 167f 49bd 2a24 a6bc
00000010: 577f 7a3f c7d2 86bd 1336 bdbc 19a7 853b
00000020: 561b 7dbd a2c7 adbc 98eb 183c 69e1 cdbc
00000030: e5a3 f1bc eb2c bcbc a1c8 5ebc 449e 16bb
00000040: 0fdc dcbb 5988 83ba 815e 073c 7d71 c63c
00000050: ad85 2d3c f036 e2bc 176c 69bc b08f a63c
00000060: 80c7 aabc 1323 c2bb 0ccc 6f3c bec0 18bd
00000070: 8f0b 6bbc 2a03 ed3b f12e 16bd d607 6bbd
00000080: d507 ecbc c0e2 26bc 713a 5abc 7bb4 36bd
00000090: 8cd3 fbbc a794 8f3c 20fe 17bc 967c 08bc
000000a0: bb2e 773f 057a 873c e15d f03c 10a6 db3b
000000b0: 6442 07bc 05a7 36bc 79d8 633c 6ab9 533a
000000c0: 280f 1d3b a72a 44bc 3ef8 023d c7b4 143b
000000d0: c63a a9ba 8981 903b a48c a3bc 1aae 85bc
000000e0: 38ca 70bc 8958 70bc 7ba4 08bd 226c 94bc
000000f0: 0098 08bc 7223 a5bc bf0c b6bc 2229 03ba
00000100: 8fa2 273b b1f3 7b3a 3fef 7d3b 143b 80bc
00000110: 6cdf 543b 1125 953b 9ee6 e7ba 9415 93ba
00000120: 02bb 80bb f57f 03bb e86e 373a defa b93b
00000130: 8665 7b3f 39aa 293b 2cd0 893b 1d33 943a
00000140: 3938 1c3b

bias f4 [3]
0.003411369 0.18491435 0.08978355
00000000: 4691 5f3b 305a 3d3e 70e0 b73d

weight f4 [3, 3, 3, 3]
0.12127446 0.026948033 0.08529425 0.10307997 0.95378584 0.018749578 0.028693017 0.05605803
0.054923985 -0.014517755 0.02557445 0.015785066 -0.0043390235 0.022916187 0.009081145 0.029752731
0.042193647 -0.0054909335 0.0061242837 0.014740545 0.0030333414 0.003055583 0.005029398 0.0131480945
0.009497068 -0.008401879 -0.007002616 0.02811935 -0.06826963 0.0014557419 -0.07309651 -0.003615123
0.0023350606 -0.13746461 0.036815554 -0.026654053 0.03322756 0.023572002 0.008412809 0.0008724287
0.997677 0.009143047 0.0042160014 0.041510563 0.013308065 -0.023549153 0.003682096 -0.012339086
-0.003855348 -0.021597957 -0.002317659 -0.008846472 -0.017915076 -0.022560641 -0.009251666 -0.011602447
-0.0133516155 -0.010523833 -0.01293681 -0.01347261 -0.009971887 -0.009905437 -0.01363584 0.0015845472
0.0031471422 -0.0016448245 -0.0027117243 -0.005933133 -0.0015498488 -0.0038282638 -0.0020172305 -0.0034749347
-0.007216716 -0.0012247083 -0.004679354 -0.0019712457 0.9851697 -0.0041140355 -0.00455992 -0.001195683
-0.0035895265
00000000: be5e f83d 1fc2 dc3c c0ae ae3d 971b d33d
00000010: 4f2b 743f b798 993c 9e0d eb3c 1b9d 653d
00000020: f9f7 603d e1db 6dbc 8281 d13c af4f 813c
00000030: 5e2e 8ebb baba bb3c 15c9 143c 00bc f33c
00000040: 3fd3 2c3d 4aed b3bb 37ae c83b 5482 713c
00000050: 06cb 463b 2d40 483b a6cd a43b 1b6b 573c
00000060: 9799 1b3c 09a8 09bc 3376 e5bb 8d5a e63c
00000070: f3d0 8bbd 98ce be3a 9fb3 95bd b3eb 6cbb
00000080: d107 193b 86c3 0cbe e8cb 163d 9a59 dabc
00000090: 9f19 083d 121a c13c e1d5 093c b3b3 643a
000000a0: c367 7f3f b8cc 153c 6226 8a3b fb06 2a3d
000000b0: 120a 5a3c 27ea c0bc 524f 713b e129 4abc
000000c0: 02aa 7cbb 33ee b0bc dee3 17bb cbf0 10bc
000000d0: a3c2 92bc 18d1 b8bc 4d94 17bc 3118 3ebc
000000e0: bcc0 5abc 286c 2cbc eaf4 53bc 39bc 5cbc
000000f0: 2061 23bc 6a4a 22bc dc68 5fbc 95b0 cf3a
00000100: 4940 4e3b 2797 d7ba 2fb7 31bb ba6a c2bb
00000110: 4c24 cbba 9ce3 7abb 8333 04bb bbbb 63bb
00000120: 347a ecbb 6486 a0ba 4455 99bb 0430 01bb
00000130: 1534 7c3f 08cf 86bb 626b 95bb 77b8 9cba
00000140: 433e 6bbb

bias f4 [3]
-0.108686365 0.050708592 0.090523176
00000000: f596 debd d0b3 4f3d 3764 b93d

weight f4 [3, 3, 3, 3]
0.10676472 0.01207523 0.0674786 0.09021649 0.9409517 0.01168278 0.019810256 0.041997574
0.047853936 -0.031790163 0.019516787 0.010774396 -0.01704539 0.027089661 0.0057031563 0.011740778
0.038732175 -0.016855817 0.002883036 0.021573601 0.0074690664 0.006221882 0.011976451 0.020078547
0.012545139 -0.004188679 0.0007531091 0.045505226 -0.03400356 0.009556155 -0.058769807 -0.005488262
0.0052200593 -0.098831475 0.034848534 -0.0013395279 0.038318194 0.025651429 0.006115928 0.00368596
1.0111551 0.01095007 -0.010932626 0.037798543 0.008839103 -0.016821155 0.010344101 -0.005431753
0.006466862 -0.012613975 0.006119126 0.0037686122 -0.008016689 -0.013494136 -0.012144646 -0.014562231
-0.016045274 -0.013967974 -0.016058229 -0.016702523 -0.013273001 -0.013641247 -0.01697744 0.006031047
0.0071621817 0.0022000065 0.0012987175 -0.0015737118 0.0021169055 0.00014394465 0.0016360611 -0.00012142179
-0.005215945 0.00090762635 -0.0025699497 9.6093434e-05 0.9873087 -0.0022751489 -0.0023891581 0.0011748518
-0.0016759128
00000000: 76a7 da3d 2fd7 453c 3832 8a3d 6cc3 b83d
00000010: 36e2 703f 2269 3f3c 1e49 a23c a605 2c3d
00000020: 7d02 443d 6736 02bd abe1 9f3c 1887 303c
00000030: c6a2 8bbc 23eb dd3c 8be1 ba3b 645c 403c
00000040: a1a5 1e3d 3615 8abc 51f1 3c3b 1fbb b03c
00000050: 12bf f43b eee0 cb3b e038 443c c47b a43c
00000060: 208a 4d3c 3041 89bb 4c6c 453a b063 3a3d
00000070: 5147 0bbd 6b91 1c3c 9cb8 70bd e1d6 b3bb
00000080: 080d ab3b 2868 cabd 56bd 0e3d 1993 afba
00000090: 8af3 1c3d f222 d23c 1f68 c83b 2690 713b
000000a0: 886d 813f ec67 333c c21e 33bc a5d2 1a3d
000000b0: e3d1 103c 85cc 89bc 4e7a 293c d9fc b1bb
000000c0: f8e7 d33b d9aa 4ebc f382 c83b d2fa 763b
000000d0: 6e58 03bc 8216 5dbc 56fa 46bc 6c96 6ebc
000000e0: 6171 83bc eed9 64bc 8c8c 83bc bbd3 88bc
000000f0: 0077 59bc 897f 5fbc 4614 8bbc 17a0 c53b
00000100: bcb0 ea3b fc2d 103b ba39 aa3a 0145 ceba
00000110: c8bb 0a3b d9ef 1639 1a71 d63a d4a3 feb8
00000120: 85ea aabb c6ed 6d3a 9a6c 28bb c585 c938
00000130: 43c0 7c3f aa1a 15bb 6c93 1cbb 7cfd 993a
00000140: 4daa dbba

bias f4 [3]
-0.038611405 0.08957989 0.09101624
00000000: fe26 1ebd a975 b73d b966 ba3d

weight f4 [3, 3, 3, 3]
0.079653755 -0.0062543787 0.033896048 0.061210096 0.9274769 -0.008121125 -0.008579091 0.016866056
0.020741895 -0.01891717 0.028706968 0.02457713 0.0011176601 0.042271204 0.024663 0.01717903
0.048737314 -0.007105817 0.0040701544 0.032783676 0.015116529 0.017468596 0.02505004 0.032541674
0.022538487 0.007143553 0.015110467 0.071446516 -0.008696866 0.024654398 -0.05760939 -0.0017330344
0.014882606 -0.095962934 0.039703894 0.021515412 0.028181924 0.019067515 -0.005240195 -0.0025478522
1.0138818 0.0062816357 -0.02464191 0.028206304 -0.0009769617 -0.0069854027 0.0188483 0.002718954
0.019595513 -0.0019435707 0.015347046 0.018939503 0.0033711395 -0.0035038323 -0.013515268 -0.015216583
-0.016646985 -0.015395767 -0.01668148 -0.01761195 -0.014348149 -0.014733444 -0.017974727 0.010113435
0.01174975 0.0066176127 0.005537082 0.0037512744 0.0066541894 0.004400236 0.006151433 0.004148764
-0.0033199089 0.0028792694 -0.00061209936 0.002255734 0.989628 -0.00035369824 -0.00032485538 0.0032745402
2.6009107e-05
00000000: 8221 a33d 88f1 ccbb 95d6 0a3d 70b7 7a3d
00000010: 206f 6d3f 780e 05bc 518f 0cbc af2a 8a3c
00000020: e8ea a93c 2ef8 9abc e02a eb3c fa55 c93c
00000030: 737e 923a 9224 2d3d 0f0a ca3c 0abb 8c3c
00000040: c7a0 473d ead7 e8bb ee5e 853b 2d48 063d
00000050: 51ab 773c 4d1a 8f3c be35 cd3c 6b4a 053d
00000060: a2a2 b83c 7714 ea3b e491 773c 8d52 923d
00000070: 4d7d 0ebc 05f8 c93c d3f7 6bbd fc26 e3ba
00000080: 2dd6 733c 3788 c4bd 8da0 223d 1741 b03c
00000090: c7dd e63c 7a33 9c3c f1b5 abbb def9 26bb
000000a0: e1c6 813f 2ed6 cd3b d5dd c9bc e810 e73c
000000b0: 650d 80ba cee5 e4bb c067 9a3c 7b30 323b
000000c0: c586 a03c 69bf feba 2d72 7b3c 0427 9b3c
000000d0: 56ee 5c3b 8da0 65bb 256f 5dbc fa4e 79bc
000000e0: 425f 88bc 873e 7cbc 99a7 88bc f046 90bc
000000f0: 8014 6bbc 8b64 71bc bc3f 93bc d2b2 253c
00000100: 0682 403c 8fd8 d83b 6970 b53b f1d7 753b
00000110: 630b da3b db2f 903b f691 c93b 5bf2 873b
00000120: d492 59bb 20b2 3c3b 4b75 20ba f0d4 133b
00000130: 4358 7d3f 9370 b9b9 5a51 aab9 ab99 563b
00000140: 222e da37

bias f4 [3]
0.036830544 0.11290818 0.09074597
00000000: a0db 163d 673c e73d 06d9 b93d

weight f4 [3, 3, 3, 3]
0.039228216 -0.013288272 0.011060408 0.018221594 0.9255937 -0.017606243 -0.027982017 0.00046593737
0.008127084 -0.00973713 0.02800231 0.013851682 0.010987611 0.044396453 0.024144681 0.00553685
0.04071134 -0.0043814904 -0.044912953 -0.0020116416 -0.03576525 -0.01808102 0.0074413726 -0.00096470694
-0.027523417 -0.027110029 -0.0199632 0.0316535 -0.002341944 -0.017320517 -0.061823267 -0.01858032
-0.009562457 -0.08107109 0.024556385 0.027793165 0.022071078 0.012056051 -0.033637624 -0.005829277
1.0073977 -0.0026764206 -0.03348407 0.02879907 0.016980005 -0.004768589 0.02032658 -0.012552204
0.016365543 0.0032039688 0.011664297 0.006081253 -0.0035639803 0.004576238 -0.013239653 -0.014253476
-0.02030197 -0.015639534 -0.014417215 -0.021406084 -0.018318465 -0.012545874 -0.0155033525 0.014339226
0.016115516 0.006782667 0.009412844 0.009325306 0.0051414617 0.0048508146 0.012078787 0.009044967
-0.0028990472 0.0035996158 -0.0054160934 0.0024139248 0.99195874 -0.004986704 -0.0053789825 0.0054046484
0.0018225533
00000000: c4ad 203d 0db7 59bc b736 353c 7445 953c
00000010: b5f3 6c3f f83a 90bc 8b3a e5bc 0e49 f439
00000020: 7627 053c 7c88 1fbc 1a65 e53c 2af2 623c
00000030: 6105 343c 0ed9 353d 11cb c53c 776e b53b
00000040: efc0 263d 9b92 8fbb a5f6 37bd bfd5 03bb
00000050: 957e 12bd a61e 94bc c2d6 f33b 63e4 7cba
00000060: ca78 e1bc da15 debc dd89 a3bc 1aa7 013d
00000070: 4d7b 19bb c2e3 8dbc 653a 7dbd c135 98bc
00000080: daab 1cbc 9a08 a6bd 792a c93c 7eae e33c
00000090: 68ce b43c be86 453c 9bc7 09bd 8503 bfbb
000000a0: 68f2 803f e366 2fbb 9826 09bd 07ec eb3c
000000b0: a719 8b3c d341 9cbb ee83 a63c c2a7 4dbc
000000c0: 0811 863c adf9 513b 9c1b 3f3c 3f45 c73b
000000d0: ab91 69bb 44f4 953b 21eb 58bc 6987 69bc
000000e0: 5150 a6bc 7b1e 80bc 2f36 6cbc d05b afbc
000000f0: 9b10 96bc 368d 4dbc c601 7ebc 13ef 6a3c
00000100: b004 843c 2241 de3b 5438 1a3c 2bc9 183c
00000110: b579 a83b 95f3 9e3b 1be6 453c 5731 143c
00000120: f1fd 3dbb 88e7 6b3b 7c79 b1bb f032 1e3b
00000130: 02f1 7d3f 8167 a3bb 2d42 b0bb 7a19 b13b
00000140: bee2 ee3a

bias f4 [3]
-0.009089011 0.12101879 0.08305348
00000000: 13ea 14bc b3d8 f73d f117 aa3d

weight f4 [3, 3, 3, 3]
0.035536163 -0.018991394 -0.001334108 0.016230771 0.9208706 -0.020796293 -0.042831123 -0.010828572
0.0025343106 0.0046258075 0.040371228 0.032405898 0.037171073 0.063059896 0.050632935 0.029186577
0.056464843 0.011093873 -0.035404842 0.0131905945 -0.028464396 0.0013285904 0.024190737 0.012594592
-0.01042341 -0.011901333 -0.0024105604 0.05109354 0.0045068692 -0.017781459 -0.05068399 -0.0008325376
0.015898915 -0.079629116 0.031646717 0.04773288 0.0052481857 -0.00089293387 -0.043440983 -0.01324515
0.9977766 -0.015097775 -0.03602328 0.017270524 -0.004564755 0.015616653 0.03400492 -0.0011582172
0.039086085 0.01719474 0.021977747 0.028847987 0.007069219 0.013875632 -0.0078467885 -0.009180378
-0.015519445 -0.009738287 -0.009044122 -0.017089026 -0.012645897 -0.007953529 -0.011983379 0.020086465
0.02270452 0.013068974 0.015804488 0.017422147 0.011711665 0.011778475 0.01986604 0.015237279
-0.0013692005 0.0052206446 -0.0034026548 0.0039264713 0.99421495 -0.002880864 -0.0039636535 0.0074186283
0.0037253862
00000000: 5e8e 113d d793 9bbc 3cdd aeba 65f6 843c
00000010: 2dbe 6b3f fd5c aabc b06f 2fbd 536a 31bc
00000020: ad16 263b 1694 973b 4d5c 253d 0cbc 043d
00000030: b240 183d 8c25 813d 7b64 4f3d b018 ef3c
00000040: ae47 673d 13c3 353c ab04 11bd 5d1d 583c
00000050: 2a2e e9bc 1924 ae3a a72b c63c 8c59 4e3c
00000060: f3c6 2abc cffd 42bc 7efa 1dbb 7647 513d
00000070: 5cae 933b 6caa 91bc 049a 4fbd a73e 5aba
00000080: 713e 823c 9714 a3bd fd9f 013d 8d83 433d
00000090: f9f8 ab3b c713 6aba 2cef 31bd 3002 59bc
000000a0: 4a6e 7f3f a85c 77bc 268d 13bd ea7a 8d3c
000000b0: f193 95bb fddc 7f3c be48 0b3d 52cf 97ba
000000c0: bb18 203d fcdb 8c3c ad0a b43c 9d52 ec3c
000000d0: e8a4 e73b 9e56 633c d18f 00bc 4c69 16bc
000000e0: 4545 7ebc 568d 1fbc cc2d 14bc 49fe 8bbc
000000f0: bd30 4fbc 854f 02bc ef55 44bc 5f8c a43c
00000100: d4fe b93c 401f 563c 6a78 813c e4b8 8e3c
00000110: 49e2 3f3c 81fa 403c 1bbe a23c c8a5 793c
00000120: bf76 b3ba f111 ab3b 13ff 5ebb a1a9 803b
00000130: df84 7e3f e1cc 3cbb 89e1 81bb f717 f33b
00000140: 9c25 743b

bias f4 [3]
0.043985896 0.12178018 0.082365766
00000000: 8e2a 343d e367 f93d 62af a83d

weight f4 [3, 3, 3, 3]
0.02940527 -0.008341646 0.002050129 0.02417759 0.9362236 -0.00799046 -0.023601323 -0.0006349692
0.0065629478 0.010752128 0.04597757 0.038958807 0.04735073 0.070348494 0.06073501 0.0394893
0.06325275 0.02010418 -0.022678228 0.029988818 -0.01875512 0.024613507 0.043459225 0.027632024
0.010750625 0.0030495129 0.012090305 0.028070554 0.0037529946 -0.013772318 -0.035311613 -0.0052932044
0.0142884385 -0.05362112 0.022353267 0.026690058 0.0014441187 -0.0023287982 -0.038069647 -0.014282601
0.98525906 -0.022319892 -0.02932328 0.009980717 -0.017269127 0.03700348 0.04597538 0.0074059227
0.06096837 0.028341416 0.027367154 0.049734715 0.012505305 0.015755806 0.00092375034 0.0006163897
-0.0052744704 0.0004065689 0.0016793676 -0.006947518 -0.0019537401 0.0027357358 -0.0023270906 0.024311244
0.028756095 0.019265922 0.021059517 0.02549641 0.01866812 0.017875865 0.027823342 0.022169888
-0.0009589794 0.006123669 -0.0014710106 0.0044952272 0.99621177 -0.00048341398 -0.003249123 0.009140409
0.005717562
00000000: 52e3 f03c 66ab 08bc 755b 063b 1510 c63c
00000010: 5aac 6f3f 6bea 02bc 9057 c1bc 1074 26ba
00000020: ff0d d73b b229 303c fa52 3c3d 4593 1f3d
00000030: d7f2 413d df12 903d 46c5 783d 88bf 213d
00000040: a88a 813d 85b1 a43c b1c7 b9bc 1cab f53c
00000050: 56a4 99bc 44a2 c93c 4d02 323d 8e5c e23c
00000060: 6423 303c 56da 473b 6a16 463c 38f4 e53c
00000070: cdf4 753b 4aa5 61bc e9a2 10bd 9e72 adbb
00000080: 0e1a 6a3c d2a1 5bbd 331e b73c 1ca5 da3c
00000090: 9548 bd3a c09e 18bb ebee 1bbd 9201 6abc
000000a0: f039 7c3f 35d8 b6bc 6037 f0bc 2986 233c
000000b0: fc77 8dbc f690 173d ae50 3c3d 62ad f23b
000000c0: f8b9 793d 422c e83c 1531 e03c a1b6 4b3d
000000d0: 0de3 4c3c 5212 813c d627 723a 3695 213a
000000e0: 77d5 acbb c128 d539 3a1e dc3a 01a8 e3bb
000000f0: 520a 00bb 084a 333b 1a82 18bb 6028 c73c
00000100: e791 eb3c 91d3 9d3c 0285 ac3c d9dd d03c
00000110: e3ed 983c 6870 923c c7ed e33c a09d b53c
00000120: 0564 7bba 0fa9 c83b edce c0ba b34c 933b
00000130: bc07 7f3f ba72 fdb9 3def 54bb a7c1 153c
00000140: 635a bb3b

bias f4 [3]
0.07205145 0.102573626 0.082682945
00000000: b68f 933d 1f12 d23d ad55 a93d
